HW2/hw_alex/hw2_py/results/_14_11_31/lr_0_01_net_1_CE_/model.pth (torch_old, 39192 bytes, 20 tensors)

conv1.weight f4 [8, 1, 3, 3]
00000000: 0737 36be fcf1 5a3f 338a ab3f 1da3 773e
00000010: eb65 e83c afd3 d8bd c0ef 11bf ae6a 93bf
00000020: 05a7 94bf 799e 1f3f e640 cd3c 223d 28bc
00000030: 6486 ae3e 29f2 27be e6b0 65be 704f 6f3e
00000040: a6e2 f8bd 50ed 17bf 6933 ac3e b273 be3e
00000050: 65fa e03e cd1f 093f da60 56bf c5d8 d33e
00000060: e7d5 113e 1de1 1fbf 4e95 283f 2a61 78bf
00000070: 902b 803e 6597 0d3f b21f 0bbd ec3e bf3f
00000080: 84fe 43bd 0fff 1c3f 8879 f33d 2a4b 5bbf
00000090: 9707 2a3e 06be a83e 086a 0abf 49a9 3a3f
000000a0: f1d0 893d a080 7cbf 9ad8 4b3f 7c3f 8cbe
000000b0: 0505 49bf 1574 9e3e a72d 6e3f e533 89bf
000000c0: 805c 33be 2d8a aa3f 3219 723f 9ef5 0fbf
000000d0: e101 22bf c6b7 e73e e9d6 df3d 7316 abbe
000000e0: f8bb 883d c21a dabd c7c3 d33b 59b7 79be
000000f0: d310 8cbe 9fb6 06be b146 98be 7d18 18bf
00000100: 15d5 acbd d8c3 3f3f 823a 15bf 9cb1 9abe
00000110: d3a0 433f 90f7 7cbe 2a05 00bf e1ae c83e
-0.17794429 0.8552549 1.340155 0.24183317 0.02836891 -0.105872504 -0.57006454 -1.1516931
-1.161347 0.62351185 0.02505536 -0.010268481 0.34086907 -0.1640097 -0.22430763 0.23370147
-0.12152605 -0.59346485 0.33632973 0.37197644 0.43941036 0.5356415 -0.83741534 0.4137632
0.14241754 -0.6245287 0.6585282 -0.9702326 0.25033236 0.55309135 -0.033965774 1.4941077
-0.047850147 0.6132669 0.118884146 -0.85661566 0.16604458 0.32957476 -0.5406804 0.7291456
0.067293055 -0.98633766 0.7962738 -0.27392185 -0.78523284 0.3094794 0.9303841 -1.0718962
-0.17515755 1.3323418 0.94569695 -0.5623416 -0.63284117 0.45257396 0.10929663 -0.33415565
0.06676477 -0.10649635 0.0064625475 -0.24386348 -0.27356586 -0.13155602 -0.29741433 -0.59412366
-0.0843908 0.7490821 -0.582924 -0.3021363 0.76417273 -0.24703813 -0.5000788 0.39195922

conv1.bias f4 [8]
00000000: 4133 9ebe 94be 7abe 9d57 8f3d a3f1 2dbe
00000010: 7da2 6dbe d530 3c3e 7955 9bbe e378 883d
-0.3089848 -0.24486762 0.06999133 -0.16986708 -0.23206516 0.18378003 -0.30338648 0.06663682

bn_1.weight f4 [8]
00000000: fe1e 943f 2d6f 343f cbc3 443f b013 873f
00000010: 0409 8f3f c132 853f 4163 613f 136f 723f
1.1571958 0.7048214 0.76861256 1.0552883 1.1174626 1.0406114 0.88042074 0.94700736

bn_1.bias f4 [8]
00000000: 14f1 5c3d 2d7d dbbe f013 c13e b29f 5fbf
00000010: 4019 303e f8c2 a9bf 9016 ed3d ebcd 86be
0.053940848 -0.4286894 0.37710524 -0.8735305 0.17197132 -1.3262625 0.11576569 -0.26328978

bn_1.running_mean f4 [8]
00000000: 5ffa 253e 47f1 9cbe c53c 6fbf 2e04 81bf
00000010: c0aa 583e 3d89 62bf 108a 083f bd9d a63e
0.1620879 -0.3065283 -0.934521 -1.00794 0.21158886 -0.8849066 0.53335667 0.3254222

bn_1.running_var f4 [8]
00000000: 7044 0140 7a66 ee3e dac5 1f3f e891 a13f
00000010: 4dd0 bd3f edab a23f 585b dd3e 94ea 713f
2.019802 0.46562558 0.6241127 1.2622652 1.4829193 1.2708718 0.43233752 0.9449856

conv2.weight f4 [16, 8, 3, 3]
00000000: f234 c1bd f6bb 97be c7bc 34be 92f1 fdbe
00000010: 9b24 24be dce0 6c3d c71b 44be eb9e 563e
00000020: 86c7 a13e 1d96 063e 1345 56bd b88a 1b3d
00000030: 894d 69bd f549 1b3e aa40 123d bced 20be
00000040: 6bbb 58be 052e 73bd da95 043e 1f4f 063a
00000050: 2a97 b63d 08f4 84be 6fbe 01be 3394 523e
00000060: 6717 88be 374b 3cbe 27c3 81bd dba3 aabe
00000070: d5ee 0d3d 4e13 853e 3fac e2be c67b 673e
00000080: 8e59 b33e 6c84 0fbf fbbf 1dbe 2893 e0be
00000090: 209b 063f 10d9 95be f19e 2b3e 8d11 423e
000000a0: 92f1 813e c63b 683e e8e4 33bd eff2 89be
000000b0: 9443 e4be b3ae c9be c346 8bbd e62c 13bd
000000c0: 4def a1be 235c 2a3e af6e 773d 591d 5dbe
000000d0: 88f4 f13e ae9d 1c3f b987 0b3e 97ea 073d
000000e0: 8f5c f0bd e3d9 bf3d a9f6 00bd 86a4 18be
000000f0: 41b3 4e3e df11 623e 04ae e9bc e828 423e
00000100: be50 903e 96ff 89be 9093 21ba 0fd0 003f
00000110: 05d0 41bc 5a21 19be 54a3 d23e 3888 943e
00000120: 1ed4 293e 6ede 25be 0236 febd af02 b53e
00000130: ff9a 7abe 1943 fdbe 922c da3d b70c 69be
00000140: 64d5 93be dc10 153d b26f bebd 4564 b83c
00000150: 9b47 4dbd 47a3 3bbd 2343 2e3e 5456 783c
00000160: a687 88bd 3efa cabd 416e 86bd c934 bd3c
00000170: 4ecc b53e a396 203d 8b11 263d 655c 3f3e
00000180: e640 10be 87e1 1abd ea06 063e 34e5 183d
00000190: 510b a2bd 6b0b 853e 7e10 02be ebe2 d8be
000001a0: fcb1 b7bd 63f1 c3be 4f66 0bbe 086b 86be
000001b0: 8de0 84bd a1f2 a5bd 9240 953e f18d 23bd
000001c0: cf16 43bd c25d 1c3f 49db a8be 02de 67be
000001d0: 7bac 723e 1e42 d7bc 8f03 d73b 2c5d 283e
000001e0: 2a8f af3b 4201 b03e 1942 633e d714 6cbe
000001f0: 4011 a93d 1c98 b93e 06ff c5bd d181 4abe
00000200: aba1 3bbe ab1d bb3d c956 1abd 49bc 39be
00000210: 3fd4 3a3e 3035 abbd 7629 30be 061f 3bbd
00000220: cd53 903c 2c15 503e 26af 44be 3b5c d83d
00000230: 2c94 963e 726e a1be e2a3 0b3e 4827 b93e
00000240: 4a4c b93e 5064 583e a9ac 273e 26a9 35be
00000250: 88ec 5f3d fd6d aa3d 185c 6ebe b822 74be
00000260: 6827 98be d204 afbe a385 f9bd 91d9 bb3d
00000270: eec1 16be 96dc 68be fcd7 71bc 91f8 37bd
00000280: 0893 283e 6112 7dbe a6a5 02bf 0f1c 40be
00000290: 7b9c e83b 0021 68bd 2d10 b9be bff5 1cbf
000002a0: 966a 123f 9ff8 a03d 6c7e debd 22ad 0cbf
000002b0: 9bfe 9d3d 18a2 e63d 100b 8dbe c3ef f9be
000002c0: cc44 0fbf bab2 aa3e 728e 923c 953f 47be
000002d0: 0810 f7be 23dc dcbe 81eb 803d a8b1 863e
000002e0: 1cbc d0bd 01b6 80be 9855 bc3e 6f33 293f
000002f0: 0443 8f3e d203 b9be 7236 e63e dbf5 34be
00000300: 3cfd 913d 0596 aabe 9903 bdbe 0dc7 bf3e
00000310: a514 ed3e b70a 2fbc b7a0 473e 4ca5 9f3d
00000320: 192b 163d 85e9 a23d fec7 c33d 237c ba3d
00000330: e71f 21be 840e c1bd a4cb dcbc 63ff 303e
00000340: 5494 ef3e 6815 503c 492b 01bf 9989 f43c
00000350: 0757 6fbe a704 143e efde 313e 206e 1abe
00000360: fd81 233d 7257 70bd 1bc7 543e 91dd 043e
00000370: 7e2b 233f 00f3 2c3f de3a b53e 3749 943e
00000380: a28f bc3d 7dc7 5abd be1d 46be 85c5 fdbc
00000390: f26b fcbc 7936 b7bd 06e6 283d be3e 88bc
000003a0: 5d4c 753d 3bb8 0dbe 6658 48bd 7898 3e3e
000003b0: 85a6 9e3d b0ec 053e 71a0 213e 5046 3a3e
000003c0: 3414 1ebe 04be 0bbe 72f3 16be 799c bfbd
000003d0: 170b 093e 8fd3 1f3f 8f8c aebe 1814 62bd
000003e0: 333a 34bd 9bef 3abe cf52 53be 7245 5f3d
000003f0: c84d 933e dcbc 6dbd a86e c43c df93 393e
-0.09433927 -0.2963559 -0.17650138 -0.49598366 -0.16029589 0.05783163 -0.19151221 0.2095906
0.31597537 0.13143201 -0.052311968 0.03797409 -0.05695871 0.15164931 0.0357062 -0.15715688
-0.21165244 -0.05937006 0.12947789 0.00051234843 0.08915551 -0.2596743 -0.12670301 0.20564346
-0.26580355 -0.18388067 -0.063360505 -0.33328137 0.034651596 0.2599129 -0.44272038 0.2260581
0.35029262 -0.56061435 -0.15405266 -0.4386227 0.5258045 -0.29267168 0.1675985 0.18952008
0.25379616 0.22679052 -0.043919474 -0.26943156 -0.44582808 -0.39391097 -0.06800606 -0.03593149
-0.31627885 0.1663671 0.06040829 -0.21593226 0.47256875 0.611781 0.13625993 0.033182707
-0.11736404 0.093677305 -0.031485233 -0.1490651 0.20185567 0.2207713 -0.02852536 0.18960917
0.281866 -0.2695281 -0.0006163651 0.5031747 -0.011829381 -0.14954129 0.41140234 0.29010177
0.16584823 -0.16198131 -0.12412645 0.3535361 -0.24473189 -0.49465254 0.10653032 -0.22758757
-0.28873742 0.03639303 -0.09298648 0.02250875 -0.050117116 -0.04581001 0.17017798 0.015157301
-0.06666498 -0.09911011 -0.06563998 0.023096459 0.35507435 0.03920616 0.040544074 0.1868759
-0.14087257 -0.037812736 0.13088575 0.03732796 -0.07912315 0.25985274 -0.12701604 -0.42360625
-0.08969495 -0.382701 -0.13613246 -0.26253533 -0.06488142 -0.081029184 0.29150826 -0.039930288
-0.047629174 0.61080563 -0.329798 -0.22643283 0.23698609 -0.026276644 0.0065617035 0.16441792
0.0053576427 0.3437596 0.22193183 -0.23054825 0.08255243 0.36248863 -0.096677825 -0.19776084
-0.1832339 0.09136518 -0.03768042 -0.18138231 0.18245028 -0.08359754 -0.17203316 -0.045683883
0.017618084 0.20320576 -0.19207439 0.105644666 0.2940992 -0.31529576 0.13636735 0.36162782
0.36191016 0.21132016 0.16374458 -0.17740306 0.054668933 0.0832176 -0.23277318 -0.23841369
-0.29717565 -0.34183365 -0.12183692 0.09172357 -0.14722416 -0.22740397 -0.014760967 -0.044914786
0.16462338 -0.24714042 -0.5103401 -0.18760704 0.007098732 -0.056672096 -0.36145154 -0.6131248
0.5719389 0.07859921 -0.10863957 -0.5495168 0.07714578 0.11261386 -0.27547503 -0.48815736
-0.5596435 0.33339483 0.017890189 -0.19457848 -0.48254418 -0.431367 0.06294919 0.26307416
-0.10192129 -0.25138858 0.36784053 0.66094106 0.27980816 -0.36135727 0.44963413 -0.17671911
0.07128379 -0.3331758 -0.36916807 0.3745655 0.46304813 -0.010683707 0.19494902 0.077952
0.036662195 0.079546966 0.0955963 0.091057085 -0.15734826 -0.09426597 -0.026952572 0.17284922
0.46792853 0.012700416 -0.5045667 0.029850768 -0.23373042 0.144549 0.17370199 -0.15081072
0.03991889 -0.058677144 0.20779078 0.12975146 0.6373824 0.6755829 0.35396475 0.28962108
0.09207083 -0.053412903 -0.19347283 -0.030977974 -0.030813191 -0.08945937 0.041234992 -0.01663148
0.05988728 -0.1383981 -0.04891243 0.1861285 0.07746605 0.1307857 0.1578386 0.18190885
-0.15437394 -0.13646704 -0.14741305 -0.09356017 0.13383137 0.6243219 -0.34091613 -0.055194944
-0.044000816 -0.18255465 -0.20637058 0.054509588 0.2877028 -0.05804144 0.023978546 0.18122815

conv2.bias f4 [16]
00000000: 0f14 93bd db2d 6a3c 9c38 b1bd 3d97 5bbc
00000010: 395f a23c 0947 b13d f49d e7bd f7dd 933d
00000020: 9413 91bc df6a 463d ac72 943d b697 073d
00000030: ab9a ddbd f814 a2bc ee9a 8f3d 2a00 c5bd
-0.0718156 0.014293159 -0.086533755 -0.013402757 0.019820796 0.08656127 -0.11309424 0.07220071
-0.01770953 0.048441764 0.072484344 0.033103667 -0.10820516 -0.01978539 0.07011972 -0.09619172

bn_2.weight f4 [16]
00000000: 155e 8f3f d6ac 603f e8e0 a33f 0340 143f
00000010: c092 523f c223 5d3f 982c 5f3f 7e5c 2b3f
00000020: 0a96 523f 31d2 873f ef9b a23f e477 2c3f
00000030: eb0e 5b3f c860 813f f199 5e3f 93ee 8a3f
1.1200587 0.87763727 1.2803011 0.57910174 0.8225517 0.8638269 0.8717742 0.66938007
0.8226019 1.061102 1.2703837 0.6737044 0.8556964 1.010766 0.86953646 1.0854057

bn_2.bias f4 [16]
00000000: e2f1 e8be 9648 cfbe 72a7 09bf fac9 bf3d
00000010: aa5d 8dbe 645b 0dbf 380a d33d 5f25 863e
00000020: 064b 9dbe e3a8 cbbe 2990 1bbf 89d9 56be
00000030: 83a9 49be bb45 92be f906 77bf 9a7b 45be
-0.45497042 -0.40485066 -0.53771126 0.09364696 -0.27610523 -0.55217576 0.103046834 0.26200387
-0.307213 -0.39777288 -0.60766846 -0.2098142 -0.1969357 -0.28568825 -0.96495014 -0.19285432

bn_2.running_mean f4 [16]
00000000: 03da 01bf e232 a6be ec55 d4bf d33c ea3f
00000010: b7ae 17bf ef77 a83f 5de4 063f a707 253f
00000020: 2766 e1bf 5b97 b8bf 7f17 03c0 6257 6bbf
00000030: fb80 a1bf be7a 0ac0 3535 9b3f ce65 c8bf
-0.50723284 -0.32460696 -1.6588721 1.8299812 -0.5925097 1.3161601 0.52692205 0.644648
-1.76093 -1.442119 -2.048309 -0.9193021 -1.2617487 -2.1637416 1.2125612 -1.5656068

bn_2.running_var f4 [16]
00000000: dbbb db40 77a7 9740 a004 0341 149e b040
00000010: 5ae1 b440 3408 2841 9892 1441 77fc 0441
00000020: 3335 6440 94fa cc40 7fea ca40 84d8 7840
00000030: 307e ff40 e118 e840 2348 7c40 5f17 0941
6.8666816 4.7391925 8.188629 5.5192966 5.6525087 10.502003 9.2857895 8.311637
3.565747 6.405588 6.341125 3.888215 7.9841537 7.253037 3.9419029 8.568206

conv3.weight f4 [32, 16, 3, 3]
00000000: 4397 a6bc 4651 8abd 30eb 9a3c b51e 88bd
00000010: 7d85 8fbd e948 56bd debb 6ebc 5167 dabc
00000020: 164d 0ebd fea8 59bc aeef acbc 9c16 7abd
00000030: b187 8abd 029f 93bd effd f9bc 661f 4ebd
00000040: 70c3 59bd da62 653c 7122 33bc 16be 4abb
00000050: 507f e6bb 3dc8 4dbd 97ee 303d 3ac2 663c
00000060: a13f de3d 6ef7 f9bd b48c d83b a277 9cbd
00000070: b7f0 353d 1ec3 72bb 0a45 ef3d 9730 f43c
00000080: a3a6 823c 755a 573d e036 913d 9b1b 963c
00000090: 72d7 7e3d a707 a13d f871 94bd 0f11 b93d
000000a0: 3551 07bd b1aa c2bd 984c 45bc 3d4d a2bd
000000b0: 7dd2 353e afa1 51bd c27e 66bd e181 b0bd
000000c0: ecde fcbc a37a 113d 13b9 0a3c c090 19be
000000d0: 876e 003d 02d8 f2bd 1644 b0bb c0ac 85bc
000000e0: f576 8c3d 5a0d dc3b e233 89bc 9b3d 45bd
000000f0: 0fff 9ebd 8a06 223d e83a 8bbd 86e4 4a3d
00000100: ecc2 2e3c 844d 123e 698e 12bd ccc8 c73d
00000110: 0e30 d23d 71df e03d a41a 01bd 1384 eebc
00000120: 4e3e b2bc fff1 66bd 5fa8 05bd 4325 77bd
00000130: f136 cc3d 6d4f be3d 690c bc3d 6df2 063c
00000140: e93a 8f3d 4bd7 23bd 164e 293c 865d eabc
00000150: 8e64 613d 2cea 983d a5cf 90bc f691 023e
00000160: a22b 5b3c 0436 c9bb 6b02 9d3c a0d0 2fbd
00000170: 0639 9ebd d7e6 c0bd bc2f 1f3e c50a d13d
00000180: 2245 1c3c f717 97bc 5df8 c1bc 3f54 253d
00000190: 8c87 0a3c cdd4 a63d 7c13 8cbd f824 3b3a
000001a0: 98ed 74bd 2e43 49bd 73e9 993d e169 19bd
000001b0: ad94 3c3d f028 93bc 0645 163e db96 0abd
000001c0: 7ea1 41bd fbdb d73d e134 87bc 2c1c c3bd
000001d0: bffe 003d e508 08bd 1464 523c e6e0 023e
000001e0: 3ed1 77bd 62cb 3ebc 9d83 71bd 6f0a c13c
000001f0: f280 f6bd 8474 71bd 262d 77bd 1a19 d0bc
00000200: 0353 2f3d dc80 2abd cccf 03be 941f 10be
00000210: 055e 813c 1366 3fbd c9de f33d 4d20 0e3d
00000220: 32a9 c33d da08 973d ed84 143d 4af4 8d3d
00000230: d122 06bd 60ae 833c 8abc 013c d8e3 1fbe
00000240: 71cb 53be 0564 bdbd 7024 68be f420 ffbc
00000250: f54e 193d 8383 583d 817c 323e 4984 13bd
00000260: 5f0a 38bd e91d aabe 3405 2f3e d65e 5f3e
00000270: 1eb1 84be 55cc 28be 13ef 443d 479b e83d
00000280: 5b41 04bd 11c4 51be ff93 373d 163c 16be
00000290: 60bd 943e 7ef5 d4bc c171 a0be 714c 3bbe
000002a0: a8e1 b1bd 7dcf 023d bf9d cabd c1b4 1b3e
000002b0: f2f1 ba3d 89d6 7dbd d962 03bd 630d e63d
000002c0: 1fa1 8cbe 139f 153e ccbf c73e a7ba 4cbd
000002d0: 20e2 95be 31ce bf3d 4c49 b63e 2167 01be
000002e0: 7e66 273d 45ba 453e 85f9 35be df1f bdbe
000002f0: 43fd 2ebe c46a a6bd 6997 44be 7855 13bc
00000300: abe3 983d 14a3 383e 4f1c ce3c c80d fabd
00000310: cf64 9abd 8e96 f7bd ca16 533d 6205 afbc
00000320: 5c82 16be 546b b13d cb1c ea3d 7489 083d
00000330: 6711 b8be 51b9 5ebd e10a 813e 1597 9e3e
00000340: ca38 6c3e 947c a4be 44a3 eebd e49d d33e
00000350: 0001 5dbe dfa2 253d 2024 213d 368d cf3d
00000360: c2c6 41bd 1b8d 9b3e cf56 6e3e 763f 2cbe
00000370: c13f 4fbd 9845 4bbe 8338 a43d 3971 85bd
00000380: afce cabd 7008 40be 089e abbd 24dc 2ebd
00000390: 945c 51bd 9d1a 12be baf4 75bd bffd 06bd
000003a0: 91c9 89bd 4046 8bbd b0d2 133e d787 af3d
000003b0: 6d39 89bd f7a4 69bd 7bcd 713d 1b69 0bbe
000003c0: 5a08 2abe 611e 4b3e 92b8 293d d641 f53c
000003d0: f5fd 573e 827f 753c 418f 41be 8591 423d
000003e0: 2258 04bd c080 aebc d6be 863d 64ac 97bc
000003f0: df7f b83d 1404 9e3e 0617 2a3e 9fa3 b9be
-0.0203358 -0.06753783 0.018910974 -0.06646482 -0.07007883 -0.052315626 -0.014571158 -0.026660593
-0.034741484 -0.01328492 -0.021110382 -0.06105672 -0.06764162 -0.07208063 -0.030516593 -0.050322913
-0.0531649 0.014000619 -0.010933504 -0.0030936054 -0.00703422 -0.05023979 0.043196287 0.014084393
0.1085198 -0.122053966 0.00660857 -0.07640006 0.044419017 -0.0037042568 0.1168309 0.029808326
0.0159486 0.0525765 0.07090545 0.01832371 0.062217183 0.07862788 -0.072483 0.09036457
-0.03303643 -0.09505213 -0.012042187 -0.07924888 0.17756076 -0.051179584 -0.05627323 -0.086185224
-0.030868016 0.035517346 0.008466977 -0.14996624 0.031355407 -0.118576065 -0.00537921 -0.016317725
0.06858627 0.006715459 -0.016748372 -0.048154455 -0.07763492 0.039557017 -0.06798345 0.049534343
0.01066659 0.14287382 -0.035780344 0.09755096 0.10263072 0.10980118 -0.031519547 -0.029115712
-0.021758225 -0.05638313 -0.032631274 -0.06033827 0.09971417 0.09292493 0.091820545 0.00823651
0.06993658 -0.04000024 0.010333559 -0.028609049 0.055027537 0.0746654 -0.017677138 0.12750992
0.013377102 -0.0061404724 0.019166192 -0.04292357 -0.0772572 -0.09419029 0.15545553 0.10207132
0.009537967 -0.018444045 -0.023678 0.040363546 0.008455168 0.08146057 -0.06839654 0.00071389927
-0.0597969 -0.049136333 0.0751523 -0.03745449 0.046040226 -0.017963856 0.14674768 -0.033835273
-0.04727315 0.10540005 -0.016504707 -0.09526858 0.031492945 -0.033211607 0.012841243 0.12781104
-0.060502283 -0.01164517 -0.058963407 0.023564545 -0.12036313 -0.05894901 -0.06034579 -0.025402594
0.042803776 -0.041626796 -0.12872237 -0.14074546 0.015791902 -0.046728205 0.11907727 0.034698773
0.09553756 0.07374735 0.03625958 0.0693136 -0.032748047 0.01607436 0.007918486 -0.15614259
-0.20683075 -0.09247593 -0.2267015 -0.031143643 0.037428815 0.052859794 0.17430307 -0.03601483
-0.044931766 -0.33225945 0.17091829 0.21813521 -0.2591638 -0.16484196 0.04807956 0.11357742
-0.03228889 -0.2048495 0.044818874 -0.14671358 0.29050732 -0.025995966 -0.31336787 -0.18290879
-0.08685619 0.031936157 -0.09893369 0.15205671 0.09128179 -0.061972175 -0.03207669 0.11233022
-0.27466676 0.14611463 0.39013517 -0.049982693 -0.29274082 0.093655 0.35602796 -0.12636997
0.04086923 0.19309337 -0.17770965 -0.36938378 -0.17088799 -0.08125833 -0.19198383 -0.008992545
0.07465299 0.1803096 0.025159983 -0.1220966 -0.07538759 -0.12089263 0.051535405 -0.021364871
-0.14698166 0.08663049 0.11431273 0.03333421 -0.35950777 -0.05437595 0.25203612 0.3097464
0.23068538 -0.32126296 -0.11652234 0.41331398 -0.21582413 0.04043853 0.039341092 0.10134356
-0.04730869 0.30381092 0.23275302 -0.16821083 -0.05059791 -0.19850767 0.08018591 -0.06515736
-0.09902703 -0.18753219 -0.083797514 -0.04269041 -0.05111368 -0.14267965 -0.060047843 -0.032956835
-0.06727899 -0.068005085 0.1443584 0.08570831 -0.06700406 -0.05704209 0.059033852 -0.13614313
-0.16604748 0.19835807 0.041435786 0.02993862 0.2109297 0.0149840135 -0.18902303 0.04750206
-0.032310612 -0.021301627 0.06579368 -0.01851482 0.090087645 0.30862486 0.16610345 -0.36257645

conv3.bias f4 [32]
00000000: 23ce 8f3d 95de dbbc def0 593d 5b16 9dbd
00000010: d3ba 93bd d8d5 32bd 1303 aabb ac44 8bbd
00000020: 783a 40bd bf2b bfbb 4e1a 893d bb0d 343d
00000030: 5f39 a73d 3b95 c03b 3013 dfbc 89d4 8a3b
00000040: 4c8e b7bc 172a a03d 2413 8dbc 6373 d93a
00000050: caa6 273d ac35 61bd d603 75bd 8b1a 163c
00000060: acf7 7ebd a0fd 54bd 82a6 9bbd 34ae 95bc
00000070: 6555 61ba 7c49 c33c 6dfc 7fbd ead9 303d
0.07021739 -0.026839534 0.053208224 -0.076702796 -0.07213368 -0.04366097 -0.0051883548 -0.068002075
-0.04693076 -0.0058340724 0.0669447 0.043958407 0.081652395 0.0058771647 -0.027230829 0.004236762
-0.02240672 0.07820528 -0.017221041 0.0016590174 0.040930547 -0.054982826 -0.05981811 0.009161602
-0.062247917 -0.05199969 -0.07600118 -0.018271543 -0.00085957936 0.023838751 -0.06249659 0.04317657

bn_3.weight f4 [32]
00000000: da90 223f 1e9b f13f 0667 e13f 4202 1640
00000010: 8073 333f 7cb3 f83e d7f9 d73f 8795 e03f
00000020: b9ed 933f 684f b53e 6ba0 2040 1a78 2540
00000030: 0952 e93f dc03 f83e 0f38 993e 55dc 8a3f
00000040: 4e93 4c3f 3c56 1940 2264 1440 e5c3 803f
00000050: 0e89 0840 9633 0940 c205 113d 7b25 3540
00000060: 65c3 d53f 2acb 3d3f f497 1140 7a5d 6c3f
00000070: 2f4d 0240 0ea6 b93d f5c1 1040 7104 2140
0.63502276 1.8875463 1.7609565 2.3438878 0.70098114 0.48574436 1.687312 1.7545632
1.1556922 0.35412145 2.5097911 2.5854554 1.822816 0.48440444 0.29925582 1.084849
0.7991227 2.3958883 2.3186116 1.0059782 2.1333652 2.1437736 0.03540588 2.8304126
1.6700255 0.7413813 2.2748995 0.92330134 2.035961 0.090648755 2.2618382 2.515896

bn_3.bias f4 [32]
00000000: f405 8a3d 4b7e 453e 70bf 343d 1a66 6b3d
00000010: 103c 19bd 80e2 1fbd 7666 c23d d183 633d
00000020: 442d 1f3e b9ce 743d 578a 45bd f613 cd3d
00000030: 9d14 c93d 1298 863d 0d39 403d 9b56 873d
00000040: 7b7b 413d a454 f2bb 3530 803e 5024 f83c
00000050: a986 643e 4190 3d3e cb35 173c 1282 ce3e
00000060: dde3 1b3e f950 073e b9ac e83d acab d53d
00000070: 2926 c13d 0559 803c 86c3 af3e d955 fe3d
0.06739417 0.19286458 0.04412788 0.05747042 -0.037410796 -0.039034367 0.09492199 0.05554563
0.15544611 0.05976746 -0.048227634 0.10013573 0.09818385 0.06571974 0.046929408 0.066083156
0.0472369 -0.007395344 0.2503678 0.030290753 0.22316994 0.1851206 0.009229134 0.4033361
0.15223642 0.13214482 0.11361069 0.104331344 0.094311066 0.015667448 0.3432886 0.12418718

bn_3.running_mean f4 [32]
00000000: bbe4 29be 0549 1f3f 7478 0cbf 92e0 20c0
00000010: 836b c5be 023d 71be d727 50bd 247c 463e
00000020: 5ecb fd3e 9453 60be 8d83 69c0 48a7 2dc0
00000030: 3ced 273f 228b 5dbc 68a3 fb3e e89e f4be
00000040: f870 f63e ceb3 40c0 55a4 883f a090 f7be
00000050: 3b37 8f40 b1a9 27c0 d6f7 e83d dcb8 6340
00000060: a62b eabf f9c9 0c3f 90e5 453f 4fa7 a23f
00000070: 1718 273f 8750 95be 078c 453f fc16 0940
-0.1659116 0.62220794 -0.54871297 -2.5137067 -0.38558587 -0.23558429 -0.050819244 0.19383293
0.4956922 -0.21906883 -3.6486542 -2.713335 0.65596366 -0.013521941 0.49148107 -0.47777486
0.48133063 -3.0109744 1.067515 -0.48352528 4.475492 -2.6197321 0.11375396 3.558158
-1.829457 0.54995686 0.7730341 1.2707309 0.65271133 -0.29163 0.7716679 2.1420279

bn_3.running_var f4 [32]
00000000: 21d2 be3e ba26 9540 2a30 8840 5e25 9f40
00000010: 648f c23e 4e3b be3e 4f75 5b40 b0ed 7740
00000020: 4dd3 953f f257 653e 44f3 1741 ba25 2041
00000030: 3c75 af40 8612 783e 1bb0 3f3e 4574 9a3f
00000040: 5255 0a3f 7a13 e440 22a3 ee40 784b 7b3f
00000050: d279 0141 f265 b140 75fe 7b3e c51a 6841
00000060: b25d 4740 675c 123f d8fe f240 149e 3b3f
00000070: 17d4 cc40 45a8 393e 9935 ae40 389a e440
0.3726969 4.6609774 4.2558794 4.9733114 0.38000023 0.3715462 3.429035 3.8738823
1.1705109 0.2239683 9.496891 10.009211 5.483061 0.24225816 0.18719523 1.2066733
0.5403644 7.1273775 7.4574137 0.9816203 8.092241 5.5436945 0.24608786 14.506536
3.1150937 0.57172245 7.593609 0.73288083 6.40089 0.18130596 5.4440427 7.1438255

fc1.weight f4 [10, 288]
00000000: f5d9 f43c 4b2f 2cbd e8df 5abd dcd0 debd
00000010: 48f4 06bd 7f4b 8abd f82d ef3b 69b0 203e
00000020: 7fbf 99bc 9247 acbd 6d56 9fbe 52ba 693d
00000030: 958f ddbd 1b91 2bbc 5775 d93e 9dec bdbd
00000040: 54a7 3eba 1419 1c3e 2994 a2be 3642 2fbe
00000050: b0de ae3e 7d5e 27be 1f7e 2dbe 19bf ec3e
00000060: fd6f bc3d f8fc 8dbe c2a9 a43e 3d54 0c3d
00000070: 39ee d1bd 3894 dbbc c704 a13e 7cd8 68bd
00000080: b239 313e 3d17 3d3f 4fc0 a1be 4582 f7be
00000090: 80b4 b9bc 67e7 57bb 256d 80bd 6462 c73d
000000a0: b928 c4bb 964e 7dbc 92f0 ad3c 28a7 973c
000000b0: 916f f9bc 4df6 943c ab5d 203d 1cbc 3e3d
000000c0: ba4b 9bbd e1d2 0cbd 6462 c9bd 87ef 8d3b
000000d0: aa7c ef3d ae89 633e f0dd f2bd e9be 323d
000000e0: efc1 843d 1a6d a3be 6d39 00be 2a74 033e
000000f0: be31 7cbe b3fe 6ebe bdc6 033e 69e3 3fbe
00000100: 6fa1 45be 7603 97be c95e 83be cecb 8cbe
00000110: 38c7 99be 66d3 b5bd 9efa c3be 664d 6dbe
00000120: cc89 49bd d57f cebd 1558 cfbd b732 62bd
00000130: 7165 7dbe 9e30 85bd c655 c6bd 9b23 3cbd
00000140: 7a40 853e 8018 f8bc eb06 1ebd 47d8 5f3d
00000150: bd3e f33c 523f d4bc 124d 82bb cb4e b93d
00000160: db74 ee3a 3683 62bc 2cc9 413d 916a 7f3e
00000170: b089 033f 09b0 c9be 5583 953e c669 05bf
00000180: ec5d 80bd d786 a63e 5a2a 31bf 19ba f63d
00000190: f6e6 893e f252 2bbf f6c3 063d ad8a cc3e
000001a0: 213c cbbe dccd 213e a1cd 3a3e 794c 543e
000001b0: bfa5 a73d 098f bb3d 7564 8d3d f593 a83e
000001c0: 0def f83d 4555 c0bd 2595 643e 63bf c0bd
000001d0: f6f3 f0bc a731 8cbd 3a09 4a3c 9f83 813d
000001e0: 596e 3f3d aa19 273d e46b ed3c 29a0 d13c
000001f0: 0c19 d63d 299b c83b 0d2e afbb 005c cfbc
00000200: a48c ae3c 6371 773c 458c 4b3d 024f abbc
00000210: ae78 9fbc b714 8ebd 49ec 5cbd df81 b33e
00000220: 5e19 363e 6d23 333c cdcf 03bc 136a babd
00000230: 79d9 00be c030 64be 0039 1d3c 7372 f83d
00000240: 0f51 12be 8acf e13c 6e20 753d 8d08 c73d
00000250: a97e f53d 9732 4b3e 4748 b6bb c2b8 65bd
00000260: af3c 76bc 80f2 333d 22bf bbbe 5fbd d1bd
00000270: c618 963d 0393 60be 75cd 163e 9ce0 95bd
00000280: 29b9 793d 1f9e 2b3f 2de8 0d3d 562e 09bf
00000290: dc03 2cbe 03d4 84be 642f 05be 7383 e83e
000002a0: 3f5e 47be e3df 36be 0c76 c93e ecbc 8bbd
000002b0: a3c3 5c3d d6c9 1b3e c96c afbc 997b 7c3e
000002c0: 07c6 7f3c efa2 9abd 94d2 bdbc 5ea0 b5bd
000002d0: 2495 86be 6c24 bcbe 3f1d ecbb 5d92 5bbe
000002e0: a255 8bbe ed75 043e f189 cfbe 3513 d4be
000002f0: b9f7 fcbc 5b14 b03d 8870 e23d 7034 133d
00000300: c851 1f3e 5bd1 893e efa8 5f3d 1cdc 74bd
00000310: 12a5 a1be 06eb 80bd 1514 4f3d e91c 23bc
00000320: 2bc2 443d 0e20 05bc f47d 97bc 5a1e 66bd
00000330: 90aa 323d 84db 9bbc 4ea1 223b febf 8bbe
00000340: 376f 8bbe 4eda 1f3e 6bd9 d1bd 11cb 38be
00000350: 80a9 2abe c819 2a3f 8bf9 343f 3642 bf3d
00000360: e236 3d3e 3323 533e 3967 053d fd95 70be
00000370: 18fe 113e 2d33 793e 0a78 f53d 7dd7 a93e
00000380: 603a d23d ad8f ad3c ddf5 3abe 058e 95bd
00000390: cfb3 87bd c0ff bdbd c2fa 003e d536 adbd
000003a0: 47fa 113e 94e1 04ba 1f7f c4bd 7f87 d3bc
000003b0: 864a a4be 9e0d 3e3e e7ba 203d 1fd9 8cbe
000003c0: 377b 533e 6e72 ac3e 9e76 a83d 5461 c33d
000003d0: 2a02 6dbc 3f2a 133b 2584 a73d 4262 fe3d
000003e0: a0f0 833c 43ec 70bc 6bb5 073e fc01 8dbb
000003f0: 28d3 a0be b32b 95bb fb50 003d ded7 99be
0.029889086 -0.04203729 -0.05343619 -0.108796805 -0.03294781 -0.06752681 0.007299181 0.15692295
-0.01876807 -0.084120885 -0.31120625 0.057062455 -0.10818402 -0.010471608 0.42472336 -0.09273646
-0.00072728586 0.15243942 -0.31753662 -0.17115101 0.34154272 -0.16344638 -0.16942643 0.46239546
0.092010476 -0.27732062 0.32160765 0.034260023 -0.102505155 -0.026804075 0.31448957 -0.05684708
0.17307165 0.73863584 -0.31592032 -0.48341575 -0.022669077 -0.0032944323 -0.06270818 0.097355634
-0.0059863 -0.015460631 0.021232877 0.018512323 -0.030448707 0.018183852 0.03915183 0.046566114
-0.07582803 -0.034380797 -0.0983322 0.0043315324 0.116937 0.2222049 -0.118587375 0.043639097
0.064823024 -0.31919175 -0.12521906 0.12837282 -0.2462835 -0.23339348 0.12868781 -0.18739094
-0.19299863 -0.29494828 -0.25658253 -0.2749924 -0.30034804 -0.08878212 -0.38277143 -0.23174056
-0.04920368 -0.10082976 -0.10124222 -0.055224147 -0.24745728 -0.065034136 -0.09684329 -0.045932394
0.26025754 -0.03028512 -0.038580816 0.054649618 0.029693002 -0.0259091 -0.0039764727 0.09048232
0.0018192785 -0.013825228 0.047310993 0.24942996 0.5138197 -0.39392117 0.2920176 -0.5211452
-0.06267914 0.3252475 -0.6920525 0.12047214 0.26934022 -0.6692344 0.032901727 0.3994955
-0.39694312 0.15801185 0.18242504 0.20732297 0.081859104 0.09158141 0.06903926 0.32925382
0.1215497 -0.09391264 0.22322519 -0.09411504 -0.029413205 -0.06845408 0.012331301 0.06323933
0.046736095 0.04079596 0.02898211 0.025589066 0.10453996 0.006122012 -0.005346066 -0.025312424
0.021307297 0.015102717 0.04969432 -0.020911697 -0.019466724 -0.06937545 -0.053936277 0.3506002
0.17783114 0.010933739 -0.008045149 -0.09102263 -0.12582959 -0.22284222 0.009596109 0.121312045
-0.14288734 0.027564783 0.05984538 0.09718428 0.11987049 0.19843517 -0.0055628153 -0.056084402
-0.0150291165 0.043932438 -0.3666926 -0.10241198 0.07328944 -0.2193108 0.14726813 -0.073182315
0.060967598 0.6703815 0.03464525 -0.5358633 -0.16798347 -0.25943002 -0.1300636 0.45412788
-0.19469546 -0.17858844 0.39347875 -0.06823143 0.05389751 0.15213713 -0.021414177 0.24656524
0.015611178 -0.07550608 -0.0231717 -0.08868478 -0.2628566 -0.36746538 -0.007205635 -0.21442552
-0.2721377 0.1293561 -0.40534928 -0.41420904 -0.030879842 0.085976325 0.1105662 0.03593868
0.15558541 0.26917538 0.054604467 -0.059780225 -0.3157125 -0.06294827 0.05055626 -0.009955623
0.048036736 -0.008125318 -0.018492676 -0.05618129 0.043619692 -0.019025572 0.0024815383 -0.27294916
-0.27233288 0.1561062 -0.10246547 -0.18046214 -0.16666222 0.6644559 0.7069327 0.093388006
0.18477967 0.20618896 0.032569144 -0.23494716 0.14257085 0.24335928 0.11985786 0.33172217
0.102650404 0.021186674 -0.18257852 -0.07302479 -0.06626093 -0.09277296 0.12595657 -0.08457724
0.1425563 -0.0005069014 -0.09594559 -0.025821446 -0.32088107 0.18559882 0.039240744 -0.275094
0.20652471 0.33681053 0.082257494 0.09540048 -0.014465848 0.00224556 0.081795014 0.12421085
0.01610595 -0.014704767 0.13252799 -0.004303215 -0.314111 -0.0045523285 0.03132723 -0.30047506

fc1.bias f4 [10]
00000000: 1bd5 8c3d a5b7 baba 1314 32bd 7978 3f3d
00000010: dae1 e2bb ba62 c3bc a2d2 e7bd 21e2 9a3d
00000020: 52bf a03d ecad e8bd
0.06876584 -0.0014245404 -0.043476176 0.04674575 -0.0069238963 -0.023850787 -0.11319472 0.07562662
0.078489915 -0.11361298
