HW2/hw_alex/hw2_py/results/_14_01_43/lr_0_01_net_1_L2_norm_/model.pth (torch_old, 39192 bytes, 20 tensors)

conv1.weight f4 [8, 1, 3, 3]
00000000: 084a b9bd 2627 353f 062f 70bf 9a12 f1be
00000010: e600 7c3f 16ac 69bd 4508 04bf 88fb 403e
00000020: 3efe 833e 529f 623d b018 1f3f 4db5 183f
00000030: 8769 943e aa5d ef3c a188 ab3e 7dff 25bf
00000040: 71ff 3dbf 1e4a 363f 2762 f63e d561 69bf
00000050: 7ce6 a5bf 01c7 7a3f 1935 023e bb37 22bf
00000060: a364 913e be86 7c3f 21c3 943f dd12 a7be
00000070: 6aa8 573f da97 7b3f 8ea6 83bf d31e 47bf
00000080: ecfc 2f3f 486c 46be ee24 49bf 02ed 8cbf
00000090: c865 9ebf a552 b53e c260 a13e 3285 db3d
000000a0: 5d83 dd3f 2001 c6be e222 2b3f 0732 68be
000000b0: 7523 83bf 5cb7 f13e 1494 2d3f edd6 633f
000000c0: 4cd5 dd3e 584f ad3e b390 57be 7a46 6ebf
000000d0: 9984 71bf 25fc 91bf 711a 8bbe 0fea ab3e
000000e0: 7025 23be 55a9 5cbe c9de 80bc 5f77 a43e
000000f0: 0a25 813e d9d7 d5bc 17e0 943e 589c 59bf
00000100: 1cf8 c0bc bf2c 393f 344a 6dbf d256 53be
00000110: 863a 353f a075 fbbe 8270 79bd dfd9 8c3f
-0.090473235 0.7076286 -0.9382175 -0.47084504 0.9843887 -0.05704888 -0.5157512 0.18845952
0.2577991 0.05532772 0.62147045 0.59651643 0.2898676 0.029219467 0.33502677 -0.6484297
-0.742179 0.71206844 0.4812176 -0.91164905 -1.2960963 0.97959906 0.12715568 -0.6336629
0.28397092 0.986431 1.1622049 -0.3263158 0.84241354 0.9827858 -1.0285203 -0.7778141
0.68745303 -0.19377244 -0.78571975 -1.1009829 -1.2374811 0.35414615 0.31519133 0.10718764
1.7305714 -0.38672733 0.668501 -0.22675334 -1.0245196 0.47210205 0.67804074 0.88999826
0.43326795 0.33849597 -0.21051292 -0.9307629 -0.9434295 -1.1405073 -0.2716861 0.3357701
-0.1593225 -0.2154897 -0.015731232 0.32122323 0.2522357 -0.0261039 0.29077217 -0.85004187
-0.023555808 0.723339 -0.9269135 -0.20638588 0.70792425 -0.49113178 -0.06089831 1.1003989

conv1.bias f4 [8]
00000000: 6eff f43a b7a2 a9be a227 e13d de92 a93e
00000010: 77fc 533d 08db 9b3e 2d77 153e 377e abbd
0.0018691847 -0.33131954 0.109938875 0.33119863 0.05175444 0.30440545 0.14596243 -0.08373683

bn_1.weight f4 [8]
00000000: e9c8 0d3f 927b 703f f0af a43f 7f97 d73f
00000010: 7d61 843f 6755 b93f 87c7 1cbc c2c3 a13f
0.5538469 0.93938553 1.2866192 1.6843108 1.0342251 1.4479188 -0.009569055 1.2637866

bn_1.bias f4 [8]
00000000: 9101 02be 0322 823e 2b98 ffbd 2aa8 073e
00000010: f171 b9be 5778 89be bce4 eebc e935 8bbe
-0.1269591 0.25416574 -0.124801956 0.13247743 -0.36219743 -0.26849625 -0.029161803 -0.27189568

bn_1.running_mean f4 [8]
00000000: 926d e6bb 074f a5bf 6ad0 30bf b42d bb3f
00000010: 4533 11be a0aa 163f 1813 57be 465e 6cbd
-0.007032105 -1.2914742 -0.69068015 1.4623322 -0.14179714 0.58854103 -0.21003377 -0.057707094

bn_1.running_var f4 [8]
00000000: 7986 523e 41e3 813f 17b8 0340 d662 0240
00000010: 8e8e 693f b735 0440 cbd7 203e 40c6 f83f
0.2055911 1.0147477 2.058111 2.0372825 0.91233146 2.0657785 0.15707318 1.9435501

conv2.weight f4 [16, 8, 3, 3]
00000000: e5bb 94bd 6da4 1f3d 47ab a2be 69c5 d2bd
00000010: c987 3f3e 1bc0 0dbd 6e81 e53d f281 f93d
00000020: 1e4b 553d 184b 1cbd e668 90be 0ddd febe
00000030: 031c 91be 1f68 35bd 65ca cf3d 184b a4bd
00000040: cd96 f03d 8b6f c43e 429d 42be c345 08be
00000050: 0e46 bdbe ab95 683d b1b8 4c3e 2883 ac3d
00000060: 8e96 22be b2fb 833d 49f6 4ebe c15b 96be
00000070: f6fb 0dbe ebf8 a9be f911 7bbe 297a 973d
00000080: 0662 1dbd 69ed 5abe 3b96 4b3f 494f bb3e
00000090: 6691 9e3d 057e 9e3e 312f 093c cfae 803d
000000a0: d402 f83b 5a72 0fbe bd03 363d 7abb 30be
000000b0: 4203 04be 8244 453e eb86 163d 7c1e 2abe
000000c0: 85cf a9be b27a 48be ecac a6bb 9057 aabe
000000d0: aa98 f83e 1faa 783f e8ff 4a3d da94 b03d
000000e0: 3068 8cbd 35e5 883d 4baa 3bbd 6e42 82bd
000000f0: 83e3 f03d fc01 9b3d 97e7 9a3d 1719 603e
00000100: 4dac 4a3d 56e3 e73d 271a bb3d 11f0 943e
00000110: e656 233c 5130 97be f7c8 e0bd 3ffe 96be
00000120: 43eb d63d b1aa c63d de93 313d 62c5 87be
00000130: 9b98 a73d a87a 683e bab3 a63e eef0 9dbc
00000140: 87b3 9ebd a9c8 36be 6aa5 29be 6461 b0be
00000150: fa54 91be 9b86 d9bc 423a 74be a71c 2bbe
00000160: 0417 ca3d 3d43 1d3e 2724 093e e8a6 143c
00000170: 617b 6a3d 5c81 f7be c2cf d2bd 5c4d a33e
00000180: c65b 9a3f 8830 123f 6156 5a3e 14bd bc3d
00000190: 5ff4 91bb 9a1f 2d3e 66af 48be 891a 23be
000001a0: 2279 323d 56dd cf3d 5712 9ebe e94b 02be
000001b0: 20e9 efbd 7e4c a13e 8a23 003d 9fe1 8f3d
000001c0: cc9c 0d3e 7eeb 11be a0a7 d4bd 827c c33e
000001d0: e3cb 633f e561 723d 19c9 1f3d 4add 02be
000001e0: 98ed 5bbe 449b 9e3e 6f45 08be 8cba ccbe
000001f0: 412d cb3d 48ed ca3e 5ba0 d73d 68d2 6bbd
00000200: 0727 aebd 3d85 84bc f71e 823d ca68 a43d
00000210: c6e7 3b3d 7a43 9ebd 8b4f 103d 21a5 5e3e
00000220: d321 4b3d 4fed 4dbe c091 c8bd 623c 883d
00000230: 8a03 833e fa2d 3dbe 3d7e 16be a98e 7f3d
00000240: 53d4 50bd f627 233e 5eff 013e ef9b 2cbe
00000250: 4790 273e 1289 703e 1521 d7bd e77f 583e
00000260: 2cc0 663e d769 4c3e 9b57 1a3e 2d4d 7c3e
00000270: 0103 073e f1f0 fdbc fb2a 583e bcc9 b33d
00000280: 1a28 343e 78d7 fdbd f162 3fbe be71 18be
00000290: d855 1bbe 3c6f 873d 1239 babe 36fc 1d3e
000002a0: bad4 bd3e 83bf ebbe ddbd 103e b01b a83e
000002b0: b5f8 dabe 6148 16be 8949 b63e 6c47 cabc
000002c0: 4621 c2be ecb2 553e 71e3 4bbd 73d0 a0be
000002d0: d2b9 f8bd 6074 01be 0b85 9e3d c064 c0be
000002e0: 6f50 2c3c 9a68 a53e 3062 2a3d b097 c83d
000002f0: 4407 c63d a39c 7a3e eef6 6cbe 97c7 0bbe
00000300: b5c7 103d 2a38 20bf cce3 dcbe 89bc 10be
00000310: adae 0cbf 4362 f2be d520 c5bd db26 623d
00000320: 5ebf 323d a4a1 dd3d aacc c7bd 17e1 2aba
00000330: 0f9e e8bb 9945 f63d b003 7fbd 4625 bf3e
00000340: 67e5 f43e 306b bb3d d28c ad3e d59e 863f
00000350: 3568 473d 8e80 4ebe be21 643f 50d1 f43d
00000360: 2239 c2bd eb21 003e 2b2c 96be 3aa2 90bd
00000370: 1f7a 59be d59b 0abe 2d49 e33d be09 403e
00000380: b147 2b3d 255a f1be b44e 253e 8d2f 7d3e
00000390: f6db 0ebf 0949 7cbe 8acc 78be 9e4a 433e
000003a0: 8900 383d f8f1 39be 10cf bfbe 0f0a 90be
000003b0: 9580 1cbf ee7b 9d3e 277b 943e 530b 1ebe
000003c0: 77fa ff3d be87 c73e 7015 993e 3f42 b83e
000003d0: 7d42 313f 00b5 7b3d 8985 70be 0539 073e
000003e0: 34e6 d8be 23ac 81be 24e5 81be eb53 a33e
000003f0: 30a6 21bf 46d1 afbe 7920 b93c 0dec 603c
-0.072624005 0.038975168 -0.317713 -0.10291559 0.18704142 -0.034607034 0.112063274 0.12182988
0.05207359 -0.038157552 -0.2820503 -0.49778023 -0.28341684 -0.04428875 0.101460256 -0.080221355
0.11747513 0.3836635 -0.19005302 -0.13307862 -0.3696751 0.05678336 0.19992329 0.084234536
-0.15877745 0.064444914 -0.20211138 -0.29366878 -0.13865647 -0.33197722 -0.24518575 0.07396347
-0.03842356 -0.21379627 0.7952611 0.36583927 0.07742576 0.3095552 0.008373068 0.06283342
0.0075686965 -0.14008465 0.04443716 -0.17259017 -0.12891868 0.19264415 0.03674976 -0.16613191
-0.33166137 -0.19578055 -0.005086532 -0.3326993 0.48553973 0.97134584 0.049560457 0.08622141
-0.0685581 0.06684343 -0.0458167 -0.06360327 0.117621444 0.07568738 0.075637035 0.21884571
0.049480725 0.11322658 0.091358475 0.29089406 0.009969449 -0.2952905 -0.10975831 -0.2949085
0.10494091 0.097005256 0.043353908 -0.2651778 0.08183404 0.2270304 0.32558995 -0.019279923
-0.07749086 -0.17849983 -0.16567007 -0.34449303 -0.28385144 -0.026553443 -0.23850349 -0.16710149
0.09867671 0.1535768 0.13392697 0.009072997 0.05724657 -0.4834088 -0.10293533 0.31894958
1.2059257 0.571053 0.21322013 0.09215751 -0.00445418 0.16906586 -0.19598159 -0.15928091
0.043572553 0.10149638 -0.30873367 -0.1272427 -0.11714387 0.3150367 0.031283893 0.07025456
0.13829345 -0.1424999 -0.103835344 0.3818093 0.8898298 0.05917539 0.03901014 -0.12779728
-0.21477354 0.30977833 -0.13307737 -0.39986074 0.09920741 0.39634156 0.10528632 -0.057573706
-0.085035376 -0.016176814 0.06353562 0.080277994 0.045875333 -0.07727714 0.035232108 0.21742679
0.049592804 -0.20110057 -0.097934246 0.06652142 0.25588638 -0.1847457 -0.14696594 0.06239191
-0.05098374 0.15933213 0.12695071 -0.16856359 0.16363631 0.23489788 -0.10504357 0.21142541
0.22534245 0.1996225 0.15072481 0.24638815 0.1318474 -0.030998679 0.21110146 0.08778712
0.17593423 -0.12394613 -0.18690087 -0.14887139 -0.15169466 0.06613013 -0.36371666 0.15428242
0.3707636 -0.4604455 0.14134927 0.32833624 -0.42767873 -0.14676048 0.35602978 -0.02469226
-0.3791601 0.20869035 -0.049777452 -0.31409034 -0.121448174 -0.1264205 0.0774022 -0.37576866
0.010517224 0.32306367 0.041597545 0.09794557 0.096693546 0.24473815 -0.23141071 -0.13650356
0.035346705 -0.625857 -0.43142545 -0.1413442 -0.54954034 -0.47340593 -0.09625403 0.055212837
0.043639533 0.10821846 -0.097558334 -0.00065185264 -0.00709892 0.120249934 -0.062259376 0.37333125
0.4783127 0.09151304 0.338965 1.0517222 0.048683364 -0.20166227 0.89113986 0.11953986
-0.094835535 0.12512939 -0.29330572 -0.07062192 -0.21237992 -0.13536008 0.110979415 0.18753716
0.041816417 -0.47139087 0.16143304 0.2472517 -0.55804384 -0.24637236 -0.24296775 0.19071433
0.044922385 -0.1815871 -0.37462664 -0.28132674 -0.611337 0.30758613 0.29000208 -0.15434007
0.12498944 0.3897075 0.29899168 0.35988042 0.6924208 0.061451912 -0.2348844 0.13205345
-0.4236313 -0.25326642 -0.25370133 0.31899962 -0.63144207 -0.3433935 0.022598492 0.013728154

conv2.bias f4 [16]
00000000: 7dbd 823d 4c4e a23c 79de 6abd e8d5 01bd
00000010: 83b3 c53c dae2 983d 035f 57bc a093 26bd
00000020: 64ac 2dbd 1b04 a9bc adc4 3ebd 35b7 cd3d
00000030: fcfa 0bbd 1c96 e73d ce06 623d e411 38bd
0.06383798 0.019812725 -0.057341073 -0.031698138 0.02413345 0.074651435 -0.013145211 -0.04066813
-0.042400733 -0.02063184 -0.046574283 0.100447096 -0.034174904 0.11307928 0.05518227 -0.044938937

bn_2.weight f4 [16]
00000000: 83a7 873f 4598 553f 9056 6c3f ee8a b63f
00000010: 204d 933f 0bd9 7e3f 0409 3b3f 4033 743f
00000020: 3964 953f 4c8a 6f3f cfb5 ab3f 36ae 8f3e
00000030: ad6d a43f 5c2d 833f e438 20bb 0d0f 833f
1.0597996 0.8343547 0.92319584 1.4261148 1.1507912 0.9954993 0.7306063 0.953907
1.167121 0.935704 1.3414859 0.280626 1.284597 1.0248218 -0.0024447972 1.0238968

bn_2.bias f4 [16]
00000000: bd9d b6be 7131 1a3e 66f9 24bd 3e7b abbe
00000010: b2b2 06bf 899e a8bc 69e7 753d 15df 8bbe
00000020: 7fcb 8c3d 47bd 8cbe a2f4 09bf e026 62bb
00000030: 9c05 2cbf bedf ce3d 11bb bcbc 24bb eabe
-0.3566722 0.15057923 -0.040276907 -0.33492464 -0.5261642 -0.020583408 0.060035143 -0.27318636
0.06874751 -0.27488157 -0.53888905 -0.0034508035 -0.6719606 0.10101269 -0.023038419 -0.45845902

bn_2.running_mean f4 [16]
00000000: f78d e6be 75c7 a83f ec5a 203f e804 03c0
00000010: 0650 393f 6088 2640 e779 74be dfc1 a4be
00000020: 5027 ebbf e73b 983c 8069 5abf 51a5 a5bf
00000030: 95cd 4abe 782c e33e 6cfd 423e e81e 8740
-0.45030186 1.318587 0.62638736 -2.0471745 0.7238773 2.6020737 -0.23874627 -0.32179162
-1.8371372 0.018583251 -0.8531723 -1.2941076 -0.19804986 0.44369864 0.19041985 4.2225227

bn_2.running_var f4 [16]
00000000: 3087 1541 1927 2841 41dc 8241 bcad bb41
00000010: 7699 9841 cd07 af41 2658 b840 7173 b640
00000020: 3db2 e940 32f7 7b40 9132 8e41 8dfa 633f
00000030: 7893 5c41 8f0d 9d41 6e25 843e 101f 8b41
9.345505 10.509545 16.357546 23.459831 19.074932 21.878809 5.7607603 5.701592
7.3030076 3.9369626 17.77469 0.89054185 13.786003 19.63162 0.25809807 17.390167

conv3.weight f4 [32, 16, 3, 3]
00000000: dcae 353e d39a 1f3d b853 983b aa61 a03e
00000010: 3197 b5bd a5b6 44bd 8e6a 353e ab78 00be
00000020: bc72 b03e e3fc e73d 478b a0bd 363b 50bd
00000030: a261 8a3c 905c 293d ac70 6f3e 68d7 69be
00000040: da49 d03c b70a 453e 3d83 3abe f28f 43bd
00000050: 60e9 113e f0b1 84be b39c 7cbd 4174 f43d
00000060: 013e f93c 14ab 3bbe 9b41 04be 1890 07bd
00000070: a151 093e 1c48 83be b063 7c3e fc64 6cbb
00000080: 0849 2fbe 73f4 793c 7db9 12be 79bc 83bd
00000090: 7f1d adbd a29b f33d 3cc6 e63e fe61 dfbc
000000a0: 0115 4fbe d4fc 8b3e 4e27 9b3d 0621 3bbc
000000b0: 21b1 4cbe bbf4 053e d47a 04bd 9e3d ecbd
000000c0: a24a ae3d f6b7 1c3d f3d8 3bbe fb50 a8be
000000d0: 5b77 a03e 83bf 533f 6c20 96bd 319c 16be
000000e0: be62 fb3d dff1 a73d 21b9 193e 78b5 9c3e
000000f0: ec70 2b3e ae9a 0e3d 7a0e 99bc aa85 aabd
00000100: cc12 e0bc ead6 d1bb 8a7d 35bd 35ee 10bc
00000110: 3b4b 8d3e 1e21 a13e d418 363e 38e9 99bc
00000120: 05be 87bd f78e 27be 3836 9d3c 7a5c 50bc
00000130: dbdd e4bc a99d e83d 7c00 b3bd 0a54 103c
00000140: 727c b8bd e58f f73d 87a1 ca3d 3b72 1a3d
00000150: 891c 9a3d 74aa 66bd 1122 0abe d8d3 76bd
00000160: 1d39 5e3d e231 213e ae1a c8bd 7bf7 11be
00000170: b4e3 5dbe aedb 803d 8ace 3bbd 2d5f 9d3c
00000180: e0bf 7cba 53ce c13d 2381 0abe 5d3f 503d
00000190: 6b45 54bd 7772 823c a0f5 803d 9959 64bd
000001a0: c0be 47bd a098 45bd dd8d 033c 5b56 bbbd
000001b0: e554 073e e345 783e 6ffb a43c 4ba9 81be
000001c0: eda9 e83d 2924 a7bd 686e 34be ccde bd3d
000001d0: 2d05 a53e 673e 0bbd 2de5 24be 0419 76bd
000001e0: 4de2 113e a2b1 643d d380 dc3c 1568 113e
000001f0: 4a9d 05bc a966 3bbe 8e93 633d d502 aebc
00000200: f473 32bd 02b7 71bc 4be3 89bc b098 9fbd
00000210: dd16 1d3d ae1a c83c 8827 a6bc 248f 793d
00000220: 7184 73bc 0f91 1e3d d838 073e 37c9 783e
00000230: 7528 86be 20f2 163e ff2d ed3d 9349 503e
00000240: da83 253e 50c1 863d 84c1 35be 7741 76bd
00000250: 3bf8 2c3e 1958 593d 9ffe 843d 276b 763c
00000260: 2d7a d03d acb6 033d 4c6b 683d 1270 e2bc
00000270: 514c b23d f73e db3d 1475 1f3c 4b5c efbd
00000280: 3b14 6bbe ee96 263d 3f1a 0abe b79d 61be
00000290: e01e 22b9 0408 c6bd 56ac e33d 0d68 c9bd
000002a0: e0f4 01bc 749f 9b3d 0c8c e83d d6c2 343e
000002b0: 07a4 283e 4729 873d e67a f33d af82 933d
000002c0: 234f cdbd c275 2dbd bc56 4ebe a357 22bd
000002d0: 07ae 3cbd 3186 b73c 41f6 76be cc4d 44bd
000002e0: 7510 04be c20a 5a3b 7c6a 1fbd 4571 d83d
000002f0: 7754 383e 229e de3d aa0e 14bd 24e2 5fbe
00000300: bfb4 773d d01c 293e f1f6 193e 134f f4bd
00000310: db02 86be 3aa7 b73d 88ae 22be 1ebd cc3b
00000320: 65ad 8abd e286 2fbc c817 eb39 3ef7 2ebd
00000330: 9b45 543d 2297 ec3d 4d93 f53d a38a 5fbe
00000340: c221 c63d dde7 f23d 7b62 f3bc 4c62 ebbc
00000350: ab6f 09be bea9 373c 7845 3e3e 92bd d63d
00000360: fa09 8fbc a3d9 003e d944 e83d 92fe f53b
00000370: d257 b03d 6424 db3c fc14 c6bb 1f5d 14be
00000380: 7027 c4bd bd56 523c b8a2 54bc 88b2 77be
00000390: c2d1 9d3c 36bf c9bc f157 0d3e 02ae 9a3d
000003a0: 7dbe 083d ef44 cd3d b1ae 70ba dbde 423e
000003b0: 038f 7b3d c0c1 ec3d a0d0 693d e905 60be
000003c0: 33df e23c 3f1a 23bd fc4b e33d a024 993d
000003d0: 6172 723d b199 f2bc fe64 c43c 64cb 5fbd
000003e0: d186 bb3d 62c9 80bd d763 89bd 5023 89bb
000003f0: f630 653d 6f64 1bbe a1f4 74be 1ce0 083d
0.17742485 0.03896601 0.004648652 0.31324512 -0.08866728 -0.048025746 0.17716429 -0.12546031
0.34462535 0.11327531 -0.07839065 -0.050837718 0.016892258 0.04134804 0.23382825 -0.22836077
0.02542584 0.19242369 -0.18214126 -0.0477447 0.14249182 -0.25917006 -0.061672878 0.11936236
0.030425074 -0.1832698 -0.12915652 -0.033096403 0.13410045 -0.25640953 0.24647403 -0.0036070934
-0.17117703 0.015256035 -0.1432857 -0.06432433 -0.084528916 0.11894919 0.45073116 -0.027268406
-0.20222856 0.2734133 0.07575856 -0.011421448 -0.19989444 0.13081639 -0.0323437 -0.1153519
0.08510329 0.038261376 -0.18344478 -0.32874283 0.3134106 0.827141 -0.07330403 -0.1470802
0.12274693 0.0820043 0.15012027 0.306072 0.16742295 0.034815483 -0.01868366 -0.08326276
-0.027352713 -0.0064037936 -0.044309177 -0.0088458555 0.2759646 0.3147058 0.17782909 -0.018787965
-0.0662804 -0.1636313 0.019190893 -0.012717361 -0.02793782 0.11358196 -0.08740327 0.008809099
-0.09008111 0.120879926 0.0989409 0.037706595 0.07524974 -0.0563149 -0.13489558 -0.060260624
0.054253686 0.15741685 -0.09770714 -0.14254563 -0.21668893 0.062919006 -0.045851268 0.019210422
-0.0009641629 0.09463181 -0.13525824 0.050841678 -0.051824015 0.015923722 0.06296849 -0.05574951
-0.048765898 -0.048241258 0.008029428 -0.091473304 0.13215978 0.2424541 0.020139424 -0.25324473
0.11360536 -0.08161194 -0.17620242 0.09271011 0.3223051 -0.03399506 -0.16103049 -0.06008245
0.14246483 0.055833466 0.026916897 0.1419986 -0.008155176 -0.1830088 0.05556064 -0.021241585
-0.043567613 -0.014753105 -0.016832015 -0.07792795 0.038351882 0.024426784 -0.020282522 0.060927525
-0.014863119 0.038712557 0.13205278 0.24295507 -0.2620274 0.14740801 0.11581039 0.20340566
0.16163579 0.0657984 -0.17749602 -0.060121026 0.16891567 0.053062532 0.064938776 0.015040196
0.10179553 0.03215663 0.05674295 -0.02764133 0.087059624 0.10705369 0.009732503 -0.11687525
-0.22956936 0.04067128 -0.13486575 -0.2203282 -0.00015461026 -0.096694976 0.11116855 -0.09834299
-0.007931918 0.07598773 0.11354837 0.17652449 0.16468821 0.0659967 0.118886754 0.0720266
-0.1002486 -0.04234863 -0.20150274 -0.03963436 -0.046064403 0.022402855 -0.24117376 -0.047925755
-0.12896903 0.0033270572 -0.03891991 0.105684794 0.18000971 0.10870005 -0.036146797 -0.2186361
0.060475107 0.16514897 0.15035607 -0.11929145 -0.26174054 0.08967443 -0.15886891 0.0062481305
-0.06771354 -0.010713311 0.0004484041 -0.042716257 0.051824193 0.11552264 0.11990986 -0.2183023
0.096744075 0.11860631 -0.029710045 -0.028733395 -0.13421504 0.011209903 0.18581188 0.104853764
-0.017460812 0.12583022 0.11341257 0.007507154 0.086105004 0.02675075 -0.006044982 -0.14488648
-0.095778346 0.012838063 -0.012978248 -0.24189198 0.01926506 -0.02462731 0.13803078 0.075527206
0.03338479 0.10022914 -0.00091813045 0.19030325 0.061415683 0.115603924 0.057083726 -0.21877255
0.02769432 -0.039819952 0.11098477 0.07477689 0.05919111 -0.029614301 0.023973938 -0.054637328
0.091565736 -0.06288411 -0.06708496 -0.004185118 0.055954896 -0.15175031 -0.23921444 0.033416852

conv3.bias f4 [32]
00000000: c8a2 57bd b589 6ebc 3418 b4bc fbd9 843d
00000010: e23d 93bc 6574 41bd 0d66 343c 1189 893c
00000020: d4ae 2bbd d46d a6bd 78cd 69bd 9693 7bbd
00000030: 4eda 9fbd 2d4d 6abd ef6d 63bd 40e2 f1bc
00000040: e98d 803d 46a1 10bd c1c7 8cbd 6ba8 e13c
00000050: 707a f4ba 94b3 9abd 7fa9 4e3d 5dc8 89bd
00000060: ad21 2bbd c0f4 8abb 3f37 74bd 4c0d 9c3d
00000070: 026d 60bd 98ea a6bd 425a d93c 7713 a3bd
-0.052645475 -0.014559199 -0.021984197 0.06486889 -0.017973844 -0.047230143 0.011010659 0.016788991
-0.041914776 -0.08126417 -0.057080716 -0.061420046 -0.0780531 -0.057202507 -0.055524763 -0.02952683
0.06277067 -0.035310052 -0.068740375 0.027546128 -0.0018652212 -0.07553783 0.050454613 -0.067276694
-0.041780163 -0.0042406023 -0.059623 0.07619724 -0.054791458 -0.08150214 0.026532296 -0.07962697

bn_3.weight f4 [32]
00000000: 8903 9f3f b797 403f c4e8 ba3f 2116 f13e
00000010: 13ae 8a3f fb46 d03f 122e c03f 3c6f 4e3f
00000020: 399e b23f e5bf 023f a5d0 873f 3605 173f
00000030: d38f 513e a2f1 b23f db30 b13f c8bb c33f
00000040: 38c0 803f c3de 8c3f a62a cd3f ba6a af3f
00000050: b9d6 803f d87c c53f 6add af3f 7acc a53f
00000060: a68a 9d3f e258 d93f d302 a13f 26c6 c13f
00000070: 8a33 e33f 3f39 9b3f 2cc5 dd3f 169d af3f
1.2422954 0.752315 1.4602284 0.47087196 1.0834373 1.6271662 1.501406 0.8063848
1.3954536 0.5107406 1.0610548 0.58992326 0.20465021 1.397999 1.3843035 1.5291681
1.005866 1.1005481 1.602864 1.3704445 1.0065528 1.5428724 1.3739445 1.2953026
1.2307937 1.698025 1.2578987 1.5138595 1.7750103 1.2126845 1.7325797 1.3719814

bn_3.bias f4 [32]
00000000: 6357 dcbe 56a8 3fbe 051e 27bf d35e 10be
00000010: 02c8 74bd 305d 76be 0850 28be bb70 b5bd
00000020: ae68 e5be 671d 47be d2b2 82be 5bce 26be
00000030: bcb4 4bbc ce65 eabe ffd7 74be 75a2 0dbf
00000040: 5ee4 2dbe 5ac1 95be c975 d7be 3a42 1cbf
00000050: 7b75 1abe 94e4 41bf 22aa 0abf 4bec e8be
00000060: e1d1 86be 6084 fabe ec4e 1dbf ff28 9cbe
00000070: c57f e2be c863 1fbf fa88 1dbf 2e69 10bf
-0.4303542 -0.18716559 -0.6528018 -0.14098673 -0.059761055 -0.24058986 -0.1643678 -0.08859392
-0.44806427 -0.1944481 -0.25527054 -0.16289656 -0.012433227 -0.45780796 -0.23910521 -0.55326015
-0.16981646 -0.29249078 -0.4208205 -0.61038554 -0.15083878 -0.7573941 -0.5416585 -0.45492777
-0.26332 -0.4892912 -0.6144855 -0.30500028 -0.44238105 -0.6226163 -0.61537135 -0.5641049

bn_3.running_mean f4 [32]
00000000: 6990 1a40 f5a7 ab3d 7850 a53f c9de 88bd
00000010: ef33 dabf 4d2d 5ec0 0634 bbbe 638c 803f
00000020: 392f e3bf 802d 2dc0 5e00 78bf 5534 c9bf
00000030: 3bde c9be 4daa 903e c1c1 a140 7ddf ccc0
00000040: de90 d6be 77f8 1040 9dfa 97c0 5b78 c240
00000050: a498 433f c8ea a1c0 b85e 30c0 4b01 40c0
00000060: c876 0040 2380 aa3f df57 a33f d56a a340
00000070: 4052 3a40 2ec9 51c0 66bb cc3f 475b 4ac0
2.415064 0.08381645 1.2915182 -0.06683118 -1.7047099 -3.471515 -0.36563128 1.0042843
-1.7748786 -2.705902 -0.9687556 -1.5719095 -0.3942736 0.2825493 5.0549016 -6.4022813
-0.419074 2.265165 -4.7493424 6.077192 0.76404786 -5.05991 -2.7557812 -3.000079
2.0072498 1.3320354 1.2761191 5.106791 2.9112701 -3.277904 1.599469 -3.1618211

bn_3.running_var f4 [32]
00000000: 074d be40 f7b9 1540 4666 2c41 6b45 663f
00000010: 8055 1641 b57b a941 0857 8041 f548 7940
00000020: 4f9f 5d41 62b3 be3f 00f9 0a41 3aa2 a53f
00000030: 7fb4 8a3e a63f 5b41 bc15 9441 72dd ad41
00000040: 6569 4c40 3c04 c440 900f 6641 9875 5841
00000050: 8e29 b340 ef39 7241 d49f 1641 f77a fb40
00000060: 84d5 0d41 e482 9e41 c57a 2a41 9cbf 8641
00000070: 8e1b e441 f2a0 1c41 26c9 bd41 0cdb 2741
5.9469028 2.3394754 10.774969 0.89949673 9.395874 21.185404 16.042496 3.895078
13.851394 1.4898493 8.685791 1.2940133 0.27090833 13.703039 18.510612 21.733128
3.1939328 6.125517 14.378799 13.528709 5.5988226 15.139144 9.414021 7.8587604
8.864628 19.813911 10.654973 16.84356 28.513454 9.789293 23.723217 10.490978

fc1.weight f4 [10, 288]
00000000: 8467 55bd 57d4 13be 2888 c43d 6d85 a03d
00000010: 0fd9 273d 406a 84be 3077 cc3d 85e9 a5be
00000020: 1571 92be d172 b43d 7382 ca3d 5c05 46be
00000030: 7952 8fbd e92f 92bd bdd9 45bd 5f79 00be
00000040: c8a8 17bc 9079 6cbe c47a 203d 349a 2a3e
00000050: 4a8e 193b eb73 be3d 64bf c0ba f46f 95bc
00000060: 9898 0dbe abd5 dc3d aba9 903e cd7c b1bb
00000070: b7fc ccbc 329c 96bc 0292 053d c44d 69bd
00000080: 566f 1dbe 84b3 e3bd cbc0 243e 0110 babd
00000090: e5d1 69bd 6fc0 0a3c eb65 8d3d 4aa4 433e
000000a0: 6ebe 543e 6aa1 49bd c94a df3d fc24 a0be
000000b0: 0aec cdbe 3ba4 883e aed1 b7bd 7912 96be
000000c0: b2dc 133d e331 b83e 412e 783e 0dd1 9abe
000000d0: 7941 1f3e 107d 153d f43c 85bd 5b23 4dbe
000000e0: d964 4fbd cf61 b53e 051b 63be 7037 95be
000000f0: 5051 143f c421 8a3b 939b 763e 041c a9bd
00000100: 611a 1f3e c645 023d e061 abbd adff f5bc
00000110: 2759 e1bb 23d0 18be edc0 633c 93c0 6a3e
00000120: 4376 14bd cde2 8fbd d2c8 e03d d74e 8b3d
00000130: 22c2 833e b1f3 b0bd 9613 bdbd e29e 25be
00000140: 0845 01bf 4375 4cbd 7e1b 23ba 1b7e 52be
00000150: 22d2 993c b5f2 433a d758 47be 75ef acbd
00000160: a6ac 2bbd 0dfa 29bd 0564 b9bd a800 cb3c
00000170: 4a6d da3e 960b 4ebe 745d 68bd a9dc 1a3f
00000180: 8e68 76be 02f9 ddbd 6b08 203d 3f6b c0bd
00000190: f8c4 bd3d c3d6 32be c906 963d 9699 523c
000001a0: 7528 1bbe ab39 2abe 7753 a0bd b66b c2bc
000001b0: fee1 7fbd a35a 89bd 2f67 28bc 3e89 83bd
000001c0: e09f 7b3d f2b8 7abd 4678 053d 20d4 21bc
000001d0: 76ba 513d 4a85 e0bd cb7d acbd bfef 113f
000001e0: 3fd8 193c 5cfb 743d 99d9 b73e ea02 20be
000001f0: 857a d1bd 0c2c fe3c c189 e8bd b2ab 40be
00000200: 91ec aebe 9b1a 4d3d 1795 44be 7818 b5be
00000210: b557 423d bf4d e6bd 19fa a1be 9c64 b7be
00000220: 4b1b d93d 16fe 5c3e dad5 1bbf 37b9 63be
00000230: b7de 823d 2963 b2bd 2aad d13e ef64 553f
00000240: 1c68 ccbd 37c5 05be d59f 943d 93a6 a2bd
00000250: 3352 393d d101 fa3d a9e0 ce3d 599e 2cbe
00000260: 9589 76be 7e64 7c3d 5aff 363e ed7b d33d
00000270: 7455 ebbd cc04 90bd 54fc ba3d 4e8e 81be
00000280: 5f5c 803e a94e 98bc 1be7 493e 685d b2bd
00000290: f09f f3bd df34 bb3e 7f88 28bd bdba 1b3e
000002a0: bf17 f73d baaa d1be a860 56be 116d 893a
000002b0: aef6 a63e 9293 853d 6b39 0e3e 1cde 513e
000002c0: 4297 1ebd b237 3b3d 213d 05bd 68f3 73be
000002d0: bb64 28bd bc08 2c3d 2df8 2dbe 60b9 8b3e
000002e0: 1b90 52be 507d bb3c 4c78 02bd 8d0b 18be
000002f0: d4ee e63d fc66 04bc 323b b3bd deaa 6bbe
00000300: 83a0 3c3c f36b 863e 560d 3cbf fec3 f33d
00000310: 567d 7b3e 4d97 fcbe 7940 bebd 204f eebd
00000320: abab 073d f037 c6be 87c5 0a3e d72e bd3e
00000330: de5f bfbd 4858 ae3e cb8a 55be 2adc 24bd
00000340: a33d ed3d 6583 373f 700d 043e 8401 053f
00000350: 5d15 88be c11f ad3c de55 8d3e c2bf 4cbe
00000360: ce1b f3bd bcaf 29be 20d7 30be 0649 3dbe
00000370: 5816 343e b669 2c3e c6d1 873e 245f 9f3e
00000380: 8022 193e baff 9fbd fe0a 29be 181d 563d
00000390: d052 e8be 8dbe 9ebe 0dfe c93e 2c15 0ebf
000003a0: 9516 75bd f00d f03e d186 85be 5cbc f1bd
000003b0: 03aa 25be 9fef 1fbe acd2 b2bd e60c 913e
000003c0: 2686 813e 770c 5c3c 91ed aa3d 11b9 073e
000003d0: dade c53b 7b59 353e 487f e4bb 3609 963e
000003e0: b23b 663d fc83 ca3e f9e4 2e3e ee62 d6bd
000003f0: 2725 b4bd bbf7 7cbe 29b3 56bd 044c a03c
-0.052100673 -0.1443647 0.09596282 0.07837949 0.040978488 -0.25862312 0.09983671 -0.32404724
-0.286019 0.08810962 0.098881625 -0.19337982 -0.06998152 -0.071380444 -0.048303355 -0.125463
-0.009256549 -0.23093247 0.03917958 0.16660386 0.0023430758 0.09299453 -0.0014705476 -0.01824186
-0.13827741 0.107829414 0.28254446 -0.0054164887 -0.025022848 -0.018385027 0.032609947 -0.05695893
-0.15374503 -0.11118224 0.1608917 -0.09085084 -0.057084937 0.008468731 0.06904205 0.1910564
0.20775768 -0.049226202 0.10902936 -0.31278217 -0.40219146 0.26687798 -0.0897554 -0.2931097
0.036099143 0.3597556 0.24236394 -0.30237618 0.1555232 0.036496222 -0.065057665 -0.20033018
-0.050633285 0.35426185 -0.22178276 -0.29143858 0.57936573 0.004215451 0.24082784 -0.08257297
0.15537407 0.031804822 -0.083682775 -0.030029142 -0.006877083 -0.14923148 0.013900978 0.22925024
-0.036245596 -0.07025681 0.109758034 0.06802147 0.2573405 -0.086402304 -0.09232251 -0.1617389
-0.5049596 -0.049916517 -0.0006222053 -0.20555918 0.018776957 0.0007474826 -0.19467483 -0.0844411
-0.041912697 -0.041498233 -0.0905228 0.024780586 0.42661506 -0.20121607 -0.05672975 0.6049295
-0.24063322 -0.1083851 0.039070528 -0.093954556 0.092660844 -0.17464738 0.07325513 0.012854001
-0.15152152 -0.16623561 -0.0782842 -0.023733001 -0.062471382 -0.06706741 -0.010278507 -0.06422661
0.061431766 -0.061211534 0.032585405 -0.009877235 0.051203214 -0.10962923 -0.084224306 0.5700645
0.009389936 0.059810027 0.359082 -0.15626112 -0.10228447 0.031026863 -0.113543995 -0.18815497
-0.3416486 0.0500742 -0.19197498 -0.3537023 0.047446925 -0.11245298 -0.31636122 -0.35818946
0.10600909 0.21581301 -0.60873187 -0.22238623 0.06390136 -0.087103195 0.40952426 0.8335714
-0.09980795 -0.13063513 0.07257048 -0.07941928 0.045244407 0.12207378 0.10101444 -0.1685728
-0.24075921 0.061619274 0.17870846 0.10326371 -0.11490908 -0.07032165 0.09130159 -0.25303882
0.25070474 -0.018592196 0.19717066 -0.08709222 -0.1189574 0.36563775 -0.041145798 0.15207954
0.12065076 -0.40950567 -0.20935309 0.0010484775 0.32610077 0.065222874 0.1388909 0.20494884
-0.03871847 0.045707412 -0.032529 -0.23823321 -0.04111169 0.042000517 -0.16989203 0.27289867
-0.20562784 0.022886902 -0.031853005 -0.14848156 0.112760216 -0.008081194 -0.08751525 -0.230144
0.011512878 0.26254234 -0.7345785 0.11902617 0.2455953 -0.49334183 -0.09289641 -0.11636186
0.0331227 -0.38714552 0.13551913 0.36949798 -0.09344457 0.34051728 -0.20853727 -0.040249027
0.11584022 0.7168487 0.12895751 0.5195544 -0.265788 0.021133306 0.27604574 -0.19995025
-0.11870538 -0.16570944 -0.17269564 -0.18484887 0.17586648 0.168372 0.26527232 0.31127274
0.14954567 -0.07812448 -0.165081 0.05227384 -0.4537568 -0.31004754 0.39451638 -0.55501056
-0.05983599 0.46885633 -0.2607942 -0.11803505 -0.16178136 -0.15618752 -0.08731589 0.28330153
0.2529766 0.013430706 0.083460934 0.13254191 0.006038529 0.17709915 -0.006973181 0.29303902
0.056209274 0.3955382 0.17079534 -0.10468088 -0.08796149 -0.24703877 -0.052416954 0.019567497

fc1.bias f4 [10]
00000000: d37e 60bd 116a 603d 696d e3bd fb5d 713e
00000010: 8d64 703b 7d79 13be 4ec9 47be 6a3e 9b3d
00000020: 23db ed3e 623b 2bbe
-0.05480845 0.054788653 -0.11104853 0.23571007 0.0036681027 -0.14401813 -0.19510385 0.07580264
0.4645625 -0.16721871
