HW2/hw_alex/hw2_py/results/_13_23_18/lr_0_0001_net_1_CE_/model.pth (torch_old, 39192 bytes, 20 tensors)

conv1.weight f4 [8, 1, 3, 3]
0.18698369 0.1500607 -0.2880484 -0.2177105 0.28090656 0.07605532 0.04554336 0.12883738
0.25158793 0.039980024 -0.24426909 0.124976456 0.12891403 0.30664128 -0.13678132 -0.1430445
-0.2554773 -0.3117328 0.24061383 0.07512615 0.31623453 0.27067095 0.028395887 -0.28928202
0.024584392 -0.30573684 0.08617548 -0.17096575 -0.006409102 -0.17054947 -0.21323076 0.18696545
0.15228578 0.07143462 -0.23418184 -0.21239756 -0.10744636 0.23466888 -0.020602118 0.2949851
0.27272007 -0.08730752 0.2559193 0.07510321 0.024213308 -0.22026362 0.18971322 0.29108852
0.14543742 0.050693527 0.1807147 0.09464203 -0.09363993 -0.3204041 -0.31216088 -0.18574391
-0.045610696 0.29793152 -0.25719482 -0.1720473 0.24019839 0.08018272 -0.054073762 0.14802483
-0.31340796 0.3009048 0.07441915 -0.11108552 -0.27386972 -0.23282836 -0.10671428 0.29158103
00000000: a778 3f3e 83a9 193e 147b 93be 80ef 5ebe
00000010: fcd2 8f3e e4c2 9b3d ad8b 3a3d f2ed 033e
00000020: 22d0 803e 18c2 233d ad21 7abe a8f3 ff3d
00000030: 0a02 043e 1600 9d3e 6710 0cbe 427a 12be
00000040: eccd 82be 719b 9fbe 7963 763e bddb 993d
00000050: 7ee9 a13e 6295 8a3e 7e9e e83c c61c 94be
00000060: 3565 c93c 8a89 9cbe c57c b03d a511 2fbe
00000070: 7203 d2bb 85a4 2ebe 2a59 5abe df73 3f3e
00000080: cef0 1b3e 504c 923d 5dcd 6fbe bf7e 59be
00000090: d60c dcbd 0a4d 703e c6c5 a8bc 4908 973e
000000a0: f7a1 8b3e 49ce b2bd db07 833e b6cf 993d
000000b0: fd5a c63c c98c 61be 2f44 423e 8e09 953e
000000c0: 8ced 143e 04a4 4f3d 460d 393e aed3 c13d
000000d0: 4bc6 bfbd 020c a4be 8dd3 9fbe a733 3ebe
000000e0: 48d2 3abd 7b8a 983e 0aaf 83be 2b2d 30be
000000f0: 91f6 753e d736 a43d 737c 5dbd d293 173e
00000100: 0277 a0be 3210 9a3e 1169 983d ce80 e3bd
00000110: a738 8cbe 8f6a 6ebe 048d dabd 1c4a 953e

conv1.bias f4 [8]
-0.15625677 -0.19847512 0.004957348 -0.04364887 0.24369529 -0.020773172 -0.26939365 0.028797984
00000000: c601 20be 103d 4bbe 4071 a23b 28c9 32bd
00000010: 428b 793e 802c aabc f7ed 89be c0e9 eb3c

bn_1.weight f4 [8]
0.4559001 0.19921136 0.87689126 0.8495289 0.71437514 0.028198125 0.9496775 0.9662241
00000000: bd6b e93e 10fe 4b3e f27b 603f ba7a 593f
00000010: 4ae1 363f c1ff e63c 111e 733f 765a 773f

bn_1.bias f4 [8]
6.5070366e-05 9.570577e-05 -6.0567778e-05 9.110137e-08 -7.927267e-05 0.000100492936 -0.0002747303 -2.3034294e-05
00000000: 6376 8838 a5b5 c838 280a 7eb8 82a3 c333
00000010: 313f a6b8 bcbf d238 ad09 90b9 c539 c1b7

bn_1.running_mean f4 [8]
-0.5839415 0.14327286 -0.3065046 0.37226066 -0.41243386 -0.242324 0.015302114 0.18403488
00000000: 317d 15bf 1fb6 123e 2cee 9cbe f398 be3e
00000010: 882a d3be c823 78be b8b5 7a3c a473 3c3e

bn_1.running_var f4 [8]
0.13818987 0.111704476 0.13975227 0.09418906 0.32576174 0.101002015 0.11850877 0.05723218
00000000: a581 0d3e 51c5 e43d 381b 0f3e 32e6 c03d
00000010: 3eca a63e 25da ce3d bab4 f23d 4a6c 6a3d

conv2.weight f4 [16, 8, 3, 3]
0.109934226 -0.006309568 0.06220177 -0.0612719 0.014205113 0.0034812486 -0.07868988 -0.07459699
0.06993335 -0.06795041 0.055953484 0.022664217 -0.023699816 0.08328476 0.110059425 -0.08798974
-0.040315434 0.0680477 -0.047602702 -0.0002896146 -0.100892395 0.10207027 -0.09390588 -0.086073436
0.073028035 0.03906206 0.00633812 -0.08344005 -0.036127545 -0.06126924 0.09345048 0.09686901
0.07019443 0.03785086 -0.004941923 0.0971671 0.100311175 -0.00016892183 -0.043331243 0.11608489
-0.07371304 0.09642631 0.06560922 -0.11498341 0.0586627 -0.033847604 0.08654975 0.0845053
-0.01417647 -0.0058524096 -0.011509828 -0.09572654 -0.07893882 -0.113646224 0.020666257 0.0089581795
0.013762035 0.06484271 0.0625621 -0.04262049 -0.08083143 0.022345018 0.02332182 -0.032878753
-0.040195018 -0.078756355 0.0009152743 -0.05971236 0.11268966 -0.083318986 -0.013802712 -0.09430553
0.047365904 -0.10994544 0.041080717 0.06850612 0.04954926 0.09700596 0.02128337 0.05825487
0.100711256 -0.068758495 -0.09121045 -0.044740845 0.0989611 0.10483662 -0.05043658 -0.013879373
-0.00509532 -0.098529145 0.017944517 -0.060431756 0.105370015 0.10781269 0.024160521 0.05200761
0.09666376 0.018962478 0.09959033 0.0701471 -0.06732905 -0.005738953 -6.957321e-05 0.055789202
-0.108317256 0.05796469 -0.07524194 -0.047996536 -0.028333824 0.052981377 -0.062824346 -0.048628688
-0.056443002 -0.05591091 0.08244177 -0.06006174 0.09521715 0.05224058 0.10458603 0.042281248
-0.010606558 0.085671104 -0.090448625 0.024157511 0.09039005 0.059683733 0.077183664 0.08709918
-0.06305446 0.05529151 -0.06378451 -0.031762682 -0.0020588995 -0.05959115 0.026164176 -0.030806744
-0.033060078 -0.032568716 -0.0947887 0.11602405 0.043983493 0.11678329 0.081070535 -0.08261494
-0.025469538 0.049694147 0.061383378 0.002335599 -0.097096555 0.104785174 0.0017996636 0.009893734
-0.11508989 0.09984977 -0.030047761 0.07431715 -0.038762216 -0.0044523585 -0.042521313 0.005538094
0.067798786 -0.012002268 0.0069736796 -0.07162572 0.080677755 -0.026429238 -0.098156035 -0.061895594
0.025948275 0.04216505 0.0628468 -0.03553167 0.08822628 0.09098871 0.090079665 0.101516
0.06064057 0.018754046 -0.013571307 -0.06400199 -0.06332466 0.043521255 -0.07484267 -0.05431784
-0.020313136 0.10839334 0.099878885 0.09523293 -0.03250501 0.06403285 0.013117963 0.09135535
0.06696816 0.0704069 -0.079334795 -0.07141372 0.1001304 -0.060946163 -0.085490175 -0.1021875
-0.00046215186 -0.08469537 0.08541769 0.054012682 0.018812517 -0.08708355 -0.111484684 -0.010598227
-0.0921538 -0.07987843 -0.08681789 -0.06503741 0.022344412 -0.08879018 0.028868984 -0.042786613
-0.08939586 0.018907553 -0.023120727 -0.013630265 -0.0986661 -0.10515127 -0.09037181 -0.08010502
0.070726305 -0.11093422 -0.035915997 -0.024319865 -0.116896085 0.040899966 0.062242433 -0.07037745
0.08941775 0.0060698483 0.098471515 -0.05354688 0.08878859 0.09590418 -0.05633217 0.0023683328
0.028744474 0.018299062 0.10486412 -0.090255514 -0.030331403 -0.0054114982 0.02147844 -0.080438994
-0.02428923 0.08707261 0.003789174 0.103130974 0.010853184 0.032243185 0.085853904 -0.05149414
00000000: 3225 e13d 7ec0 cebb 48c7 7e3d 3ef8 7abd
00000010: 90bc 683c a925 643b 2928 a1bd 4fc6 98bd
00000020: 3739 8f3d 9629 8bbd 7b2f 653d 4faa b93c
00000030: 1e26 c2bc 3391 aa3d d666 e13d f733 b4bd
00000040: cc21 25bd 985c 8b3d 0dfb 42bd 6ad7 97b9
00000050: aca0 cebd 380a d13d ba51 c0bd 4547 b0bd
00000060: b98f 953d 8aff 1f3d 01b0 cf3b 9ee2 aabd
00000070: 7afa 13bd 74f5 7abd f762 bf3d 4263 c63d
00000080: 19c2 8f3d 8109 1b3d dbef a1bb 8bff c63d
00000090: f26f cd3d 9c20 31b9 1a7c 31bd eabd ed3d
000000a0: ddf6 96bd 287b c53d 205e 863d 6c7c ebbd
000000b0: 4d48 703d c9a3 0abd ff40 b13d 1d11 ad3d
000000c0: 6d44 68bc 92c5 bfbb b893 3cbc 470c c4bd
000000d0: adaa a1bd 5abf e8bd 484c a93c 54c5 123c
000000e0: 297a 613c 41cc 843d 8f20 803d d392 2ebd
000000f0: f38a a5bd e60c b73c 670d bf3c dfab 06bd
00000100: 88a3 24bd 034b a1bd 05ef 6f3a f394 74bd
00000110: d6c9 e63d 25a3 aabd c524 62bc 4223 c1bd
00000120: c002 423d 132b e1bd 4144 283d f04c 8c3d
00000130: 2af4 4a3d 10ab c63d 765a ae3c a99c 6e3d
00000140: b441 ce3d 41d1 8cbd 8bcc babd 2d42 37bd
00000150: 1eac ca3d 95b4 d63d 9696 4ebd 4f66 63bc
00000160: a4f6 a6bb a6c9 c9bd 6100 933c 4a87 77bd
00000170: 3ccc d73d e6cc dc3d 49ec c53c ef05 553d
00000180: a6f7 c53d 3357 9b3c 04f6 cb3d 48a9 8f3d
00000190: d0e3 89bd d40d bcbb d5e7 91b8 3883 643d
000001a0: 70d5 ddbd 626c 6d3d 7218 9abd 0498 44bd
000001b0: 561c e8bc 0003 593d 0daa 80bd e02e 47bd
000001c0: c730 67bd d702 65bd 3bd7 a83d 4d03 76bd
000001d0: 3601 c33d 38fa 553d 3331 d63d 1a2f 2d3d
000001e0: 21c7 2dbc 5574 af3d 213d b9bd f9e5 c53c
000001f0: 6b1e b93d ee76 743d 7812 9e3d 0e61 b23d
00000200: b222 81bd 5a79 623d 74a1 82bd 9619 02bd
00000210: 9aee 06bb da15 74bd 4156 d63c 6d5e fcbc
00000220: 016a 07bd c666 05bd 9420 c2bd 049e ed3d
00000230: 0928 343d 142c ef3d 4f08 a63d 0632 a9bd
00000240: 7ea5 d0bc 178c 4b3d 236d 7b3d d910 193b
00000250: 8fda c6bd 9c99 d63d b1e2 eb3a 5419 223c
00000260: 40b4 ebbd 097e cc3d b926 f6bc 9733 983d
00000270: 21c5 1ebd 17e5 91bb d42a 2ebd e678 b53b
00000280: 17da 8a3d 29a5 44bc 7783 e43b 81b0 92bd
00000290: 613a a53d 2182 d8bc 0806 c9bd 3c86 7dbd
000002a0: 7a91 d43c 42b5 2c3d d3b5 803d a889 11bd
000002b0: fbaf b43d 4a58 ba3d b07b b83d 9fe7 cf3d
000002c0: 3f62 783d 16a2 993c 305a 5ebc 7a13 83bd
000002d0: 5cb0 81bd 5843 323d 1d47 99bd 627c 5ebd
000002e0: bc67 a6bc 54fd dd3d 4d8d cc3d 7b09 c33d
000002f0: f923 05bd a823 833d baec 563c 8418 bb3d
00000300: 9a26 893d 7e31 903d 487a a2bd 5b41 92bd
00000310: 2b11 cd3d afa2 79bd 7915 afbd ae47 d1bd
00000320: f94c f2b9 c474 adbd 78ef ae3d 673c 5d3d
00000330: b51c 9a3c dc58 b2bd 1552 e4bd 30a4 2dbc
00000340: 22bb bcbd 4d97 a3bd 94cd b1bd 5532 85bd
00000350: a10b b73c a0d7 b5bd a67e ec3c 0441 2fbd
00000360: 2d15 b7bd 03e4 9a3c ae67 bdbc 7a51 5fbc
00000370: 7411 cabd 8d59 d7bd db14 b9bd 1a0e a4bd
00000380: f4d8 903d 7b31 e3bd a71c 13bd 743a c7bc
00000390: 3767 efbd b986 273d ecf1 7e3d 0d22 90bd
000003a0: a720 b73d 94e5 c63b 6fab c93d f953 5bbd
000003b0: cbd6 b53d 6969 c43d 90bc 66bd 0836 1b3b
000003c0: 8879 eb3c eae7 953c 00c3 d63d e2d7 b8bd
000003d0: 9079 f8bc f052 b1bb 8ef3 af3c 33bd a4bd
000003e0: 35fa c6bc 2053 b23d ca53 783b 5536 d33d
000003f0: 8ed1 313c 6e11 043d 2cd4 af3d 85eb 52bd

conv2.bias f4 [16]
-0.004830405 -0.053732596 0.020568185 0.092372455 -0.069076166 0.042907767 0.083576955 -0.092134334
-0.057299975 0.069726504 0.11186806 0.016220175 0.031625636 -0.010460429 0.029852517 0.07406498
00000000: 6048 9ebb b616 5cbd 9c7e a83c c52d bd3d
00000010: ce77 8dbd 0ec0 2f3d 652a ab3d edb0 bcbd
00000020: 61b3 6abd c5cc 8e3d 151b e53d 2ce0 843c
00000030: e289 013d 3862 2bbc 448d f43c 61af 973d

bn_2.weight f4 [16]
0.13257316 0.045206543 0.54375815 0.15723334 0.5900706 0.6037484 0.22075044 0.16832983
0.4961104 0.5389471 0.47423708 0.26890525 0.41029078 0.86849034 0.6703481 0.31237867
00000000: 42c1 073e 7f2a 393d bc33 0b3f c701 213e
00000010: de0e 173f 418f 1a3f 670c 623e a85e 2c3e
00000020: 2f02 fe3e 70f8 093f 34cf f23e f3ad 893e
00000030: a211 d23e 6255 5e3f ef9b 2b3f 19f0 9f3e

bn_2.bias f4 [16]
-0.00013062001 0.00021372913 1.1175303e-07 8.961616e-05 -0.00010644923 -3.525051e-05 4.853816e-05 0.00011175241
-6.8828385e-06 -4.241196e-05 2.851366e-05 -3.6735495e-05 5.4447126e-05 9.126401e-05 8.668036e-05 7.418077e-05
00000000: 0bf7 08b9 7a1c 6039 e1fc ef33 4ff0 bb38
00000010: 7f3d dfb8 f2d9 13b8 7495 4b38 9e5c ea38
00000020: 22f3 e6b6 7fe3 31b8 9e30 ef37 7014 1ab8
00000030: 285e 6438 fe64 bf38 2ac8 b538 7f91 9b38

bn_2.running_mean f4 [16]
0.014578228 0.36545342 -0.18991299 -0.17447639 -0.07185523 0.8805342 0.33174783 0.1954199
0.06867232 0.5290171 0.41923946 0.037347503 -0.53606117 0.18479478 -0.24694756 0.24645
00000000: 85d9 6e3c b61c bb3e 8d78 42be f0a9 32be
00000010: d628 93bd b06a 613f dada a93e 271c 483e
00000020: 13a4 8c3d aa6d 073f 8ea6 d63e b2f9 183d
00000030: 4e3b 09bf d83a 3d3e d2df 7cbe 645d 7c3e

bn_2.running_var f4 [16]
0.12046966 0.21024063 0.081874736 0.08374117 0.08624475 0.14785872 0.061885882 0.27067804
0.05217803 0.09369265 0.21011445 0.12633269 0.21660191 0.057512812 0.12803052 0.124528974
00000000: ccb8 f63d 5249 573e f1ad a73d 7e80 ab3d
00000010: 16a1 b03d 4768 173e 0d7c 7d3d 5096 8a3e
00000020: a1b8 553d efe1 bf3d 3e28 573e 5b5d 013e
00000030: e4cc 5d3e 8e92 6b3d 6f1a 033e 0c09 ff3d

conv3.weight f4 [32, 16, 3, 3]
0.079271145 -0.002737098 -0.028610379 0.03527782 0.010036116 -0.04128541 -0.03280923 0.027259057
0.0125422785 0.073645726 -0.033315066 -0.037407797 0.023904134 -0.03747271 -0.010889266 0.045383256
0.0743052 0.018746734 -0.046778914 0.035617698 0.038523868 -0.074056394 0.07940157 0.06309082
-0.03297512 -0.014689391 -0.021440104 -0.06404337 -0.06410275 0.06953877 -0.07666248 0.056423277
0.08259336 0.019635335 -0.043616205 0.031294182 -0.044473004 -0.059877753 -0.031195413 -0.017281277
-0.006304062 -0.029726844 -0.04054705 -0.028337007 -0.051828373 -0.078195766 -0.016229337 0.03342317
0.032345723 0.032758504 0.063029185 0.021609606 0.037328884 -0.06769181 -0.07470161 0.059152227
0.049484175 -0.0034152414 -0.06312515 -0.033129394 0.058872495 0.05757544 -0.08054432 0.069780156
-0.04751475 0.0064224456 0.08104704 0.04159377 -0.04379395 0.01815969 0.023061667 0.002718982
-0.008357686 0.083101965 -0.03155709 0.067215495 -0.06577954 0.052873157 0.06500262 -0.046855193
0.035139907 -0.007208754 0.06932643 0.035269994 0.054781657 0.027342984 0.0454354 -0.04221681
-0.015012552 0.03825594 0.06641139 -0.0020566531 -0.042368874 -0.010366936 -0.06613395 0.03234535
-0.034333535 -0.055218097 0.06743747 0.011963235 0.06375653 -0.035618756 -0.07987955 0.0011945866
-0.04385902 -0.079594605 0.0039348844 0.019570524 0.083133206 -0.031088708 -0.008918355 -0.06584736
0.0015421828 0.030114388 0.074123316 -0.009990048 0.041922588 -0.0008106912 -0.07879589 0.0671377
0.0822548 0.05329369 0.05931906 -0.053489957 0.013882498 0.07211533 0.029092899 0.005726162
0.059721354 -0.0647386 0.047007907 0.010455022 0.0533942 -0.0019616475 0.02018751 0.0439057
-0.011572649 0.029015645 0.014565378 0.031681754 -0.07532942 -0.04703387 -0.018771557 0.07552835
0.055881903 -0.072905764 0.022777153 0.022547098 -0.016801408 0.06807012 -0.0062017413 -0.03426221
-0.0028197696 0.061846305 0.0574626 0.06372323 -0.052373447 -0.009440857 -0.025112012 0.077464275
-0.04085596 -0.037354168 0.070766434 0.026240535 0.020202162 -0.018521905 0.007742192 0.06371977
-0.051801533 -0.05125224 0.0027030113 -0.032618154 0.030294187 -0.031683158 -0.0030593034 -0.06232815
0.059564237 -0.042999122 -0.011767502 -0.050293405 -0.058462027 -0.061239474 0.057844017 -0.04525449
-0.064451516 0.037112575 0.017209245 0.04416498 0.030761955 0.0133350035 0.02126916 0.059002176
0.0031679533 0.016634146 -0.07376548 -0.022644307 0.039468255 -0.048436012 0.06263926 0.07717646
-0.035239264 0.0575779 -0.018865256 -0.0055981115 0.03536498 -0.06872753 0.062865 -0.021642542
-0.041160394 -0.07387356 -0.08187317 -0.019798638 0.031523235 0.00064164586 0.0627496 -0.06179182
0.06231692 0.017250195 0.052028656 -0.055261306 -0.055328492 0.03822952 -0.016687803 -0.045422938
-0.05589021 -0.05584309 -0.07250543 0.012763349 -0.0019056714 0.05205185 -0.022969358 -0.055239376
0.012444582 0.05478549 0.010651747 -0.034280453 -0.07393442 0.031506576 -0.006799177 0.029898142
0.052415736 0.02854368 -0.020776782 -0.009847753 0.06976665 0.026741153 0.026309408 0.00065753626
-0.046966717 0.063435175 0.07605677 0.04285217 -0.01619992 0.057915147 0.037509184 -0.04892057
00000000: e958 a23d e260 33bb 5060 eabc 7a7f 103d
00000010: 856e 243c e41a 29bd f962 06bd 634e df3c
00000020: 217e 4d3c 92d3 963d 6175 08bd eb38 19bd
00000030: 9ad2 c33c fc7c 19bd e468 32bc cbe3 393d
00000040: 532d 983d c092 993c 3f9b 3fbd dde3 113d
00000050: 34cb 1d3d e1aa 97bd 4a9d a23d c335 813d
00000060: eb10 07bd c5ab 70bc 28a3 afbc 2c29 83bd
00000070: 4d48 83bd 586a 8e3d 3801 9dbd 181c 673d
00000080: b526 a93d 48da a03c e8a6 32bd 542e 003d
00000090: 5329 36bd 6042 75bd 868d ffbc 7791 8dbc
000000a0: 4e92 cebb b685 f3bc aa14 26bd 0323 e8bc
000000b0: fd49 54bd 1a25 a0bd 63f3 84bc bce6 083d
000000c0: f37c 043d c82d 063d 7215 813d a106 b13c
000000d0: 2ce6 183d 01a2 8abd 28fd 98bd 9b49 723d
000000e0: ebaf 4a3d 3ed2 5fbb c247 81bd b0b2 07bd
000000f0: 4924 713d 39d4 6b3d 6cf4 a4bd e6e8 8e3d
00000100: d49e 42bd 6173 d23b fefb a53d 3b5e 2a3d
00000110: 4961 33bd a1c3 943c d2eb bc3c f330 323b
00000120: adee 08bc 5d31 aa3d 0242 01bd 47a8 893d
00000130: 6cb7 86bd 8691 583d 1820 853d 3beb 3fbd
00000140: ddee 0f3d 6937 ecbb 04fb 8d3d 4577 103d
00000150: bb62 603d 65fe df3c 781a 3a3d 89eb 2cbd
00000160: 35f7 75bc 43b2 1c3d b202 883d eac8 06bb
00000170: fc8a 2dbd 15da 29bc 3d71 87bd 8f7c 043d
00000180: 52a1 0cbd 5f2c 62bd a81c 8a3d 7201 443c
00000190: c992 823d f9e4 11bd e497 a3bd ad93 9c3a
000001a0: 84a5 33bd 7f02 a3bd 34f0 803b 5d52 a03c
000001b0: be41 aa3d bfad febc 4b1e 12bc fbda 86bd
000001c0: 1123 ca3a 73b2 f63c f7cd 973d 4cad 23bc
000001d0: 05b7 2b3d 9184 54ba bd5f a1bd 7e7f 893d
000001e0: 3475 a83d 7c4a 5a3d 8bf8 723d 4918 5bbd
000001f0: 6b73 633c 34b1 933d 3b54 ee3c 87a2 bb3b
00000200: 619e 743d ac95 84bd 5d8b 403d 8a4b 2b3c
00000210: e0b3 5a3d fc8e 00bb 4760 a53c 77d6 333d
00000220: 359b 3dbc 38b2 ed3c a0a3 6e3c bac4 013d
00000230: 5046 9abd 96a6 40bd cfc6 99bc 9cae 9a3d
00000240: 6ce4 643d 9e4f 95bd 2797 ba3c b1b4 b83c
00000250: 1ba3 89bc 5968 8b3d fa37 cbbb 8856 0cbd
00000260: e2cb 38bb 8d52 7d3d e75d 6b3d 5381 823d
00000270: 8a85 56bd d3ad 1abc b5b7 cdbc 97a5 9e3d
00000280: 9458 27bd af00 19bd feed 903d 64f6 d63c
00000290: 017f a53c 40bb 97bc 37b2 fd3b 837f 823d
000002a0: d82d 54bd deed 51bd 0125 313b 9d9a 05bd
000002b0: 842b f83c 33c6 01bd 987e 48bb cd4b 7fbd
000002c0: a1f9 733d d91f 30bd 7bcc 40bc 7500 4ebd
000002d0: e175 6fbd 3ed6 7abd d9ed 6c3d c65c 39bd
000002e0: 28ff 83bd 5b03 183d 67fa 8c3c 57e6 343d
000002f0: 7f00 fc3c 0f7b 5a3c a93c ae3c 44ac 713d
00000300: 709d 4f3b 5544 883c 5b12 97bd 8e80 b9bc
00000310: 77a9 213d d764 46bd 0349 803d b10e 9e3d
00000320: 0c57 10bd ced6 6b3d 4f8b 9abc 5d70 b7bb
00000330: dfda 103d 05c1 8cbd 5dbf 803d b34b b1bc
00000340: cd97 28bd 054b 97bd 1fad a7bd c130 a2bc
00000350: 821e 013d 2034 283a dd82 803d 6b19 7dbd
00000360: 0740 7f3d 4850 8d3c 001c 553d ae59 62bd
00000370: 21a0 62bd 8f96 1c3d dcb4 88bc 670d 3abd
00000380: 22ed 64bd b9bb 64bd ba7d 94bd 5e1d 513c
00000390: b9c7 f9ba 5234 553d 3c2a bcbc af42 62bd
000003a0: 5ce4 4b3c c066 603d aa84 2e3c a969 0cbd
000003b0: ee6a 97bd 0a0d 013d a1cb debb f3ec f43c
000003c0: e2b1 563d 70d4 e93c 1234 aabc 7858 21bc
000003d0: d1e1 8e3d 4310 db3c d486 d73c 835e 2c3a
000003e0: 2c60 40bd 4dea 813d a7c3 9b3d c285 2f3d
000003f0: b2b5 84bc 6f38 6d3d 3ba3 193d f060 48bd

conv3.bias f4 [32]
-0.07823551 0.024538152 -0.07633549 -0.03711491 -0.04476173 0.06873851 0.06809855 -0.026466798
0.03503725 0.036100827 -0.014342725 0.048416622 -0.048088312 -0.005558133 0.06672228 -0.07511866
0.03792327 0.012027733 -0.031048726 -0.06652978 -0.075331494 0.059175752 0.045737393 0.075204305
-0.040350966 -0.007761143 0.07236742 0.034094118 -0.020757437 -0.019388378 -0.049815875 -0.05808733
00000000: f039 a0bd 3c04 c93c c855 9cbd ce05 18bd
00000010: 1358 37bd c7c6 8c3d 4177 8b3d e6d0 d8bc
00000020: 3883 0f3d 76de 133d c0fd 6abc 8250 463d
00000030: 40f8 44bd 0021 b6bb b1a5 883d d0d7 99bd
00000040: 6e55 1b3d f80f 453c e659 febc c440 88bd
00000050: 6647 9abd 4662 723d 2257 3b3d b704 9a3d
00000060: 0e47 25bd 3051 febb 5f35 943d 46a6 0b3d
00000070: 800b aabc 60d4 9ebc bb0b 4cbd fbec 6dbd

bn_3.weight f4 [32]
0.08345216 0.4129311 0.36380696 0.45052925 0.9608751 0.30881268 0.63997126 0.025805697
0.8972693 0.28000316 0.052530225 0.51027185 0.96340966 0.027286647 0.5295721 0.23676577
0.2923792 0.34664732 0.7971178 0.041468944 0.09948502 0.79203653 0.70766747 0.49587953
0.8255662 0.30085346 0.44179437 0.6938921 0.32824054 0.075275086 0.4177774 0.6195619
00000000: f7e8 aa3d b56b d33e e844 ba3e c5ab e63e
00000010: e9fb 753f b21c 9e3e 28d5 233f 7866 d33c
00000020: 71b3 653f 935c 8f3e ef29 573d 2da1 023f
00000030: 04a2 763f 3f88 df3c 0a92 073f ba72 723e
00000040: bab2 953e c27b b13e ea0f 4c3f 57db 293d
00000050: cdbe cb3d e8c2 4a3f b229 353f ece3 fd3e
00000060: 4e58 533f 7709 9a3e df32 e23e eaa2 313f
00000070: 250f a83e d329 9a3d ebe6 d53e 9c9b 1e3f

bn_3.bias f4 [32]
-2.3795179e-05 1.799906e-05 1.3121984e-05 -9.027731e-05 -0.00023842593 -5.0942785e-05 0.00016286418 -2.5195395e-05
-4.9774848e-05 1.7134404e-05 8.179817e-05 -9.35395e-05 8.5878746e-05 0.00012455006 7.6597156e-05 -0.000103843035
-4.537793e-05 0.00025454833 0.00012979306 -2.7851767e-05 -0.00019418303 1.8525401e-05 -2.9664476e-05 -9.6331505e-06
-5.702934e-05 -0.00010126739 -1.0471398e-05 6.957761e-05 7.332853e-05 -0.00014449478 1.6005202e-05 -2.719763e-05
00000000: c29b c7b7 b0fc 9637 7e26 5c37 4353 bdb8
00000010: f901 7ab9 66ab 55b8 85c6 2a39 b35a d3b7
00000020: 56c5 50b8 dabb 8f37 0f8b ab38 a32a c4b8
00000030: cd19 b438 a799 0239 c9a2 a038 4ec6 d9b8
00000040: 2e54 3eb8 e674 8539 0f19 0839 37a3 e9b7
00000050: 9c9d 4bb9 ff66 9b37 fad7 f8b7 119e 21b7
00000060: ca32 6fb8 845f d4b8 50ae 2fb7 32ea 9138
00000070: f4c7 9938 8683 17b9 e942 8637 7726 e4b7

bn_3.running_mean f4 [32]
0.32108706 0.14193349 -0.028129622 -0.13994777 -0.395038 0.2626327 0.73732823 0.01616966
0.5032231 0.25463822 -0.37111828 0.37956548 -0.61886525 -0.2818761 0.41626886 -0.2539246
0.49880558 0.0076671857 0.43991658 -0.17635481 0.15806921 0.68407905 0.3422081 0.213357
-0.21114787 0.29291198 0.020550782 -0.11232494 -0.41153288 0.24936652 0.40977916 0.13854386
00000000: 8665 a43e 0357 113e 1870 e6bc 784e 0fbe
00000010: 6c42 cabe cb77 863e 8bc1 3c3f 3c76 843c
00000020: 3bd3 003f f15f 823e 3703 bebe 6856 c23e
00000030: f46d 1ebf 1052 90be 3121 d53e 6802 82be
00000040: 7263 ff3e 043d fb3b bf3c e13e 5b96 34be
00000050: e5dc 213e ce1f 2f3f e635 af3e 427a 5a3e
00000060: 2637 58be 8ff8 953e 1d5a a83c 9e0a e6bd
00000070: 70b4 d2be f059 7f3e 93ce d13e 71de 0d3e

bn_3.running_var f4 [32]
0.041442428 0.04483299 0.050180357 0.03336104 0.039903894 0.06295116 0.06886944 0.04205078
0.040258165 0.027514577 0.05218599 0.057069674 0.06984477 0.033077247 0.04148266 0.037647393
0.09805267 0.048788607 0.03795442 0.048417 0.03594555 0.12678337 0.04227336 0.068078354
0.031277608 0.051908907 0.048395332 0.028402697 0.038367745 0.048668806 0.035389576 0.04603441
00000000: 89bf 293d cca2 373d eb89 4d3d 96a5 083d
00000010: 4472 233d 8aec 803d 6c0b 8d3d 703d 2c3d
00000020: bfe5 243d 4066 e13c fac0 553d e4c1 693d
00000030: c60a 8f3d 027c 073d b9e9 293d 2734 1a3d
00000040: d7cf c83d 90d6 473d 1876 1b3d e750 463d
00000050: a43b 133d 80d3 013e d526 2d3d aa6c 8b3d
00000060: f31c 003d 6f9e 543d 2f3a 463d c6ac e83c
00000070: 7f27 1d3d f158 473d a9f4 103d 948e 3c3d

fc1.weight f4 [10, 288]
-0.033108164 0.009424402 0.043307297 0.011988801 -0.019419344 -0.013000635 -0.058653332 -0.017346406
0.035798308 -0.025954546 0.05095758 -0.0363305 -0.058259238 -0.015313555 -0.053834062 -0.030050512
0.03981824 0.0211659 0.014702774 -0.05819559 -0.0061866003 -0.056115717 0.0070034796 0.039671008
0.028455371 0.03647411 -0.03830433 -0.042128533 0.049188416 0.015246602 0.0072383056 0.05064774
-0.009341658 0.05324545 -0.018580312 0.004750852 -0.027365386 0.004937832 0.027088152 -0.017259093
-0.012382784 -0.056269214 0.019658031 -0.04080157 -0.038901832 0.04245712 -0.024261747 -0.016140522
0.034275945 0.007291236 -0.015856855 -0.01649885 -0.014893418 0.018794937 -0.001060239 -0.028349318
0.012573253 -0.026254823 -0.034301296 0.016676547 0.014014262 -0.045498516 -0.04348761 -0.045935847
-0.042546947 -0.0415955 -0.00862915 -0.049523305 -0.015995296 0.05871092 0.0026329309 -0.028564634
0.038923554 0.050626557 0.05804791 -0.029445997 0.055674806 -0.02082774 0.017898025 0.04367264
-0.02250881 -0.04053238 -0.05235991 0.008415042 -0.022792187 -0.0061576334 0.015496723 0.011083181
0.025224974 -0.054428887 0.05660087 -0.011619891 -0.057834756 0.028283427 -0.016401269 -0.011166122
-0.029970786 0.021559216 -0.044093918 0.03448295 -0.013683242 0.01940117 -0.053318437 -0.03192925
-0.02433133 -0.00711989 -0.03204503 -0.021184755 -0.0070815315 -0.046382595 0.017014787 0.025708739
0.026844813 -0.020592278 -0.009260625 -0.0060526915 -0.013211994 -0.0024736377 0.057388734 0.010975924
0.0039151385 -0.015470351 -0.012013741 -0.0012173596 -0.05202458 -0.010375322 -0.04122201 -0.00902691
-0.05607652 0.056430742 -0.05692575 0.017465068 -0.009701395 -0.024740655 -0.026634464 0.010078788
0.020536669 -0.041539244 -0.028033286 -0.023461657 0.030411156 0.005905202 -0.0059790784 -0.0030640303
-0.052213807 -0.048494954 -0.022443365 0.02136067 0.054172453 0.046474 0.007546987 -0.017096687
-0.022244941 0.03139125 -0.036357984 -0.046058476 -0.016500302 -0.01409592 -0.04992415 -0.058801346
-0.04173228 0.01731501 -0.0586589 0.041613147 -0.054536838 0.03600471 -0.04543359 0.008101447
-0.032050863 0.023607869 0.02841979 0.022685792 0.045048114 -0.0228904 0.0047674133 0.056525692
-0.055997234 -0.05089678 0.044285752 0.0282978 0.0059614605 -9.166367e-05 -0.0486745 0.046252575
0.011739698 -0.055775248 0.056143213 0.004243501 -0.00086730625 0.043795045 -0.037682604 0.020033991
-0.023122178 0.03759833 -0.05847414 0.056417547 -0.035462584 -0.013204695 -0.0047958596 0.01926948
-0.013475221 0.05203694 -0.020846132 0.050424673 0.05671715 0.013940575 0.027623711 0.026941605
-0.0128379855 -0.012087737 0.011128125 0.026596483 0.057898603 0.0059241285 0.048302278 0.04628906
-0.03182565 0.0408736 -0.0071070516 0.053830642 0.043943882 -0.054649856 0.00521767 0.05561112
-0.022583418 0.020180939 0.033102665 -0.010979569 0.048888862 -0.03426503 -0.010749124 0.0298515
0.013484567 -0.008120181 0.004461469 0.024558451 -0.055023167 -0.026634397 -0.04199912 0.0077721174
-0.054170076 0.015732937 0.03928134 -0.031124432 0.034011856 -0.014413674 0.05374904 0.020936253
0.027180186 0.030520804 0.048549224 -0.008392888 -0.02354261 0.017146528 0.038625367 0.056917977
00000000: 6d9c 07bd cf68 1a3c fe62 313d ad6c 443c
00000010: 5115 9fbc 9e00 55bc 7a3e 70bd 0d1a 8ebc
00000020: 3fa1 123d a19e d4bc e5b8 503d 4acf 14bd
00000030: 3da1 6ebd b4e5 7abc 1b81 5cbd 7e2c f6bc
00000040: 7318 233d 1c64 ad3c e7e3 703c 805e 6ebd
00000050: f7b8 cabb 98d9 65bd 727d e53b 117e 223d
00000060: 3d1b e93c e065 153d 00e5 1cbd f88e 2cbd
00000070: cb79 493d e2cc 793c 4f2f ed3b 0174 4f3d
00000080: c10d 19bc e717 5a3d bd35 98bc 09ad 9b3b
00000090: 602d e0bc 89cd a13b f9e7 dd3c f162 8dbc
000000a0: 29e1 4abc 8c7a 66bd e109 a13c 8c1f 27bd
000000b0: 8757 1fbd 84e7 2d3d 92c0 c6bc 2139 84bc
000000c0: ef64 0c3d 52eb ee3b 3ce6 81bc 9928 87bc
000000d0: 8603 74bc d7f7 993c b8f7 8aba d43c e8bc
000000e0: 0c00 4e3c 5b14 d7bc 847f 0cbd 419d 883c
000000f0: 139c 653c a75c 3abd 1020 32bd 3a27 3cbd
00000100: b545 2ebd 0b60 2abd 4761 0dbc f3d8 4abd
00000110: 9108 83bc dd7a 703d 408d 2c3b 6100 eabc
00000120: 4e6e 1f3d cb5d 4f3d a5c3 6d3d bb38 f1bc
00000130: 440b 643d f09e aabc e19e 923c 15e2 323d
00000140: 6564 b8bc 4805 26bd 5877 56bd 3fdf 093c
00000150: aeb6 babc f9c5 c9bb f8e5 7d3c 3b96 353c
00000160: 9ba4 ce3c d3f0 5ebd 50d6 673d 5b61 3ebc
00000170: 23e4 6cbd a5b2 e73c f45b 86bc 1cf2 36bc
00000180: 4b85 f5bc f49c b03c d39b 34bd fe3d 0d3d
00000190: ad2f 60bc 34ef 9e3c 6f64 5abd 3fc8 02bd
000001a0: 7f52 c7bc f74d e9bb a641 03bd a78b adbc
000001b0: 310c e8bb adfb 3dbd 9862 8b3c 229b d23c
000001c0: a7e9 db3c 23b1 a8bc e0b9 17bc a855 c6bb
000001d0: 1f77 58bc c11c 22bb 7310 6b3d 5dd4 333c
000001e0: 904a 803b 5b77 7dbc 48d5 44bc cf8f 9fba
000001f0: ba17 55bd 41fd 29bc 69d8 28bd 9be5 13bc
00000200: 7eb0 65bd ec23 673d fa2a 69bd e712 8f3c
00000210: 9af2 1ebc eaac cabc 8530 dabc 8021 253c
00000220: 843c a83c 0e25 2abd 10a6 e5bc a932 c0bc
00000230: d120 f93c 6d80 c13b 25ec c3bb e6cd 48bb
00000240: 25de 55bd a5a2 46bd 26db b7bc 92fc ae3c
00000250: efe3 5d3d 855b 3e3d b74c f73b 5a0e 8cbc
00000260: 063b b6bc 1d94 003d 1cec 14bd d0a7 3cbd
00000270: a42b 87bc 93f2 66bc 447d 4cbd aed9 70bd
00000280: 78ef 2abd 35d8 8d3c 5144 70bd 8c72 2a3d
00000290: 0562 5fbd ad79 133d 9218 3abd eebb 043c
000002a0: c447 03bd 4a65 c13c 9fd0 e83c 8ed7 b93c
000002b0: 5f84 383d a684 bbbc f637 9c3b 7c87 673d
000002c0: 5b5d 65bd 2479 50bd fa64 353d cad0 e73c
000002d0: 5b58 c33b 8f3b c0b8 ea5e 47bd 5773 3d3d
000002e0: dd57 403c 9674 64bd 6df6 653d 110d 8b3b
000002f0: f05b 63ba 6f62 333d 1359 1abd 531e a43c
00000300: b96a bdbc b500 1a3d 9482 6fbd 1616 673d
00000310: 3741 11bd 8158 58bc 9626 9dbb 07db 9d3c
00000320: 2cc7 5cbc b024 553d 82c5 aabc 1a8a 4e3d
00000330: 3e50 683d 0267 643c 1f4b e23c a4b4 dc3c
00000340: 6a56 52bc a50b 46bc bd52 363c dee0 d93c
00000350: 1627 6d3d 311f c23b 9cd8 453d 9999 3d3d
00000360: 9d5b 02bd 136b 273d 45e2 e8bb 857d 5c3d
00000370: 80fe 333d 87d8 5fbd fdf8 aa3b 7cc8 633d
00000380: dc00 b9bc 7f52 a53c a996 073d a6e3 33bc
00000390: b03f 483d 7d59 0cbd 181d 30bc 228b f43c
000003a0: 60ee 5c3c 820a 05bc 8431 923b ce2e c93c
000003b0: f95f 61bd 6130 dabc 4507 2cbd 3fad fe3b
000003c0: 71e1 5dbd 5ce2 803c 78e5 203d aaf8 febc
000003d0: 0450 0b3d 5527 6cbc f427 5c3d 8182 ab3c
000003e0: fba8 de3c c406 fa3c 8ddb 463d 5382 09bc
000003f0: 6fdc c0bc e076 8c3c a235 1e3d d322 693d

fc1.bias f4 [10]
-0.027388433 0.010317005 -0.040344507 -0.029660909 0.0019867057 -0.00935289 0.023610828 -0.044572927
-0.041857507 -0.027205683
00000000: b55d e0bc a808 293c 4840 25bd 6ffb f2bc
00000010: 6433 023b dd3c 19bc 7f6b c13c 1a92 36bd
00000020: c772 2bbd 74de debc
