HW2/hw_alex/hw2_py/results/_14_01_43/lr_0_1_net_1_CE_/model.pth (torch_old, 39192 bytes, 20 tensors)

conv1.weight f4 [8, 1, 3, 3]
0	0x3d4e205f	0.05032384
1	0x3de6027a	0.11230941
2	0xbcc3e6c2	-0.023913745
3	0x3f8cf4c6	1.1012199
4	0x3eb295de	0.34879965
5	0xbe465607	-0.19368754
6	0x3fa9a745	1.3254172
7	0x3f4d1294	0.8010647
8	0xbde1d4a7	-0.11026888
9	0x3c788749	0.015168973
10	0x40ea3428	7.3188667
11	0x40efdc05	7.495608
12	0x3e0cd49c	0.13752979
13	0xbfa95af6	-1.3230884
14	0x40043762	2.0658803
15	0xc11032d0	-9.012405
16	0xc10a4bfc	-8.643551
17	0xc023891c	-2.5552435
18	0x40ab431e	5.351943
19	0xbf65b45e	-0.89728343
20	0xc114c513	-9.298114
21	0xbf76bf00	-0.9638519
22	0x400c7847	2.1948411
23	0x400a74dd	2.1633828
24	0xbe268d18	-0.1626476
25	0x401c93cd	2.446521
26	0x4010db6a	2.263392
27	0xc09be679	-4.871884
28	0xc05b976d	-3.4311173
29	0xbed4f122	-0.4159022
30	0xc0a3ee92	-5.1228724
31	0x3fc5d771	1.5456372
32	0x409aa777	4.8329425
33	0xbfea321e	-1.8296545
34	0x40b2892b	5.579244
35	0x40f043ba	7.5082674
36	0xbf1bcf98	-0.6086364
37	0x3fff968f	1.9967822
38	0x3fe61f07	1.7978219
39	0xbf8f976f	-1.1218089
40	0xbec9899b	-0.39362797
41	0xbeff5476	-0.49869126
42	0xbfae2163	-1.3603939
43	0xbfb76bfd	-1.432983
44	0xc0098c45	-2.1491864
45	0x3e017abc	0.12644476
46	0x40d57a58	6.6711845
47	0x40582e89	3.3778403
48	0xc0b8ef3f	-5.779205
49	0xbf9f53af	-1.2447413
50	0xc0451620	-3.0794754
51	0xc0950768	-4.657154
52	0xc06ca31d	-3.6974556
53	0xc0ab680c	-5.356451
54	0xbf9ff5c1	-1.2496873
55	0xc016c399	-2.3556883
56	0xbfc436d2	-1.532923
57	0xbfd59cfa	-1.668853
58	0xbf858fb7	-1.0434483
59	0x3fe04eeb	1.7524084
60	0xc0367268	-2.8507328
61	0xbf72359c	-0.9461305
62	0x4034e048	2.826189
63	0xbd37099b	-0.044686895
64	0x4061228c	3.5177336
65	0x403a3764	2.9096308
66	0x3f59e7d3	0.8511936
67	0x4087be4b	4.241979
68	0x405cb537	3.4485605
69	0x404e07ea	3.219233
70	0x3e8fb1c1	0.28065303
71	0xc02a8434	-2.664319

conv1.bias f4 [8]
0	0x3e9208fe	0.28522485
1	0x3df3e726	0.119093224
2	0xbe259df3	-0.16173534
3	0x3e505f0e	0.2034876
4	0xbdc508a5	-0.096207894
5	0xbe3b1f27	-0.18273602
6	0xbde1ad39	-0.11019368
7	0xbe858873	-0.26080665

bn_1.weight f4 [8]
0	0xbee9a93e	-0.45636934
1	0x40c7642a	6.230977
2	0x40b6efeb	5.716787
3	0x4123f25b	10.246669
4	0x40283e74	2.6288118
5	0x410e68e6	8.90061
6	0x40a40b2a	5.126363
7	0x40c78539	6.2350125

bn_1.bias f4 [8]
0	0xbed8685c	-0.4226712
1	0x3fe25c02	1.7684329
2	0x3d7c44bf	0.061589
3	0xbef95775	-0.48699537
4	0xbee014c1	-0.43765834
5	0x3ee49810	0.44647264
6	0xbf1992d9	-0.59989697
7	0xbfb2a41b	-1.3956331

bn_1.running_mean f4 [8]
0	0xc006af57	-2.104452
1	0x4050ae05	3.2606213
2	0xc0136617	-2.303106
3	0xc00fb44d	-2.2453797
4	0x4024451e	2.5667186
5	0x411776a8	9.466469
6	0x409ac15d	4.836104
7	0xc134d227	-11.301307

bn_1.running_var f4 [8]
0	0x4088a253	4.269815
1	0x42ceb41d	103.35178
2	0x41aa5d2c	21.295494
3	0x42bd41dd	94.62864
4	0x410dd1d0	8.863724
5	0x42bf266d	95.57505
6	0x41cb8ce9	25.443804
7	0x42acdeff	86.43554

conv2.weight f4 [16, 8, 3, 3]
0	0x3eb5d48d	0.35513726
1	0x3ea2f1ac	0.31825006
2	0x3dd20f17	0.102567844
3	0xbab58d5a	-0.001385133
4	0xbdb05968	-0.08610803
5	0xbdf9e464	-0.12201765
6	0xbeb887bd	-0.3604106
7	0xbe564da0	-0.20928049
8	0xbe1257e0	-0.14291334
9	0xc020f540	-2.5149689
10	0xc0356560	-2.8343124
11	0xc03ad140	-2.9190216
12	0x3efb7136	0.4910981
13	0x402b1ced	2.6736405
14	0x405deba5	3.4675076
15	0xc00f2956	-2.236898
16	0x3e2e0008	0.169922
17	0x3f6c6310	0.9233866
18	0xbe6eb28f	-0.23310302
19	0x3f52776e	0.82213485
20	0xbdd690cf	-0.10476839
21	0xbf8f4bb1	-1.1194974
22	0x3f813236	1.0093448
23	0xbf2a1deb	-0.664519
24	0xbfa985bf	-1.3243941
25	0xc0376feb	-2.866206
26	0xc0815a04	-4.042238
27	0x3fce02ff	1.6094664
28	0x4062fe91	3.5467875
29	0x3facaee3	1.3490871
30	0xc0968eee	-4.7049475
31	0xbfaf57f4	-1.3698716
32	0xbefb6384	-0.49099362
33	0xc0292ac0	-2.6432343
34	0xc03d41f7	-2.9571512
35	0xc05dafc4	-3.463853
36	0xbe9c48c5	-0.3052427
37	0xbecd351e	-0.40079588
38	0xbe5a39a9	-0.21311058
39	0x3d1ccfd8	0.038284153
40	0x3e71bc53	0.23606996
41	0x3f3e2a0a	0.74282897
42	0x3de487c9	0.111587115
43	0x3f288acb	0.6583678
44	0x3f9f7873	1.2458633
45	0xbf2d3e4f	-0.676732
46	0xbfa23c3b	-1.2674631
47	0xbfa542d6	-1.2911022
48	0xbe44633a	-0.19178477
49	0x3f455aa8	0.77091455
50	0x3fad79f7	1.3552846
51	0x3eda27c9	0.4260848
52	0x40242bf0	2.5651817
53	0x40ab1d38	5.3473167
54	0x3f5f9a81	0.8734513
55	0x3fbb65cf	1.4640445
56	0x3f118acf	0.5685243
57	0xbf0d356f	-0.5515966
58	0x3f010991	0.5040522
59	0xbd605496	-0.054768167
60	0xbf34a466	-0.7056335
61	0xbf528e7e	-0.82248676
62	0xbf98d0bf	-1.1938704
63	0xbf34d645	-0.7063945
64	0x3f34e6e8	0.70664835
65	0x3c855682	0.016276602
66	0xbf72f8ff	-0.9491119
67	0x3fd760ec	1.6826453
68	0x3f936e55	1.1518046
69	0xc01d02ed	-2.4533036
70	0xc021f0d5	-2.5303242
71	0xc0652978	-3.580656
72	0xbde0c520	-0.109750986
73	0xbe910a61	-0.2832823
74	0xbe0206bc	-0.12697881
75	0xbe8949ba	-0.2681406
76	0xbdd6fcdc	-0.10497448
77	0x3d90a16a	0.07062037
78	0xbefd05d7	-0.49418518
79	0xbe95e13a	-0.29273397
80	0xbe96fb9e	-0.29488844
81	0xbfedd69b	-1.8581117
82	0xbfbfd926	-1.4988143
83	0xbe89cd8a	-0.26914626
84	0x3fbf8041	1.4961015
85	0x3ff64ba1	1.924183
86	0x40733244	3.799943
87	0x3fb86170	1.4404736
88	0x3f4880df	0.7832164
89	0xbef51819	-0.47869948
90	0x3f960ff9	1.1723624
91	0x3f11bdd2	0.5693027
92	0x40030a10	2.0474892
93	0x3fb873c2	1.4410326
94	0x3eac6b0e	0.33675426
95	0x3ecd79c4	0.40131962
96	0xbf924608	-1.1427622
97	0xbf71f195	-0.9450925
98	0xbfd5c6cd	-1.6701294
99	0x3fa1db38	1.2645025
100	0x3fc4432b	1.5332998
101	0x3f505667	0.8138184
102	0xbfc662d3	-1.5498909
103	0xc0059daf	-2.0877492
104	0xbfe52887	-1.7902993
105	0xbfc82638	-1.5636663
106	0x3eefae3f	0.46812627
107	0xbfde8daf	-1.7386988
108	0xbe1facbc	-0.15593237
109	0xbdec28cd	-0.1153122
110	0xbe2f516a	-0.17120901
111	0xbde63d54	-0.11242166
112	0x3edc4a63	0.43025503
113	0x3e8cd8c4	0.2750913
114	0x3ef1454f	0.4712319
115	0x3e7a23e3	0.24427752
116	0x3db2369e	0.08701824
117	0xbe3f96dc	-0.18709892
118	0x3ea90f70	0.3301959
119	0xbf550e36	-0.8322481
120	0x3dfdf0d7	0.12399452
121	0x3f8918b2	1.0710661
122	0x3fa0f629	1.2575122
123	0x3fd35324	1.6509748
124	0x3fbb052b	1.4610952
125	0x3fd0e921	1.6321145
126	0xbc54e429	-0.012993851
127	0xbe2b5a1c	-0.16733593
128	0xbe9ac647	-0.302294
129	0xbf1607e3	-0.58605784
130	0xbf32a8e9	-0.69788986
131	0xbf1eca23	-0.62027186
132	0xbe2c7ed7	-0.1684526
133	0xbcc64297	-0.024201674
134	0xbf457243	-0.77127475
135	0x3ea9b40f	0.33145186
136	0x3e2be8a4	0.16787964
137	0x3fb72325	1.43076
138	0x3fcadcbf	1.5848616
139	0x3fcb7ac1	1.5896837
140	0x3fff018a	1.9922345
141	0x3f6417e4	0.89098954
142	0x3ed0faa8	0.40816236
143	0xbea43dbf	-0.3207836
144	0xbd11ef99	-0.03562889
145	0x3e6412ee	0.22272846
146	0x3e29b2be	0.16572091
147	0xbdaffddd	-0.085933425
148	0xbd4181f8	-0.04724309
149	0xbe6f6fdd	-0.23382516
150	0xbea9a0e5	-0.33130565
151	0xbe719c7d	-0.23594852
152	0xbeb63f1b	-0.3559502
153	0x3f4662aa	0.774943
154	0xbd95603e	-0.07293747
155	0x3feb72b1	1.8394376
156	0xc057681a	-3.3657289
157	0xbe498433	-0.19679336
158	0x40005eaf	2.005779
159	0xc07f9ee3	-3.9940727
160	0xc0537477	-3.3039834
161	0xc05d7dd8	-3.460806
162	0xbfa8b666	-1.3180664
163	0xbef72c25	-0.48275867
164	0x3eaa84c5	0.3330442
165	0xc032074c	-2.7816954
166	0xbf7e4bec	-0.993346
167	0xc002f93b	-2.0464618
168	0xbf0c1443	-0.54718417
169	0x3e77e8bc	0.24209875
170	0xbec7189a	-0.38885957
171	0xc093694e	-4.6066046
172	0x3f690b38	0.91032743
173	0x3f12fd0b	0.5741736
174	0xc00e05a1	-2.2190936
175	0xc07c0c71	-3.9382594
176	0xc03558b9	-2.8335402
177	0x3f9dfcac	1.2342734
178	0x3f5ff97e	0.8749007
179	0x4009a258	2.1505337
180	0xbdbb4d7d	-0.09145639
181	0xbd79c53c	-0.060979113
182	0xbe308028	-0.17236388
183	0x3e8ea67c	0.27861392
184	0x3f46100d	0.7736824
185	0x3f4bdc09	0.7963262
186	0xbdba7fbd	-0.091063954
187	0x3e11f6a9	0.1425425
188	0x3e8d7906	0.27631396
189	0x3e216d2c	0.15764302
190	0xbf0f1587	-0.55892223
191	0xbf6f35b4	-0.9344132
192	0x3f47e1ca	0.780789
193	0x3fd039bb	1.6267618
194	0x403a9f49	2.915972
195	0xbe45b46d	-0.19307108
196	0x3fa5697f	1.292282
197	0x3fcfc785	1.6232764
198	0xbe17f57e	-0.14839742
199	0x3f7f9266	0.9983276
200	0x3fe5afd6	1.7944286
201	0xbebd4b17	-0.36971352
202	0xbf554291	-0.833047
203	0xbf9c0bdb	-1.2191118
204	0x3f10bd7e	0.5653914
205	0x3f2f2719	0.68419033
206	0x3e0be4fd	0.13661571
207	0xbf58c3b7	-0.8467364
208	0x3f0e3ba0	0.5555973
209	0x402ebf61	2.7304308
210	0xc05c43e5	-3.441644
211	0xbfb8a91a	-1.4426606
212	0x3d4c005d	0.049805034
213	0xbf93e79f	-1.155506
214	0xbfc95439	-1.5728828
215	0xbff5a936	-1.9192264
216	0xbdcf5a64	-0.101246625
217	0x3b108503	0.0022051937
218	0x3e1e2fd0	0.15447927
219	0xbea60c00	-0.3243103
220	0x3d4d6ab2	0.05015058
221	0x3e6f0c01	0.23344423
222	0xbec7ca6e	-0.3902163
223	0xbec01d49	-0.37522343
224	0xbcd637fd	-0.026149744
225	0x3f1894fd	0.5960234
226	0x3ecd3c45	0.40085045
227	0xbdfe0a92	-0.1240436
228	0x3f98dcfa	1.1942437
229	0x40310693	2.7660263
230	0x4037eee8	2.8739567
231	0x3f5da9a0	0.8658695
232	0x3fbcb522	1.4742777
233	0x40101b00	2.251648
234	0x3f0ba105	0.5454257
235	0x3f67b9c1	0.9051781
236	0x3ff16111	1.8857747
237	0xbf480ab6	-0.78141344
238	0x3f2cd017	0.6750502
239	0x3fc18233	1.5117859
240	0xbfc090de	-1.504421
241	0xbe903673	-0.2816654
242	0x3ec5d4f3	0.3863903
243	0xbe84b667	-0.25920412
244	0xbf16ecd8	-0.58955145
245	0xbf325bed	-0.6967152
246	0xbe32cfc0	-0.17462063
247	0xbf934bfd	-1.1507565
248	0xbeefad84	-0.4681207
249	0xbf6181cc	-0.8808868
250	0x3e86f258	0.2635677
251	0x3f5c509d	0.86060506
252	0xbddbbc33	-0.107292555
253	0xbe30add4	-0.1725381
254	0xbe4dc7d3	-0.20095758
255	0xbdccad2c	-0.099939674

conv2.bias f4 [16]
0	0x3d69bd71	0.05706543
1	0x3d5126d6	0.051062427
2	0xbd95ff6a	-0.07324107
3	0xbc9afd2b	-0.018919548
4	0x3dee39aa	0.11632092
5	0xbd947bef	-0.07250201
6	0xbdccce94	-0.10000339
7	0xbbc4e590	-0.0060088113
8	0xbd98790f	-0.07444965
9	0xbde165a3	-0.11005714
10	0x3d9fd294	0.078038365
11	0xbdb9ff5c	-0.09081909
12	0x3d89d8cd	0.067308046
13	0x3cf9d941	0.030499103
14	0xbd8c1fb6	-0.06841986
15	0x3db058d5	0.08610693

bn_2.weight f4 [16]
0	0x40aa077b	5.313413
1	0x40533c88	3.3005695
2	0x410b1779	8.693231
3	0x406bc647	3.683977
4	0x412bdd9e	10.741606
5	0x40c91e55	6.2849526
6	0x40364f46	2.8485885
7	0x4083f7df	4.1240077
8	0x4086ec66	4.216357
9	0x4120e09a	10.054834
10	0x41297d22	10.59305
11	0x3deb23e5	0.11481456
12	0x40e504d3	7.156839
13	0x40af5bf2	5.479974
14	0x402aa118	2.6660824
15	0x403a02e4	2.9064264

bn_2.bias f4 [16]
0	0x3f0cc1c4	0.5498316
1	0xbfc220ca	-1.5166256
2	0xc0472053	-3.111348
3	0xbe691397	-0.22761379
4	0xc0701ed7	-3.7518823
5	0xbfd45ea3	-1.6591381
6	0x3f6e6edb	0.931379
7	0xc0200583	-2.5003364
8	0xc0b03912	-5.5069666
9	0xbfc36243	-1.5264362
10	0xbf381600	-0.7190857
11	0xbe0f5d47	-0.14000426
12	0xbfbd680f	-1.4797381
13	0xc074e6aa	-3.8265786
14	0xc022c25d	-2.543113
15	0xbf3eacfe	-0.74482715

bn_2.running_mean f4 [16]
0	0xc2c9ea7f	-100.958
1	0x428164a5	64.69657
2	0xc3069f16	-134.62143
3	0x429b3f6a	77.623856
4	0xc2c43c35	-98.11759
5	0x410041c2	8.016054
6	0xc1abbd9c	-21.467583
7	0x42bae796	93.45232
8	0xc11c398d	-9.7640505
9	0xc0c68ee4	-6.2049427
10	0xc359affd	-217.68745
11	0xc124b6ee	-10.294661
12	0x431716d9	151.08925
13	0x43049d3c	132.6142
14	0x4162a450	14.165115
15	0x411722f5	9.446034

bn_2.running_var f4 [16]
0	0x471f0bbe	40715.742
1	0x46738d34	15587.301
2	0x470a46db	35398.855
3	0x45e8291e	7429.1396
4	0x47631c33	58140.2
5	0x46a5d0ef	21224.467
6	0x4545b715	3163.4426
7	0x465abbb6	13998.928
8	0x46a63160	21272.688
9	0x474b1652	51990.32
10	0x4749ed8c	51693.547
11	0x42522599	52.536716
12	0x46f009a0	30724.812
13	0x46857067	17080.201
14	0x461832b2	9740.674
15	0x46056edb	8539.714

conv3.weight f4 [32, 16, 3, 3]
0	0xc002677a	-2.0375657
1	0xbf667974	-0.9002907
2	0xbfe175ec	-1.7614112
3	0xbf376008	-0.7163091
4	0xbf57311d	-0.84059316
5	0xbfced1b8	-1.6157751
6	0x3eaddb91	0.33956578
7	0x3fbc6c12	1.472048
8	0x3f902b50	1.1263218
9	0x3e8ffa7e	0.28120798
10	0xbfc1997a	-1.5124962
11	0xbf2428d4	-0.641248
12	0xbf87b0be	-1.0600812
13	0xc03cf969	-2.9527228
14	0xc002d364	-2.0441523
15	0x3fed19f5	1.8523546
16	0x3f5a3f3c	0.8525274
17	0x401b9535	2.4309819
18	0xbf3ee355	-0.7456563
19	0xbfbace1e	-1.4594152
20	0xbf851c6f	-1.0399302
21	0xbf9f2b3f	-1.2435073
22	0xbfe7de56	-1.8114727
23	0xbd786314	-0.060641363
24	0xbfe23e4b	-1.767526
25	0x3fd6f666	1.6793945
26	0x3faa5af6	1.3309009
27	0x3f0adbbb	0.5424153
28	0xbfd728a7	-1.6809281
29	0xbf179ce5	-0.5922378
30	0xbe2b9b78	-0.16758525
31	0xc00219cc	-2.0328245
32	0xc00209c7	-2.0318468
33	0x3fd0c720	1.6310768
34	0x3fdd03b6	1.7266757
35	0x3f9789cd	1.1838928
36	0x4004d43a	2.0754533
37	0xbf84cf24	-1.0375714
38	0xbfd5ddce	-1.6708314
39	0xbeef0286	-0.46681613
40	0xbea464bf	-0.32108113
41	0xc016bd00	-2.3552856
42	0x3ed7b8c3	0.4213315
43	0xbfaf3433	-1.3687805
44	0x3fd19281	1.6372834
45	0x3f259154	0.6467488
46	0xbf1c8b58	-0.6115012
47	0x3fea32ac	1.8296714
48	0xbfc4dcf8	-1.5379934
49	0xbfcdfd5a	-1.6092942
50	0x3fa3f19f	1.2808112
51	0xbfa1b6bd	-1.2633892
52	0xbf466975	-0.77504665
53	0x3ee03a1a	0.43794328
54	0x3e16f3cf	0.14741443
55	0x3f87463c	1.0568309
56	0x3eee1e64	0.4650756
57	0xbf7abf7f	-0.9794845
58	0xbe95de87	-0.29271337
59	0xbeec304a	-0.46130592
60	0xbf9c8ad4	-1.2229867
61	0xbf266da4	-0.6501105
62	0xbe9a7019	-0.3016365
63	0xbf946537	-1.1593388
64	0xc048952f	-3.1341054
65	0xbfabe0f2	-1.3428023
66	0x3f3592ad	0.70926934
67	0xbffb42ba	-1.9629738
68	0xc02ba8f9	-2.6821883
69	0x3ea88872	0.329166
70	0x3f97a9cc	1.1848693
71	0x3e1cb0ce	0.1530182
72	0x3e3cfcaf	0.18455766
73	0x40098384	2.148652
74	0x3f8972ae	1.0738122
75	0x3fb22777	1.3918294
76	0x401f49c3	2.488877
77	0x3ed76ffd	0.42077628
78	0x3fbfe257	1.4990948
79	0xbfd3d1e0	-1.6548424
80	0xbf293227	-0.6609215
81	0x40015241	2.0206454
82	0xbe97ca31	-0.29646447
83	0x40521d18	3.2830257
84	0xc00251b2	-2.0362363
85	0xc03e0df8	-2.9696026
86	0x4069385c	3.644065
87	0xc018dcc8	-2.3884754
88	0xbf8f5d33	-1.1200317
89	0x3e4eb283	0.20185284
90	0xbdcc148f	-0.09964859
91	0x3ec41111	0.3829427
92	0xbf6d89b8	-0.9278827
93	0xc03f36fc	-2.987731
94	0x3f71136c	0.9417026
95	0xc00bc215	-2.1837208
96	0xbfcec666	-1.6154296
97	0x3f55bef4	0.83494496
98	0xbf9d93d1	-1.2310735
99	0xbd2fb03a	-0.042892672
100	0x3db10e58	0.08645314
101	0xbdd1c0ea	-0.102418736
102	0xbd5b2d2c	-0.053509876
103	0xbc8df8c0	-0.017330527
104	0xbd33be6c	-0.043882772
105	0xbc1edaac	-0.00969569
106	0x3bc6245f	0.0060468162
107	0xbd021c08	-0.031765014
108	0xbf4185aa	-0.7559458
109	0xc0bb2178	-5.8478355
110	0xc03d46f2	-2.9574552
111	0x3ed30077	0.41211292
112	0xc076bc90	-3.855259
113	0xc00b6242	-2.1778722
114	0x3fef8e8a	1.8715374
115	0x40c5dfc1	6.1835637
116	0x401a5b93	2.4118392
117	0x3e606e54	0.21917087
118	0xbf162891	-0.5865565
119	0x3f0d4c76	0.55194795
120	0xbd8b5837	-0.06803935
121	0xc05b64e4	-3.4280329
122	0xbfc63a3f	-1.5486525
123	0x3d51e0e9	0.05123988
124	0xbedbafcb	-0.42907557
125	0x3f3f9159	0.7483116
126	0x3edf65b9	0.43632296
127	0xbff68efe	-1.9262388
128	0xbfb1f893	-1.3903984
129	0xbf5c3af4	-0.86027455
130	0xbf9880c5	-1.1914297
131	0xbfa86101	-1.3154603
132	0x3fcdcec3	1.6078724
133	0x3f164cd3	0.58710974
134	0x403cf511	2.9524577
135	0x3ea4d71e	0.3219537
136	0x3f17b451	0.59259516
137	0x3f711f68	0.9418855
138	0x3f2c31c8	0.6726346
139	0xbeb863e0	-0.360137
140	0x3f39bd21	0.7255421
141	0xbda6a194	-0.08136287
142	0xbf6225e9	-0.88339096
143	0x3feb97ff	1.840576
144	0xbf898a8b	-1.0745405
145	0xbfb3f700	-1.4059753
146	0xbe93ce90	-0.28868532
147	0xbfe48e56	-1.7855937
148	0xc0175399	-2.3644774
149	0x3fcbe987	1.5930642
150	0xbe9f16e5	-0.31072155
151	0x3f4acd16	0.79219186
152	0x3f85999c	1.0437503
153	0x3d9c50d3	0.076326035
154	0xbf842d2c	-1.0326285
155	0xbe7ef2ba	-0.2489728
156	0xbf52e074	-0.8237374
157	0x3da7a667	0.081860356
158	0x3ff3b338	1.9039068
159	0xbf6d77db	-0.9276101
160	0xbebdd9d7	-0.3708026
161	0x3f91a6f2	1.1379073
162	0x3e1fd9d4	0.15610439
163	0x3f78458a	0.9698111
164	0xbca6607e	-0.020309683
165	0xbfd63630	-1.6735287
166	0xc0455380	-3.0832214
167	0x3f660f49	0.89867073
168	0xbe54dca2	-0.2078729
169	0xbd499df8	-0.049222916
170	0xbfbfbd1b	-1.4979585
171	0x3ea323d1	0.31863263
172	0xbcc6b8e2	-0.02425808
173	0xbcc7a355	-0.024369875
174	0xbe541b10	-0.20713449
175	0xbf5aaae4	-0.8541701
176	0x3f2531e2	0.6452924
177	0x3ed54ea2	0.41661555
178	0x3f0ccac2	0.54996884
179	0xbdd765e3	-0.1051748
180	0x3dbd62b5	0.092473425
181	0xbffac3aa	-1.9590962
182	0x3f7fd8eb	0.99940366
183	0xbdaf0c17	-0.08547228
184	0xbfd7875e	-1.6838186
185	0x403dfaf2	2.9684415
186	0xc046b3ef	-3.1047323
187	0xc004514e	-2.0674624
188	0x3f260d71	0.6486426
189	0x3f4bd63a	0.7962376
190	0x3f8d7ed9	1.1054336
191	0x3f259b42	0.6469003
192	0xbfa52111	-1.2900716
193	0xbffde91e	-1.9836767
194	0xbdbb8bb7	-0.09157508
195	0xbfa344f3	-1.2755417
196	0xbfbec288	-1.4903116
197	0xbf9e9517	-1.2389249
198	0x3e344744	0.1760531
199	0xbe44acaa	-0.19206491
200	0xbf0caa25	-0.5494712
201	0x3e295ede	0.16540095
202	0xbeab6292	-0.3347364
203	0x3e683d2b	0.22679584
204	0xbf64aa00	-0.893219
205	0xbe5c6ef1	-0.21526696
206	0xbde148f8	-0.11000246
207	0x3f54c23f	0.83108896
208	0x3f9842cb	1.1895384
209	0x3fb624ef	1.4230021
210	0xbe9366b9	-0.2878931
211	0xbead6fa8	-0.3387425
212	0x3fcbfb8b	1.593614
213	0xbef3f550	-0.47648096
214	0x3cc9d45c	0.024637394
215	0xbe9d2baf	-0.3069739
216	0x3f1675b0	0.58773327
217	0xbe5a69c1	-0.21329404
218	0xbe994898	-0.29938197
219	0x3f29484b	0.66125935
220	0x404d442d	3.2072861
221	0x3fa2a8ab	1.2707723
222	0x3f5b49a1	0.85659224
223	0x3fa1e8d1	1.2649175
224	0xbf7964b1	-0.9741927
225	0xbfb4bfb6	-1.4121006
226	0xbf9b4a62	-1.2132075
227	0xbeaccc47	-0.337496
228	0x3f8608bb	1.0471414
229	0x3fae6a94	1.3626275
230	0xbf5eae1f	-0.8698444
231	0xc057ab1a	-3.3698182
232	0xc0506781	-3.2563174
233	0xbfc718e5	-1.5554472
234	0x3f73b9b5	0.9520524
235	0xc00994f9	-2.1497176
236	0xbf4320b5	-0.7622178
237	0xc02d00a8	-2.703165
238	0xc0426183	-3.0372016
239	0x3f9cce11	1.2250386
240	0x3f8e8bca	1.113641
241	0xbf8995df	-1.0748862
242	0xbf4418f2	-0.76600564
243	0xbdd5e2b0	-0.10443628
244	0xbdb1c784	-0.08680633
245	0x39235cb0	0.0001557942
246	0x3d5b4aba	0.05353806
247	0x3c975d4a	0.0184771
248	0x3d3b5971	0.045739595
249	0xbbbd93e2	-0.0057854513
250	0x3cccaca1	0.02498466
251	0x3cfbeecf	0.030753521
252	0xbe8e0699	-0.2773941
253	0x3f1f14e6	0.62141263
254	0x406dd189	3.715914
255	0xc0279ef9	-2.619078

conv3.bias f4 [32]
0	0xbc43b373	-0.0119446395
1	0xbc2b77e8	-0.0104656
2	0x3da5a0f8	0.08087343
3	0xbd10c9e0	-0.035348773
4	0x3cf0cfc1	0.02939594
5	0x3d623f06	0.055235885
6	0xbd53299b	-0.05155335
7	0x3ccbc4a8	0.024874046
8	0xbd274fbd	-0.04084753
9	0xb9ffc20b	-0.00048781963
10	0xbd42dddb	-0.04757486
11	0xbb64d87f	-0.003491908
12	0x3c552b19	0.013010764
13	0x3cfd3152	0.030907307
14	0xbd9aa587	-0.07551103
15	0x3d42f408	0.047596008
16	0x3d965ae9	0.073415585
17	0xbd032878	-0.032021016
18	0xbba79f7f	-0.005115449
19	0x3c36c745	0.011155908
20	0x3d606af2	0.05478949
21	0x3c0978ea	0.008390645
22	0xbd367df0	-0.044553697
23	0xbcd240ac	-0.025665604
24	0x3d9f8f32	0.07790984
25	0x3c8b1742	0.016978864
26	0xbc06d9b1	-0.008230613
27	0x3d36d50d	0.044636775
28	0xbcd368e8	-0.02580686
29	0xbd3b697d	-0.0457549
30	0x3c4af706	0.012387997
31	0xbc7e71c6	-0.015530055

bn_3.weight f4 [32]
0	0x415a46c6	13.642279
1	0x40e1fac5	7.0618615
2	0x40aa9c69	5.331593
3	0x408074b5	4.0142465
4	0x409f8087	4.9844394
5	0x40e826b5	7.254725
6	0x410fb9e7	8.982886
7	0x4048caa3	3.137368
8	0x40cff01a	6.4980593
9	0x405e6d93	3.4754379
10	0x4108b190	8.54335
11	0x3e9b865a	0.3037594
12	0x3d05c4ac	0.032658264
13	0x40b2ba0a	5.58521
14	0x405d7b70	3.460659
15	0x40fc77a3	7.889604
16	0x4058deff	3.3886106
17	0x40b6c7b8	5.7118797
18	0x3f025785	0.50914794
19	0x410ed4b5	8.92693
20	0x409de67e	4.9343863
21	0x40d0ade8	6.521229
22	0x401c84cb	2.445605
23	0x40e69056	7.205119
24	0x4131e28f	11.117812
25	0x402b857b	2.680022
26	0x40da01da	6.812726
27	0x4013a1f6	2.3067603
28	0x3e28c7b4	0.1648243
29	0x40e0fe3b	7.031034
30	0x40df840e	6.98487
31	0x40950776	4.6571608

bn_3.bias f4 [32]
0	0xc0a9f329	-5.3109326
1	0xbfcef530	-1.6168575
2	0xc03c9109	-2.9463522
3	0xbfdb7d6f	-1.7147654
4	0xbfb46dfb	-1.4096063
5	0xc029aa44	-2.6510172
6	0xbfbba799	-1.4660522
7	0xc0263093	-2.5967147
8	0xc036f7f8	-2.8588848
9	0xbfd23e6d	-1.6425301
10	0xc0b66e1f	-5.7009425
11	0xbfb94a44	-1.4475789
12	0xbe278b82	-0.16361812
13	0xbfed079a	-1.8517945
14	0xbfdd0e72	-1.7270033
15	0xc060cbdf	-3.5124433
16	0xbf8dc84b	-1.107675
17	0xc0224f95	-2.5361073
18	0xbda9fe3b	-0.08300444
19	0xbffd16cf	-1.9772586
20	0xc03df0f7	-2.9678323
21	0xbde7324b	-0.112888895
22	0xbf85e5ed	-1.0460793
23	0x3fc23aff	1.5174254
24	0xc0e1132c	-7.0335903
25	0xbeb94d4f	-0.36191794
26	0xc0188c2b	-2.3835552
27	0xbfceb7e8	-1.6149874
28	0xbf1e8fa2	-0.61937916
29	0xbef8f07f	-0.48620984
30	0xc070d6d3	-3.7631118
31	0xbf35574b	-0.70836323

bn_3.running_mean f4 [32]
0	0xc32ab55a	-170.7084
1	0xc2b9c6bd	-92.88816
2	0x43321973	178.09941
3	0x4305a087	133.62706
4	0xc1b0aba7	-22.083815
5	0xc283e7cf	-65.95275
6	0xc3655b3e	-229.35641
7	0x41267ca1	10.405427
8	0xc19c5e6c	-19.546104
9	0xc2987142	-76.22121
10	0x42e1c2bc	112.88034
11	0xc231f1b2	-44.48603
12	0x3fa3641d	1.2764927
13	0xc1c5ea7f	-24.7395
14	0xc2159bfa	-37.40232
15	0x42298a9c	42.38536
16	0xc29a7f96	-77.24919
17	0xc22b7046	-42.859642
18	0xc0df76ef	-6.9832683
19	0x422df81a	43.492287
20	0x42a468e0	82.204834
21	0xc2d453b6	-106.1635
22	0xc2371fc7	-45.781033
23	0xc307fc69	-135.98598
24	0x41b328fb	22.39501
25	0x419ab5a8	19.3387
26	0x4396006a	300.00323
27	0x408318de	4.0967855
28	0x40ba9d82	5.831727
29	0x42c32c3a	97.58638
30	0x432f2c7c	175.17377
31	0xc15d03a3	-13.813388

bn_3.running_var f4 [32]
0	0x4710dcf1	37084.94
1	0x463b4475	11985.114
2	0x4619effe	9851.998
3	0x45bf3f64	6119.924
4	0x46558c64	13667.098
5	0x46523b45	13454.817
6	0x46d85d65	27694.697
7	0x45713257	3859.1462
8	0x462c5461	11029.095
9	0x453cba29	3019.635
10	0x467fe000	16376.0
11	0x43808deb	257.10873
12	0x4168e827	14.556678
13	0x4622250a	10377.26
14	0x4581fc71	4159.555
15	0x468ae981	17780.752
16	0x453ecb70	3052.7148
17	0x46222887	10378.132
18	0x42d4dd55	106.43229
19	0x468d315e	18072.684
20	0x4614c548	9521.32
21	0x46659e58	14695.586
22	0x44c1cf7a	1550.4836
23	0x4686ef78	17271.734
24	0x46d4a4a6	27218.324
25	0x450e8857	2280.5212
26	0x4664cec5	14643.692
27	0x44dbc974	1758.2954
28	0x4333f893	179.971
29	0x469bd790	19947.781
30	0x469420c2	18960.379
31	0x45b14431	5672.524

fc1.weight f4 [10, 288]
0	0xbfc6eb39	-1.5540534
1	0xbf34affd	-0.70581037
2	0xbf5a37a3	-0.85241145
3	0xbfd95f71	-1.6982251
4	0xbfa6882f	-1.301031
5	0xbfcd2e8c	-1.602983
6	0x40266415	2.5998585
7	0x40e76abb	7.2317786
8	0x3f332ed7	0.69993347
9	0x3f945a43	1.1590046
10	0x3f654641	0.89560324
11	0xbf23c7d4	-0.6397679
12	0x3f48b58c	0.7840202
13	0x3e4fc080	0.20288277
14	0x3e5c9daf	0.21544527
15	0xbd6c4500	-0.05768299
16	0x3f2997d2	0.66247284
17	0x3fcc99c0	1.5984421
18	0xbf7b2fd5	-0.9811986
19	0xbed37afb	-0.41304764
20	0xbd10998a	-0.035302676
21	0xc028b980	-2.636322
22	0x3f1a6705	0.60313445
23	0x4012165a	2.2826142
24	0xc01f3093	-2.4873397
25	0xbf8605f9	-1.0470573
26	0x3da2518a	0.079257086
27	0xbf2e5143	-0.68092746
28	0xbf29c3b9	-0.66314274
29	0xbe52a082	-0.20569041
30	0xbf7d0081	-0.98828894
31	0xbf283f67	-0.65721744
32	0xbf2341d8	-0.63772345
33	0xbd5a95f6	-0.05336567
34	0xbfc7a4e0	-1.5597191
35	0x3f24a822	0.6431905
36	0xbdf5a484	-0.119942695
37	0x3f8d2543	1.1026996
38	0x3f04be30	0.51852703
39	0x3f469f2b	0.7758662
40	0xbf76070f	-0.9610452
41	0xbf96fca1	-1.1795846
42	0xbf94a8fd	-1.1614071
43	0xbfabe887	-1.3430337
44	0x406be3e5	3.6857846
45	0x3f3fc480	0.7490921
46	0xbf05822c	-0.5215175
47	0xbf29e4ba	-0.66364634
48	0xbf9212f0	-1.1412029
49	0xbead036f	-0.33791682
50	0x3ff00716	1.8752162
51	0xbf3a896e	-0.7286595
52	0xbf421418	-0.7581191
53	0xbf77ee57	-0.9684805
54	0x40091842	2.1421056
55	0xbf5e009c	-0.8671968
56	0xc010509f	-2.2549207
57	0x3f55776b	0.8338534
58	0x3fac6018	1.3466825
59	0x3f40cae8	0.7530961
60	0xbf57e096	-0.84327066
61	0x40594a53	3.3951614
62	0x3fcc826a	1.5977299
63	0xbe14ef6f	-0.14544462
64	0x3f1cff07	0.6132664
65	0x3ee7939d	0.45229807
66	0xbe7cc052	-0.2468274
67	0xbf084670	-0.5323248
68	0xbee498f9	-0.4464796
69	0xbd3f7cda	-0.046749927
70	0x3ed12a0c	0.40852392
71	0x3f8194f0	1.0123577
72	0xbf194b1e	-0.59880245
73	0xbf5de20e	-0.8667306
74	0xbd52b39e	-0.051440828
75	0xbf21da45	-0.6322368
76	0xbe6e2d0a	-0.23259369
77	0xbf17d5d9	-0.5931068
78	0x3f329a31	0.6976653
79	0xbf7d554c	-0.9895828
80	0xbfbe25d2	-1.4855292
81	0xbf5f062c	-0.8711879
82	0xbef3c855	-0.4761378
83	0x3e8c8f6d	0.27453175
84	0xbeec4b5e	-0.4615125
85	0xbe71946c	-0.23591775
86	0xbf0dfb1f	-0.55461305
87	0xbec36fbe	-0.3817119
88	0xbef1b496	-0.4720809
89	0x3f452f48	0.7702527
90	0x3cd474e2	0.02593464
91	0xbe106cc9	-0.14103998
92	0x3e1cc3a5	0.15309007
93	0x3f4b9e56	0.79538476
94	0x3ff98a00	1.9495239
95	0xc04ad540	-3.1692657
96	0x3fceb878	1.6150045
97	0x3f5e1164	0.86745286
98	0xc019c517	-2.4026544
99	0xbd950996	-0.07277219
100	0x3e41e3ec	0.18934602
101	0xb9d8122f	-0.00041212278
102	0x3dfea612	0.12434019
103	0x3f0716f7	0.52769417
104	0x3ec9dd22	0.39426523
105	0xbe5e11eb	-0.21686523
106	0x3e0e7535	0.13911898
107	0x3ba4f66d	0.005034259
108	0xbd3e8af3	-0.04651923
109	0xbddaa055	-0.10675112
110	0xbd9eefcb	-0.07760581
111	0x3d234f1e	0.039870374
112	0xbd97d1c5	-0.07413057
113	0x3d3a39fc	0.045465454
114	0xbd957462	-0.07297589
115	0xbd5fe354	-0.054660156
116	0x3c9a380a	0.01882555
117	0xbf07f3be	-0.53106296
118	0xbee5601d	-0.4479989
119	0x3f0267ac	0.5093944
120	0xbf8da653	-1.1066383
121	0x3f1f40b6	0.62208116
122	0x3ed2b0c2	0.4115048
123	0xbf3bea38	-0.73404264
124	0xbf0e0e79	-0.55490834
125	0x3c9874d2	0.018610392
126	0xbf6dfbab	-0.9296214
127	0x3e906c54	0.28207648
128	0x3f13d89c	0.57752395
129	0xbf57d8d5	-0.84315234
130	0xbf79b03d	-0.97534543
131	0xbec92158	-0.39283252
132	0xbf30fad8	-0.6913276
133	0x3f7f8de8	0.99825907
134	0x3f736180	0.9507065
135	0x3f64e350	0.8940935
136	0x3ff3665d	1.9015614
137	0xbf8118a3	-1.0085644
138	0x3f763320	0.9617176
139	0xbe3b647d	-0.18300052
140	0xbeebf32d	-0.46083966
141	0xbe9524b9	-0.2912958
142	0x3f030607	0.5118107
143	0x40001fb7	2.0019357
144	0x3f5b46fa	0.85655177
145	0x3f83f71e	1.0309789
146	0xbe38ea62	-0.1805816
147	0x3fc482c1	1.5352403
148	0x3fbc9c0a	1.4735119
149	0xbf82e19c	-1.02251
150	0x3eb50297	0.35353538
151	0xbcd2b230	-0.025719732
152	0xbb6e08f0	-0.0036321245
153	0x3facfaed	1.3514076
154	0x3f8d1592	1.1022208
155	0xbf7baef2	-0.9831382
156	0xbea97e7d	-0.33104315
157	0xbde6d32d	-0.11270747
158	0xbf8f9dca	-1.1220028
159	0xbf88d477	-1.0689839
160	0xbf483092	-0.7819911
161	0x3e7f851d	0.24953122
162	0x3ce7c6b2	0.028292987
163	0xbd92a6eb	-0.07160743
164	0x3c7c06d1	0.0153824845
165	0x3e84a571	0.25907472
166	0xbe196193	-0.14978628
167	0xbe6951cb	-0.22785108
168	0x3d13bb8e	0.036067538
169	0xbe26f5f6	-0.16304764
170	0xbd890156	-0.06689708
171	0xbe09ad20	-0.13444948
172	0xbfeafa4d	-1.8357636
173	0x3e8ccbd6	0.27499264
174	0xbeb06233	-0.3444992
175	0xbfc0d9c7	-1.506646
176	0x3fb3a987	1.4036111
177	0x403e6b5c	2.9753027
178	0x404a9be3	3.1657646
179	0x3f8fd1d2	1.1235907
180	0xbd94ec23	-0.07271602
181	0xba2a7102	-0.0006501825
182	0xbe2758be	-0.16342446
183	0xbf6d12cc	-0.92606807
184	0x3f8fb530	1.1227169
185	0x3ca6e4d6	0.02037279
186	0x3e07f4e8	0.13277018
187	0x3ed14383	0.4087182
188	0xbf0875d6	-0.53304803
189	0x3ecd1a32	0.40059048
190	0x3f2f981e	0.6859149
191	0x3f14ad9f	0.58077425
192	0x40150460	2.328392
193	0x4005f6f4	2.0931978
194	0xbf9f8ef3	-1.24655
195	0x403939d8	2.8941555
196	0x3f3f859c	0.74813247
197	0xbf436e54	-0.7634022
198	0xbdb7dd75	-0.089777865
199	0xbed0863d	-0.40727416
200	0x3ded45c3	0.115855716
201	0x3e771f97	0.24133144
202	0x3f05fb61	0.523367
203	0xbf1dbfc9	-0.61620766
204	0x3e298072	0.16552904
205	0x3f1d0cea	0.6134783
206	0xbf24299a	-0.6412598
207	0x4020c58b	2.512057
208	0x3e24393d	0.1603746
209	0xbfaa0db4	-1.3285432
210	0x3f70d8c2	0.94080746
211	0xbf457599	-0.77132565
212	0x4043c6d6	3.059011
213	0xbdea3b23	-0.11437061
214	0xbf531172	-0.82448494
215	0x3f8b38f9	1.0876762
216	0xbe2442c9	-0.16041102
217	0x3fc99713	1.5749229
218	0x3f6607fb	0.8985593
219	0xbf84c5d5	-1.0372874
220	0xbfec5149	-1.8462306
221	0xbf5e33bd	-0.86797696
222	0xbe9ff08a	-0.31238204
223	0x4093b2e4	4.615587
224	0x3f76ca2b	0.96402234
225	0xbe88a4b8	-0.2668817
226	0xbea4c2b8	-0.3217981
227	0xbea162a8	-0.3152058
228	0xbf02874f	-0.50987715
229	0xbf23cc60	-0.63983727
230	0x3eb7dadf	0.35909173
231	0x3f7701cb	0.9648711
232	0x3f305dc5	0.6889308
233	0x3e74f1de	0.2392039
234	0xbec8cdae	-0.3921942
235	0xc038d63b	-2.8880756
236	0xbfca7d1f	-1.5819434
237	0xc01b1db9	-2.4236891
238	0xbff597cc	-1.918695
239	0x3f3528e7	0.7076554
240	0xbfffa04c	-1.9970794
241	0xbf142a85	-0.5787738
242	0x3f8c8fc1	1.098137
243	0x3e9b79eb	0.30366454
244	0x3ea879e6	0.329055
245	0xbefd33eb	-0.49453673
246	0xbf0bef29	-0.54661804
247	0xbedae2aa	-0.42751056
248	0xbe8933ed	-0.2679743
249	0x3d9a3d69	0.07531244
250	0x3e0b3adc	0.13596672
251	0x3f1fb823	0.62390345
252	0x3e0d5b00	0.13804245
253	0xbc95125c	-0.018197231
254	0xbd991614	-0.07474914
255	0xbe2d29d4	-0.16910487

fc1.bias f4 [10]
0	0xbe91eba5	-0.28500095
1	0xbf12def1	-0.5737143
2	0xbf011cc1	-0.504345
3	0xbd2d4f47	-0.042311933
4	0x3d574633	0.05255718
5	0xbf63b62f	-0.88949865
6	0xbca15678	-0.019694552
7	0x3e034992	0.12821034
8	0x3fdf43a4	1.7442517
9	0x3e8eba89	0.2787669
