HW2/hw_alex/hw2_py/results/_14_11_31/lr_0_01_net_2_CE_/model.pth (torch_old, 7893 bytes, 20 tensors)

conv1.weight f4 [2, 1, 3, 3]
0	0x3f981eb9	1.1884376
1	0xbf96650c	-1.1749587
2	0xbe8ac571	-0.2710376
3	0x3fe8b5f9	1.8180534
4	0xbf88352d	-1.0641228
5	0xbfd9e960	-1.7024345
6	0x3f12a021	0.5727559
7	0x4006df1c	2.1073675
8	0x3f961abf	1.1726912
9	0x3f666389	0.8999563
10	0x3d5e36e3	0.054251563
11	0x3e4d485b	0.20047133
12	0x3f058acf	0.5216493
13	0x3fba99d7	1.4578198
14	0x3f563f99	0.8369079
15	0x3f910943	1.1330951
16	0x3fc98e61	1.5746576
17	0x3f936e9f	1.1518134

conv1.bias f4 [2]
0	0x3d99b3bd	0.075049855
1	0xbe29456c	-0.16530389

bn_1.weight f4 [2]
0	0x3fddde5c	1.7333484
1	0x3fe3265b	1.774608

bn_1.bias f4 [2]
0	0xbfff74b5	-1.9957491
1	0x3f9bad08	1.216218

bn_1.running_mean f4 [2]
0	0xbfb54010	-1.4160175
1	0xc0b55c11	-5.6674886

bn_1.running_var f4 [2]
0	0x4074267b	3.8148487
1	0x4194e5f5	18.612284

conv2.weight f4 [4, 2, 3, 3]
0	0xbec56cc0	-0.38559532
1	0x3f24f682	0.6443864
2	0x3f58f2a3	0.84745234
3	0xbf1379ad	-0.5760754
4	0x3e9563ce	0.29177707
5	0x401dcfc5	2.4658062
6	0xbef53d61	-0.4789839
7	0xbf8aa672	-1.0832045
8	0x3f780627	0.9688439
9	0x3e34c50c	0.17653292
10	0x3ea40541	0.32035258
11	0x3f248d98	0.64278555
12	0xbe80da4c	-0.25166547
13	0x3e64985d	0.22323747
14	0x3f8163d6	1.0108593
15	0xbee53312	-0.44765526
16	0xbfcfc9dd	-1.6233479
17	0x3f815e3d	1.0106884
18	0x3f55b08b	0.8347251
19	0x3eaebcaf	0.3412833
20	0xbe47cd6f	-0.1951196
21	0x3fab26ff	1.3371276
22	0x3e352834	0.17691118
23	0x3e8a7275	0.2704045
24	0xbf8640dc	-1.0488544
25	0xbe60ed56	-0.21965536
26	0xbe4e49ed	-0.20145388
27	0xbf93d55b	-1.1549486
28	0xbf44dfaa	-0.76903784
29	0x3f18f008	0.5974126
30	0x3feb7324	1.8394513
31	0x401e447e	2.4729304
32	0x3f808f18	1.0043669
33	0xbfcb9eb7	-1.5907811
34	0xc00311fc	-2.0479727
35	0xbf0e8a65	-0.55679923
36	0xbf3671e8	-0.7126756
37	0xbf086757	-0.53282684
38	0xbe841bfb	-0.25802597
39	0x3f1f9e32	0.6235076
40	0x3fc41c66	1.5321167
41	0x3ed5ee32	0.4178329
42	0xbd908fc5	-0.07058672
43	0xbe5ce7ce	-0.21572801
44	0x3e342c64	0.17595059
45	0xc03380d8	-2.804739
46	0xbf373677	-0.7156748
47	0x3fbf188a	1.4929364
48	0xbdf6c586	-0.12049393
49	0xbfd74103	-1.6816715
50	0xc0055181	-2.0830996
51	0x3f61c8df	0.8819713
52	0x3f7b25f7	0.98104805
53	0x3eda3844	0.42621052
54	0x3e072070	0.13195968
55	0xbeca46c1	-0.39507106
56	0xbdbe5d76	-0.0929517
57	0xbd9a2d13	-0.075281285
58	0xbeba7d0a	-0.36423522
59	0xbe7bf277	-0.24604212
60	0xbeb7e751	-0.35918668
61	0xbe7240ca	-0.23657528
62	0x3c35f431	0.011105583
63	0x3f1089cd	0.5646027
64	0xbf6c2543	-0.92244357
65	0x3e3d6be2	0.18498185
66	0xc008cdba	-2.1375566
67	0x3e240a36	0.1601952
68	0x40003d23	2.0037315
69	0xbfe465ee	-1.7843606
70	0x3fb965df	1.4484214
71	0x3f443b05	0.76652557

conv2.bias f4 [4]
0	0x3d11d23f	0.035600897
1	0x3e11d25e	0.14240405
2	0x3e146d79	0.14494886
3	0x3e3fe168	0.1873833

bn_2.weight f4 [4]
0	0x3fed5717	1.8542203
1	0x3feebeea	1.8652012
2	0x402d3d4b	2.706866
3	0x40021d94	2.0330553

bn_2.bias f4 [4]
0	0xbeb6303a	-0.3558367
1	0x3db45e22	0.08807017
2	0xbf8db54d	-1.1070954
3	0x3d8841f6	0.06653206

bn_2.running_mean f4 [4]
0	0x406ced08	3.7019672
1	0x3f2c9ff7	0.67431587
2	0xc0d2bec4	-6.585787
3	0x3d039e00	0.032133102

bn_2.running_var f4 [4]
0	0x42915bc6	72.679245
1	0x42550292	53.25251
2	0x42b4f275	90.47355
3	0x42a733ba	83.60103

conv3.weight f4 [8, 4, 3, 3]
0	0x3ec0332c	0.3753904
1	0x3f74f4a1	0.95685774
2	0x3ead4087	0.33838293
3	0x3e9e6c77	0.30942127
4	0x3ec5a918	0.3860557
5	0xbf327d23	-0.69722193
6	0x3f5284b2	0.82233727
7	0x3fd805a8	1.6876726
8	0x3f8e1963	1.1101497
9	0xbf298369	-0.6621614
10	0xbf753c31	-0.9579497
11	0x3e0e98d2	0.13925484
12	0x3eb38095	0.35059038
13	0xbee00924	-0.43756974
14	0xbf23ffcc	-0.6406219
15	0x3e233d4f	0.15941356
16	0xbe802e84	-0.2503549
17	0x3f23c5f3	0.6397392
18	0x3e7eda0b	0.24887864
19	0xbe9a5fe5	-0.30151287
20	0xbe4da8a0	-0.20083857
21	0x3ec6af4a	0.3880561
22	0xbf162bf5	-0.58660823
23	0xbf85947d	-1.043594
24	0x3e26f7e8	0.16305506
25	0xbf08f584	-0.5349963
26	0x3f065490	0.5247278
27	0xbdc5d569	-0.096598454
28	0x3f7fbb0c	0.99894786
29	0x3e9f3213	0.3109289
30	0xbedd7f6e	-0.43261284
31	0x3f3ed7b8	0.7454791
32	0xbf6d30c0	-0.9265251
33	0xbea9ef84	-0.33190548
34	0x3db63616	0.08897035
35	0xbf2769fe	-0.65396106
36	0x3e872218	0.263932
37	0x3fb75bf1	1.4324933
38	0x3f51beb8	0.8193164
39	0xbe06d594	-0.13167411
40	0x3e819d5c	0.25315368
41	0xbebfa35d	-0.37429324
42	0xbf4a46e3	-0.79014415
43	0xbed59726	-0.4171688
44	0xbe32f81f	-0.17477463
45	0x3ee7b44c	0.45254743
46	0x3f159d46	0.58443105
47	0xbfbded4c	-1.4838042
48	0x3fa396cf	1.2780398
49	0x3f26b856	0.65125024
50	0xbfc4672e	-1.5343988
51	0xbe173ea3	-0.14769988
52	0x3f3fcaed	0.74919015
53	0xbf9b9ab7	-1.215659
54	0x3ebf9571	0.37418702
55	0x3e057e56	0.13036475
56	0x3f527ff3	0.82226485
57	0x3f984511	1.1896077
58	0x3e75f21e	0.24018142
59	0xbf5cd244	-0.8625834
60	0x3f3ca20e	0.73684776
61	0xbe9c1116	-0.30481786
62	0xbf4e3fb2	-0.8056594
63	0x3f1327de	0.5748271
64	0xbeb4ea6b	-0.35335097
65	0xbf983d96	-1.1893795
66	0xbed7ed98	-0.42173457
67	0x3eb809f1	0.35945085
68	0xbe10ca28	-0.14139616
69	0x3fb1b8a7	1.3884476
70	0x3e92b414	0.28653014
71	0x3dd6a165	0.10480002
72	0x3d93f14a	0.072237566
73	0x3e1431b2	0.14472082
74	0x3c98d0d5	0.018654266
75	0xbd091bcb	-0.03347377
76	0xbd8cc8ff	-0.068742745
77	0xbdb32c1b	-0.08748647
78	0x3df07636	0.11741297
79	0xbd6a1e06	-0.05715754
80	0xbdd69ae6	-0.10478763
81	0xbd7d0228	-0.061769634
82	0x3dc18ea9	0.094510384
83	0x3e0da9f1	0.13834359
84	0x3d85c09f	0.0653088
85	0xbd016cb9	-0.031597827
86	0xbdbde521	-0.092722185
87	0x3d8f6696	0.070019886
88	0x3d8592ef	0.06522166
89	0x3d50d959	0.05098853
90	0xbddcdaf0	-0.107839465
91	0x3e0b0920	0.135777
92	0xbe0086db	-0.12551443
93	0xbdc14f0e	-0.094389066
94	0xbcd7e25c	-0.026353054
95	0xbd83f021	-0.06442285
96	0x3d615136	0.05500909
97	0xbb9e52ce	-0.0048316484
98	0x3e104563	0.14088969
99	0xbd07eeed	-0.03318684
100	0x3d2480c9	0.04016188
101	0xbbeb1ef6	-0.0071753217
102	0x3dc41276	0.09573834
103	0xbd88c45e	-0.06678079
104	0x3dd803bf	0.105475895
105	0xbd804275	-0.06262676
106	0xbe13be43	-0.14428048
107	0xbd83af1e	-0.06429885
108	0xbe4998b6	-0.19687161
109	0xbf1cf383	-0.6130907
110	0xbee43749	-0.4457343
111	0xbe8bc2e4	-0.27297127
112	0xbea8743b	-0.32901177
113	0xbdf284bb	-0.118417226
114	0xbece82bc	-0.40334117
115	0xbc859d42	-0.016310338
116	0x3e1a5d18	0.15074575
117	0x3ec96b12	0.393395
118	0x3f1818cd	0.59412843
119	0xbe10c092	-0.1413596
120	0xbe8afb3c	-0.27144802
121	0x3edc63cd	0.43044892
122	0x3e370310	0.17872262
123	0xbe992987	-0.29914495
124	0x3c420822	0.011842759
125	0x3ec188ec	0.37799776
126	0x3e86ddf4	0.26341212
127	0x3e7e07d1	0.24807669
128	0xbeb51510	-0.35367632
129	0x3fbbd352	1.4673865
130	0x3fe9e62e	1.827337
131	0x3f1d2471	0.6138373
132	0x3eacec3e	0.33773988
133	0x3f2328a8	0.6373391
134	0x3f38f438	0.7224765
135	0xbea8d54d	-0.32975236
136	0x3f46f5b1	0.77718645
137	0xbe34387e	-0.17599675
138	0x3e87dc37	0.26535198
139	0xbf05471e	-0.5206164
140	0xbf06e026	-0.52685773
141	0x3f014e70	0.5051031
142	0x3e8ea148	0.27857423
143	0xbee0b368	-0.43886876
144	0x3f2db49a	0.678537
145	0x3ecc6320	0.39919376
146	0xbf419755	-0.7562154
147	0xbf22dc1f	-0.6361713
148	0xbeab2179	-0.33423975
149	0xbf57724c	-0.8415878
150	0x3eb67a07	0.35639974
151	0xbec9acca	-0.3938964
152	0x3e8abcb7	0.27097103
153	0xbea3b129	-0.319711
154	0xbfc6403d	-1.5488354
155	0xbfc846b3	-1.5646576
156	0xbc29a0da	-0.010353291
157	0xbf58d35f	-0.84697527
158	0xbffc91bb	-1.9731973
159	0x3ed82be7	0.42220995
160	0x3d09d312	0.033648558
161	0xbe96fe2d	-0.29490796
162	0xbe06424b	-0.13111226
163	0xbe2cad64	-0.16863018
164	0xbe9dd67a	-0.30827695
165	0xbf112054	-0.56689954
166	0x3d287360	0.041125655
167	0x3ef9c8bc	0.4878596
168	0xbf27d028	-0.65551996
169	0x3f5ee8e2	0.870741
170	0x3f4fecc1	0.8122063
171	0x3f00e3b0	0.50347424
172	0x3ef40146	0.47657222
173	0x3f826d34	1.0189576
174	0xbe4d9143	-0.20074944
175	0x3ec8ecb5	0.39243093
176	0x3f7a15ef	0.9768972
177	0x3d202799	0.039100263
178	0xbe106e86	-0.14104661
179	0xbe4fbb6f	-0.20286344
180	0xbf27c24f	-0.65530866
181	0xbf9a785f	-1.2067984
182	0xbf2476f9	-0.6424404
183	0x3f4e77c4	0.806515
184	0x3c34fc30	0.011046454
185	0xbe868ad8	-0.26277804
186	0xbece5765	-0.40301052
187	0x3f3e7240	0.7439308
188	0x3f87a2a4	1.0596509
189	0xbf1b4d28	-0.60664606
190	0x3f1c3012	0.6101085
191	0x3f4f2074	0.80908895
192	0x3f1a302e	0.60229766
193	0xbe0f6dd2	-0.14006737
194	0x3e875a6d	0.26436177
195	0xbeae55a3	-0.3404971
196	0x3f1389f0	0.5763235
197	0xbea0c581	-0.31400684
198	0xbeae2ed4	-0.34020102
199	0x3e328e0b	0.17436998
200	0x3e1dd267	0.15412293
201	0x3d178008	0.036987334
202	0x3f711e41	0.9418679
203	0x3f66112b	0.89869946
204	0x3cf77b58	0.030210182
205	0x3e78a2fe	0.24280927
206	0x3f0e7b2a	0.55656683
207	0xbec3137b	-0.381008
208	0xbf715768	-0.94273996
209	0xbf41a68b	-0.7564475
210	0xbf234f7c	-0.6379316
211	0xbf1c7c25	-0.6112693
212	0xbf3ea34e	-0.74467933
213	0xbe008530	-0.12550807
214	0x3ef34d2b	0.47519812
215	0xbf365df2	-0.712371
216	0xbf1133ac	-0.5671947
217	0xbe1aed97	-0.15129696
218	0x3e1bc1d3	0.15210657
219	0xbf6284f2	-0.8848411
220	0xbf0b488c	-0.5440757
221	0x3f3550ee	0.70826614
222	0x3f3b67f4	0.73205495
223	0x3f92af66	1.1459777
224	0xbe2493b0	-0.16071963
225	0x3e529143	0.20563225
226	0xbe9e594f	-0.30927512
227	0x3d806dcf	0.06270944
228	0xbd11cb95	-0.03559454
229	0x3e77aff8	0.2418822
230	0x3f38f296	0.72245157
231	0xbeabbfe1	-0.3354483
232	0xbe69e636	-0.22841725
233	0xbecdfcb5	-0.40231863
234	0xbc4c8485	-0.012482767
235	0x3d477c5a	0.048702575
236	0x3eba8658	0.3643062
237	0xbd7abcc1	-0.061215166
238	0xbf8e4390	-1.1114368
239	0xbd7eafde	-0.06217944
240	0xbf75da2b	-0.9603602
241	0xbfc33142	-1.5249407
242	0xbf078704	-0.5294039
243	0xbf2be697	-0.6714873
244	0x3e2d15f2	0.16902903
245	0x3dbab230	0.09116018
246	0x3f9aae14	1.2084374
247	0x3e5b1b3e	0.21397111
248	0xbfa66a94	-1.3001275
249	0x3e5fa22b	0.21839206
250	0xbf21fcf6	-0.6327661
251	0xbf9a6367	-1.2061585
252	0xbf759cfb	-0.9594266
253	0x3d9dfb56	0.07713954
254	0x3f0e1f3e	0.5551642
255	0x3f1e1fea	0.61767447

conv3.bias f4 [8]
0	0xbdfc51db	-0.123203
1	0xbd4a3a06	-0.04937174
2	0xbe1c3098	-0.15252912
3	0xbde1832f	-0.110113494
4	0x3d6f54f0	0.058430612
5	0x3e069fdb	0.13146918
6	0x3decf491	0.11570085
7	0x3e100620	0.14064837

bn_3.weight f4 [8]
0	0x4055f6ee	3.3431964
1	0x404bfb02	3.1871953
2	0xbb87fe6e	-0.0041502034
3	0x4047fe23	3.1248863
4	0x407f1992	3.9859357
5	0x404b3f69	3.1757452
6	0x4066a22d	3.6036484
7	0x4077db09	3.8727438

bn_3.bias f4 [8]
0	0x3fb9dfd5	1.4521433
1	0x4011ef64	2.2802362
2	0xbcb069a5	-0.02153475
3	0x3c294b63	0.010332915
4	0x3fadef0c	1.3588576
5	0x3effa846	0.4993307
6	0x3f82da54	1.0222878
7	0x3f97659f	1.1827887

bn_3.running_mean f4 [8]
0	0x40ae96a8	5.4558907
1	0x40850530	4.1568832
2	0xbd854a72	-0.0650834
3	0x40233c17	2.5505426
4	0xc0e9d512	-7.3072596
5	0xc084e8e3	-4.1534286
6	0xc054547d	-3.3176568
7	0x3eb0193f	0.3439426

bn_3.running_var f4 [8]
0	0x425f8410	55.878967
1	0x42645119	57.079197
2	0x3f6e6de6	0.9313644
3	0x418d03c8	17.626846
4	0x4264e42b	57.22282
5	0x421e1c18	39.527435
6	0x4223cebf	40.9519
7	0x4247f2dc	49.987167

fc1.weight f4 [10, 72]
0	0x3e995551	0.29947904
1	0xbefc674e	-0.49297565
2	0x3d0f273b	0.034949522
3	0x3e6656e8	0.2249409
4	0xbeebf7bf	-0.46087453
5	0x3e082d03	0.1329842
6	0x3e9cd3b1	0.30630258
7	0xbf189157	-0.5959677
8	0xbe807d2b	-0.25095496
9	0x3df4e855	0.11958376
10	0x3e4356f7	0.19076143
11	0xbedb2ad3	-0.4280611
12	0x3f1e6daa	0.61886084
13	0xbeacf086	-0.33777255
14	0x3f2be02b	0.6713893
15	0xbe39cf2d	-0.18145438
16	0xbfa4c4c2	-1.2872546
17	0xbf5532cc	-0.83280635
18	0xbd62fb05	-0.055415172
19	0x3cf4708a	0.029838819
20	0xbd647dba	-0.055783965
21	0x3b179511	0.0023129622
22	0x3dbc0d82	0.09182264
23	0x3db6f5c2	0.08933593
24	0x3d47b519	0.048756693
25	0xbd039472	-0.03212399
26	0xbdbb8523	-0.09156253
27	0x3e6f4cc8	0.23369133
28	0x3e564124	0.20923287
29	0x3e6f3a58	0.233621
30	0xbea8ff5f	-0.33007333
31	0xbe753462	-0.23945764
32	0xbe3bea8b	-0.1835119
33	0xbf609c69	-0.8773866
34	0x3e853511	0.2601705
35	0x3e498964	0.19681317
36	0x3f292873	0.66077346
37	0xbe489771	-0.1958902
38	0xbf37cddb	-0.71798486
39	0x3ea9a4eb	0.33133635
40	0xbe888d6a	-0.2667039
41	0x3d3137fb	0.043266278
42	0x3f033d93	0.5126583
43	0x3f6f4a8c	0.93473125
44	0x3f2e7093	0.68140525
45	0xbe50a1a0	-0.20374155
46	0xbe39c69e	-0.18142173
47	0x3e080284	0.1328221
48	0xbf02a872	-0.5103828
49	0xbe967919	-0.29389265
50	0xbfc9cf1b	-1.5766329
51	0x3f1a7bac	0.6034496
52	0x3eea2b87	0.45736334
53	0xbfbd058b	-1.4767317
54	0x3f3f7e34	0.74801946
55	0x3f51ff04	0.8202975
56	0xbf0d580c	-0.55212474
57	0x3f367595	0.71273166
58	0xbe6d0577	-0.23146616
59	0xbf2d5241	-0.67703635
60	0x3f1c7f15	0.6113141
61	0x3e398f80	0.18121147
62	0xbf073579	-0.5281597
63	0xbd9ae39a	-0.07562943
64	0xbe9d95b7	-0.30778286
65	0xbe341f66	-0.17590103
66	0xbebb2c37	-0.3655717
67	0xbe6bc241	-0.2302332
68	0x3f3d1427	0.73858875
69	0x3e6f69e7	0.23380242
70	0x3f92c822	1.1467326
71	0x3f1a7c5a	0.60345995
72	0xbea8bc02	-0.3295594
73	0x3f5d82ed	0.865279
74	0x3e297414	0.16548187
75	0xbf190157	-0.5976767
76	0x3ed25054	0.4107691
77	0xbdfa1e6d	-0.122128345
78	0xbe8d2bb9	-0.2757242
79	0x3e33552d	0.1751296
80	0x3ec764b8	0.3894403
81	0xbd2101db	-0.03930841
82	0x3ed96689	0.4246104
83	0xbd8f76e2	-0.07005097
84	0xbdf53f29	-0.119749375
85	0x3f69564a	0.9114729
86	0xbf1c4933	-0.61049193
87	0xbefe3945	-0.49653068
88	0x3d52942d	0.051410843
89	0xbf67bc0f	-0.9052133
90	0x3d90988c	0.07060346
91	0x3d6e2b6f	0.05814689
92	0xbd835384	-0.06412414
93	0x3d36b419	0.04460535
94	0xbd8b9d2a	-0.06817086
95	0xbd19eff3	-0.03758235
96	0xbc17a4bf	-0.009255587
97	0x3bb1b13d	0.00542274
98	0x3de431ba	0.11142297
99	0x3e885339	0.26625994
100	0xbde32355	-0.110907234
101	0x3eb66a4f	0.35627982
102	0x3e021681	0.12703897
103	0x3d5ea6b5	0.054358203
104	0x3e1e3b82	0.15452388
105	0x3f08f6c1	0.53501517
106	0x3f2e9602	0.68197644
107	0xbd74a169	-0.059724245
108	0xbe3a4349	-0.1818973
109	0x3fcb28a7	1.5871781
110	0x3f89287a	1.0715477
111	0xbdba4dbb	-0.09096857
112	0x3eb6463c	0.3560046
113	0x3e83f061	0.25769332
114	0x3f4e7adc	0.8065622
115	0x3f3886f2	0.7208091
116	0xbb819db3	-0.003955567
117	0xbefd0e3b	-0.4942492
118	0xbe17ef64	-0.14837414
119	0xbf003864	-0.50086045
120	0xbec069c8	-0.37580705
121	0x3b8c2bf9	0.004277703
122	0xbe15bd4e	-0.14622995
123	0x3e6fbb42	0.23411277
124	0xbea2c9aa	-0.31794482
125	0x3eb427f2	0.35186726
126	0xbe6cf16c	-0.2313897
127	0xbe5ca679	-0.2154788
128	0x3ca31bdd	0.019910747
129	0xbd392898	-0.04520473
130	0x3e8de4cf	0.2771363
131	0x3ea7745c	0.32705963
132	0x3ee71505	0.45133224
133	0xbde6afb5	-0.11263982
134	0xbd44a280	-0.048006535
135	0x3d488e9a	0.04896412
136	0xbefebb7a	-0.49752408
137	0xbefd41b4	-0.4946419
138	0xbe5206b0	-0.20510364
139	0xbf16895f	-0.5880336
140	0xbf880a7c	-1.06282
141	0xbebfef0a	-0.3748706
142	0xbf0fa779	-0.5611492
143	0x3efd3c02	0.49459845
144	0xbe2585d3	-0.16164331
145	0xbf7d3a0b	-0.9891669
146	0x3ea0755c	0.31339538
147	0xbf9321be	-1.1494672
148	0xbe19d3c2	-0.15022185
149	0x3f1e6340	0.61870193
150	0xbe30331d	-0.17206998
151	0x3eaf9110	0.3429036
152	0x3f71f4a9	0.94513947
153	0x3eb5a108	0.3547442
154	0x3f3f50ca	0.7473265
155	0x3f4231ac	0.75857043
156	0x3f85947b	1.0435938
157	0x3f061e84	0.52390313
158	0x3f531f5c	0.82469726
159	0xbec5d75a	-0.38640863
160	0xbf22c621	-0.6358357
161	0xc017558e	-2.3645968
162	0xbda34e94	-0.07973972
163	0x3d026914	0.03183849
164	0x3d90cd7a	0.070704415
165	0x3c554f45	0.013019388
166	0x3da121b2	0.07867755
167	0x3c817f55	0.015807787
168	0xbc30b710	-0.010785833
169	0xbddeff4e	-0.10888539
170	0xbd75e350	-0.060031235
171	0x3ec267c2	0.37969786
172	0x3e5d35db	0.21602575
173	0x3ecf29aa	0.40461475
174	0x3f563300	0.8367157
175	0x3eb29157	0.3487651
176	0x3ea16a48	0.315264
177	0xbeab8374	-0.33498728
178	0x3dc58a95	0.09645573
179	0x3ebe67d2	0.37188584
180	0xbf27b248	-0.6550641
181	0xbea162ca	-0.31520683
182	0x3f062a51	0.5240832
183	0xbf0c74dc	-0.54865813
184	0xbe1fa2b9	-0.15589418
185	0x3f7554db	0.95832604
186	0x3e40b028	0.18817198
187	0x3db59146	0.08865599
188	0xbe5f5d33	-0.21812896
189	0x3cec0bff	0.028814314
190	0x3e21f5c4	0.15816408
191	0xbea11b48	-0.31466126
192	0xbe88bdc6	-0.26707286
193	0xba96b8c6	-0.0011499159
194	0x3ddfdc4c	0.1093069
195	0xbd0323e3	-0.032016646
196	0xbe68ef07	-0.22747432
197	0x3f67346e	0.90314376
198	0xbed9674d	-0.42461625
199	0xbf1cc908	-0.6124425
200	0xbf6e7249	-0.93143135
201	0x3ec7cd5c	0.39023864
202	0x3ebcc9fb	0.3687285
203	0xbf8a1467	-1.0787476
204	0x3fa3d63a	1.2799752
205	0x3f6931f6	0.9109186
206	0x3df8e2b0	0.12152612
207	0xbf421e78	-0.7582774
208	0xbec60550	-0.38675928
209	0x3e8ac1b8	0.2710092
210	0x3ddd5ad4	0.1080834
211	0x3e853222	0.2601481
212	0x3f2af0cf	0.66773695
213	0x3eefe811	0.4685674
214	0x3ecd760b	0.40129122
215	0x3f23a144	0.63917947
216	0xbf9c0b87	-1.2191018
217	0xbe5e785b	-0.217256
218	0x3ea90a87	0.33015844
219	0xbee59247	-0.44838163
220	0x3f14c8cc	0.5811889
221	0xbcafa8b5	-0.02144275
222	0xbf022f65	-0.5085357
223	0xbece7e32	-0.40330654
224	0xbf822107	-1.0166329
225	0x3f7e4264	0.99320054
226	0x3fbec76a	1.4904606
227	0x3fb5c29d	1.4200016
228	0xbe71102d	-0.23541327
229	0xbe87449b	-0.2641953
230	0xbeae8c67	-0.34091493
231	0xbe5b72d4	-0.21430522
232	0x3eb0792b	0.34467444
233	0x3fae1e35	1.3602968
234	0x3dd87a1f	0.10570168
235	0x3d9aaa09	0.07551963
236	0x3db4ad09	0.08822066
237	0x3d9c4606	0.076305434
238	0x3da1d0c0	0.07901144
239	0xbd8ebf0f	-0.06970035
240	0xbd9ed059	-0.07754583
241	0x3ddf351c	0.10898802
242	0xbb5c1752	-0.0033583236
243	0xbd71bb6d	-0.059016634
244	0xbdc2a804	-0.09504703
245	0xbe98cf4e	-0.2984566
246	0x3ed47dd7	0.41502258
247	0x3ea76de3	0.32701024
248	0xbdd1a3d2	-0.10236324
249	0x3fd4c5e3	1.662289
250	0xbe15415a	-0.14575711
251	0xbdc096da	-0.09403773
252	0xbf9c1933	-1.219519
253	0xbf7059cd	-0.93887025
254	0x3ef4f918	0.47846293
255	0xbe3e497c	-0.1858272

fc1.bias f4 [10]
0	0x3d12d8c5	0.03585126
1	0x3b7c5c8b	0.0038507308
2	0xbe930c54	-0.28720343
3	0x3d85fb81	0.06542111
4	0xbd89e479	-0.06733031
5	0xbccb19bc	-0.024792545
6	0xbe4eb415	-0.20185883
7	0x3f059738	0.52183867
8	0x3e1c2846	0.15249738
9	0xbe3a09b1	-0.1816776
