HW2/hw_alex/hw2_py/results/_14_01_43/lr_0_0001_net_1_CE_/model.pth (torch_old, 39192 bytes, 20 tensors)

conv1.weight f4 [8, 1, 3, 3]
00000000: 0bab 8cbe c377 cb3d a979 5d3e 9c94 643e
00000010: 9935 f53d e1e5 49be 41da 433e 884e 2dbc
00000020: ef59 05bd e04e 24be c01c 8dbe 0421 d0bd
00000030: 182a 7d3e 1a51 0b3e e5ae 9cbe 1ec5 a83e
00000040: 76e0 a7be 256c 74be fd3a fa3c 8e60 78be
00000050: c29e 48bd fa2e c43d 2d55 e7bd dbaa 8ebe
00000060: cb2f 3e3e 21a2 95bc 32d1 62be 819a 87bc
00000070: f79b 563e d0b4 c23e 0564 c03d 00a3 153d
00000080: b299 99bd 46d6 35be 6781 73be 73f6 39bd
00000090: 8fd6 4e3e 0771 093e 0f52 09bc 83f5 c43d
000000a0: 96d6 9c3d 3dc1 e2bd 32cc 2d3e 3b0c 9d3c
000000b0: c380 e1bd de22 9a3d 74ef a43e b52e ddbd
000000c0: 4e2e 87bd 10e4 a0bd 581a 7fbd 7a48 82be
000000d0: 96d0 7bbe fa3d 57be 76a0 953e c941 82be
000000e0: 6e0f fe3d b124 ba3e f7b9 57bd db4d 1e3e
000000f0: a8b2 96bc 6659 5a3e b9a9 403e e11b 0dbe
00000100: 1859 393e c81d 213e f336 84be 3e01 82be
00000110: bf1b 2dbd bb06 013e 0a99 71be 15f5 47be
-0.27474245 0.09934952 0.21628441 0.22322315 0.119731136 -0.19716598 0.19126226 -0.010577805
-0.03255647 -0.16045713 -0.27560997 -0.10162547 0.24723089 0.13605157 -0.30602184 0.32962888
-0.32788438 -0.23869379 0.030545706 -0.24255583 -0.04897953 0.095792726 -0.11295543 -0.27864727
0.18572919 -0.018265786 -0.22150114 -0.016553165 0.20957933 0.38028574 0.09394077 0.036532402
-0.07500018 -0.1775752 -0.23779832 -0.045401048 0.20199035 0.13422023 -0.008381381 0.0961714
0.076581165 -0.110720135 0.16972426 0.019170871 -0.110108875 0.07526182 0.32213938 -0.10799924
-0.06600629 -0.078559995 -0.062280983 -0.2544592 -0.24591288 -0.21019736 0.29223984 -0.25440815
0.12405287 0.36356118 -0.052667584 0.15459387 -0.018395737 0.21323165 0.18814744 -0.13780166
0.18100393 0.15734017 -0.25823173 -0.25391573 -0.04226279 0.12600224 -0.23593536 -0.19527085

conv1.bias f4 [8]
00000000: f09a adbd d59e 51bd 7569 853e 1eb4 2abe
00000010: 97ce 873e a65e 6f3d 5bd0 7fbe 216e eb3d
-0.084768176 -0.051176865 0.2605702 -0.16670272 0.26524803 0.058439873 -0.24981825 0.11495615

bn_1.weight f4 [8]
00000000: 7836 e93d 5c93 c43e dba8 f03e 3269 3b3f
00000010: 389a 563f a4c6 6f3f 06c8 1b3e 9120 0f3f
0.11387342 0.38393676 0.47003826 0.7320739 0.8382907 0.93662477 0.15213022 0.5590907

bn_1.bias f4 [8]
00000000: 85cd 37bb 331d f93c 24ca 97bd 1e9e e53d
00000010: 153c 0cbb ae52 dabc 1486 22bd ae86 55bc
-0.0028046083 0.030409431 -0.07411602 0.11211799 -0.0021398116 -0.026650753 -0.039678648 -0.013032598

bn_1.running_mean f4 [8]
00000000: 2044 a3be 3671 de3e ce82 303f 53f7 8fbe
00000010: d76d 6ebd 9c19 fd3e 81ea 74bf bd39 143f
-0.31887913 0.43445748 0.6894959 -0.2811838 -0.05821022 0.494336 -0.95670325 0.579006

bn_1.running_var f4 [8]
00000000: 039b 883d 33c9 703e c21a 303e 58c8 c13d
00000010: ae31 e03d 2b8f 463e b11d 903e d86f 2b3e
0.06670191 0.23514251 0.17197707 0.09462041 0.10946976 0.19390552 0.28147653 0.16741884

conv2.weight f4 [16, 8, 3, 3]
00000000: 9409 4ebd e753 0f3c d874 87bc 9ed2 b13c
00000010: 98e5 73bd 5ff7 80bd e8cb 9d3d 758c c13d
00000020: f539 02bd f5f1 d03c 22e0 ac3d 280a a93d
00000030: 8c7b eebd 449f cbbd 6625 ea3c dd60 90bd
00000040: 8b10 8e3d 1af6 a3bd 310c 863d 8a82 32bd
00000050: b755 26bd 8850 9b3c bede 05be 61af dcbd
00000060: 5b6e f0bc 212d 0fbe ac7f 63bc 99e3 ec3c
00000070: 7a9f ae3d 2ce9 153e e1e8 d3bc 37ce a73d
00000080: c4cb 1b3d 1dc4 a83b 2ee3 3bbd 094e 7dbd
00000090: f59c 83bc 4f4d 803d b86d 713d 1c68 f4bc
000000a0: 50ef 28bd d556 91bd 7720 08be 17a9 1c3b
000000b0: 92df 603d 189d 59bb 4a16 923b cce3 38bd
000000c0: 51ca e4bc cef0 bc3d 387d 79bb ceea 7c3d
000000d0: 6944 d4bb 392d 803d edfa 88bd 5842 2cbd
000000e0: 332e ce3d d947 9e3d a384 3f3d 1a78 ddbd
000000f0: 74ef babd fd63 aabd 081c 30bd f013 ff3d
00000100: a04f fdbb 2131 ba3d c4d7 af3d d6b5 7c3c
00000110: 3f73 94bd 5b6b 1abc d9a3 b93d 0261 e8bd
00000120: c223 283d c26c cf3d 059e 863d 9ee0 bfbd
00000130: 7e14 b03d fc5f 05bd db31 38bd 23a0 cd3d
00000140: 28f9 9cbc 948d 463d d616 1b3d 75b5 a23d
00000150: 4a30 0a3e 724f 123e e851 df3d c525 063e
00000160: 54cb b23d e040 cfbd 3506 4bbc 3957 9a3d
00000170: 5767 573d 12ee 073e 704c c0bc c550 bf3c
00000180: c5c9 a23d 0596 50bd 0aa3 4bbd dfab 6abd
00000190: 1842 b9bd 9c57 f4bb 21be 38ba 12f2 b0bd
000001a0: fa58 99bc 965c 84bd 8a4a 5fbd 45c2 e4bc
000001b0: 9cce 573b 5933 27bc 986a 033d 30ca 7c3d
000001c0: b907 013d ff00 b63c e057 953d 2071 563c
000001d0: 0afc 003d cc88 80bb 3f41 a7bb 1f1e 6dbc
000001e0: 16d2 76bd 52f7 eabd 079b 1c3c 8251 40bc
000001f0: 571d df3c 1126 43bd 4b53 ba3c 34ce a8bd
00000200: 83b4 ce3d 369d a43d 99bd 75bc 6377 c6bd
00000210: c734 d03d 1816 b73d 460c ffbd 145c dc3d
00000220: ee5b c93d 4c69 0cbd b1ce 69bd d85b be3d
00000230: 1f86 acbd 7c67 53bd 5d9d c0bc 5721 5e3d
00000240: d07b 983d d878 8a3d fdef 01bd 2bff 303d
00000250: 0484 c53c 1ce1 15bd 22a8 d23d 5855 433c
00000260: 0ae8 a23d 2565 b6bd 5f4d 403d 1470 b0bd
00000270: 9221 a23d b588 883d 10bb 373d c40c e3bd
00000280: 5d94 7cbd 538d 29bd 8ca0 063d 7d85 bb3b
00000290: 1d5c 823d d2a2 663d 289d d73d f7ed 083d
000002a0: 9804 c1bd 3a98 b63d ba60 dabd 7bde eb3d
000002b0: 6ce5 8b3d bc12 d2bd b20e a73d c7a0 343d
000002c0: 4b7d 97bd 1d9b a13d 9dcc aabc 8fa1 43bd
000002d0: 235e 64bd c07b a23d b2c9 93bb 635e e43c
000002e0: a433 abbd abcd 653d 9e2f b7bd 850c 9ebd
000002f0: 0ceb a63d 2991 bebd 235c 753d f630 923d
00000300: 1a67 24bd d666 e2bd 6e65 86bc 104b 9ebd
00000310: 4268 523d 7a0f b23d 78b5 a73d 7107 06bc
00000320: 8f5c 38bd eba1 b8bd 2af2 a33d 2271 b43c
00000330: 232d 13bd ab6d d33d 78b1 f03d f22f f63c
00000340: 813d abbd 45bd 633d 6f78 0bbd 5313 503d
00000350: fa6e ddbd 08c5 e93b f871 123d 71af 80bd
00000360: c96b 993d a915 ffbc 6e55 543d 5a03 073d
00000370: 2541 103e 9aa9 1fbb bef5 1a3d 5b43 87bd
00000380: 0b31 01bc 43cc 2ebd 8ae4 a5bd ba31 60bd
00000390: 59a8 1c3d c962 e6bd 294f 853d 7cd6 63bd
000003a0: 4074 1ebd 4113 f7bc 9578 cebd beb8 573d
000003b0: 2176 4bbd 7823 e0bd 4b9f 5a3d 4144 9cbd
000003c0: 112a 10bd 87cd 3e3d a16b e93d c303 f2bd
000003d0: 46f6 0cbd 5722 ff3d 21e5 403c e1c0 943d
000003e0: 2ef9 efbc e0cb 78bd c6b6 863d 18e3 dfba
000003f0: 0150 63bd 6340 5abd 61a7 aebc c459 4d3d
-0.050302103 0.008748031 -0.016535208 0.021706875 -0.05954513 -0.06297182 0.07704908 0.09450618
-0.031793553 0.025506 0.084411874 0.0825389 -0.116446584 -0.09942487 0.028582286 -0.07049725
0.06936749 -0.080059245 0.06545294 -0.043581523 -0.040609088 0.018959299 -0.1307325 -0.10775638
-0.029349497 -0.13982059 -0.01388542 0.02891712 0.085265115 0.1463973 -0.025867881 0.08193629
0.038036123 0.0051503316 -0.045870952 -0.061842 -0.016066054 0.062647454 0.058942527 -0.0298348
-0.04124385 -0.0709664 -0.13293634 0.0023904496 0.054900713 -0.0033205207 0.0044582235 -0.04513912
-0.027928503 0.09225617 -0.003806902 0.061747365 -0.0064778817 0.062586255 -0.06688485 -0.042055458
0.100674056 0.077285476 0.04675735 -0.10813923 -0.09127703 -0.083198525 -0.042995483 0.12454975
-0.0077304393 0.09091402 0.08586076 0.015424212 -0.07248544 -0.00942501 0.090644546 -0.11346628
0.041049726 0.10128166 0.065731086 -0.09369014 0.085976586 -0.03256224 -0.04496942 0.10040309
-0.019161776 0.048474863 0.037863575 0.079447664 0.13494983 0.14288118 0.10904294 0.13100345
0.08730188 -0.10119796 -0.012391617 0.07536168 0.052588787 0.1327441 -0.023473948 0.023353944
0.07948641 -0.05092432 -0.049716033 -0.057292815 -0.090458095 -0.007456733 -0.00070473744 -0.08639921
-0.018719185 -0.06462972 -0.054514445 -0.027924666 0.0032929545 -0.010205113 0.032084078 0.06171626
0.031501506 0.022217272 0.072921515 0.013088495 0.031490363 -0.0039225575 -0.0051042135 -0.014472513
-0.060258947 -0.11472954 0.009558446 -0.011738183 0.02723567 -0.047643725 0.022744795 -0.08242455
0.10093024 0.08037798 -0.014998817 -0.0969074 0.101663165 0.08939761 -0.12453513 0.1075975
0.09831987 -0.034280106 -0.057081882 0.092948616 -0.08424019 -0.051612362 -0.023512537 0.054231014
0.0744549 0.0676133 -0.03172301 0.043212097 0.024110802 -0.036591634 0.10285975 0.011922203
0.07954414 -0.089060105 0.046948787 -0.08615127 0.07916559 0.066667 0.04485613 -0.11086419
-0.061664928 -0.041394543 0.032867953 0.0057227 0.063652255 0.05630762 0.10528022 0.033430066
-0.09424704 0.08915754 -0.106629804 0.11517044 0.06830868 -0.102574795 0.081571 0.04409864
-0.073969446 0.07890914 -0.02084952 -0.047761496 -0.05575384 0.0793376 -0.004510128 0.027877038
-0.08359459 0.056104343 -0.08944629 -0.07717232 0.081503004 -0.09305031 0.05990232 0.07138245
-0.040137388 -0.11054771 -0.016405787 -0.07729161 0.05136896 0.08694358 0.08188909 -0.008180485
-0.045010146 -0.090152584 0.080051735 0.022026602 -0.035931718 0.10323652 0.117525995 0.030052159
-0.0836134 0.055600423 -0.0340504 0.05079968 -0.10812183 0.0071340837 0.03575322 -0.06283463
0.074912615 -0.031138258 0.051839285 0.03296218 0.1408735 -0.0024362565 0.037832014 -0.06604644
-0.007885228 -0.042675268 -0.08100231 -0.054734923 0.038246486 -0.112493105 0.06509239 -0.05562447
-0.038685083 -0.030160548 -0.10081593 0.05266642 -0.049673203 -0.10944265 0.05337457 -0.07630206
-0.035196368 0.046582725 0.11397482 -0.11817124 -0.034414552 0.12457722 0.011773379 0.07263351
-0.029293623 -0.060741305 0.0657783 -0.0017081229 -0.05549622 -0.05328406 -0.021320047 0.050134435

conv2.bias f4 [16]
00000000: 01eb a43d 8bb0 a1bb a0eb 2dbb b6cd e0bd
00000010: ef47 b9bd 0ce8 4abd 6a1a 43bd 5421 ab3c
00000020: 206c b7bd d480 babc 5e9c e13b 9c98 91bd
00000030: 1ac0 30bd 72fc 433d 66f8 2c3d 638c 3d3c
0.08052636 -0.0049343756 -0.0026538149 -0.10976736 -0.09046923 -0.049537703 -0.047632612 0.020889916
-0.0895617 -0.022766508 0.0068850955 -0.07109186 -0.043151952 0.047848172 0.04222908 0.011569115

bn_2.weight f4 [16]
00000000: 5a3f 5c3f c029 683f 6671 d63d f8d9 1c3f
00000010: ff19 593e 21bf 1d3e a781 e43e 49a0 fd3e
00000020: e0c8 2b3f ed44 383f 439e 1e3f 9392 223f
00000030: 7aa2 2d3f a9e6 583e 142a ff3e 1203 2f3f
0.86034167 0.90688705 0.10470848 0.61270094 0.21201323 0.15404941 0.44630167 0.4953635
0.67103386 0.7198017 0.6196024 0.63504905 0.67826045 0.2118174 0.4983679 0.6836406

bn_2.bias f4 [16]
00000000: c5fa e3bc 75c3 49bd 72af 11bd db72 8b3b
00000010: f4cf dd3c 70f9 68bb 1da6 50bd 525b 74bc
00000020: 5531 94bd c7bc b7bc b7dd 33bd be6f c43b
00000030: 7ff6 f43a ea1c 58bd 9456 443d 2113 ee3b
-0.027829537 -0.049258668 -0.03556771 0.004255635 0.027076699 -0.0035549067 -0.050939668 -0.014914351
-0.07235972 -0.022428883 -0.043912616 0.005994766 0.0018689184 -0.05276195 0.04793413 0.007265464

bn_2.running_mean f4 [16]
00000000: b012 eb3d 918e a33d 3797 db3c 3437 58be
00000010: fa45 d4bd b909 18bf 841c 62bd 1037 3f3e
00000020: 0f2b 86be b8c3 6c3e 7826 b4be 40dd c4be
00000030: 073d 583d 4238 1f3d 9bb5 143e 478f 0ebe
0.11478174 0.07986177 0.026805503 -0.21114808 -0.103649095 -0.59389836 -0.055202976 0.18673348
-0.26204726 0.23121536 -0.351856 -0.3845005 0.052792575 0.03887201 0.14522402 -0.13921843

bn_2.running_var f4 [16]
00000000: 4670 df3d 7af2 943d fb0d 773d 9fc2 433d
00000010: bd9e bc3d 2996 3b3e b518 5c3d 1f7d 073e
00000020: 1e07 383e 84cf a23d 9077 d03d a5f4 133e
00000030: 8026 c83c 56dc 993d 11a6 f03d 2c6e 973c
0.10910086 0.07272811 0.060316067 0.047793027 0.092099644 0.18319 0.0537345 0.13231324
0.17971465 0.07949737 0.10179055 0.14448793 0.02443242 0.07512729 0.11750425 0.018485151

conv3.weight f4 [32, 16, 3, 3]
00000000: 422a ef3d b94c 50bd e25d 873a 4d7a 8e3c
00000010: 30a5 0c3d 60ed 503d f964 ee3d eca9 b4bd
00000020: 8156 a7bd 642b 343d a6a3 873d f25d ff3b
00000030: 6be9 92bd 9624 4ebc 9b2c b7bd 879b 0fbd
00000040: a389 42bd 2a73 683d fd3b a93b 0d66 093d
00000050: 395c 8cbd 067c e83c 873f 8cbd cd94 143d
00000060: 6eca 81bc 0d28 833d 2fdc 04bd 1668 6f3d
00000070: 9dcd 933d 7d79 df3b 674f e0bc 7c25 4e3c
00000080: f10d 8ebc cbf3 8fbd 96dd 25bd 0f92 c03c
00000090: b38e 69bd a18e eabb b8e2 adbd dd4e b0bb
000000a0: f893 c7bc a530 8b3a 01a4 0fbd 6190 623d
000000b0: 2901 1fbd a1cb 8bbb 31fa 8d3d 08f6 24bd
000000c0: 4ed3 883d f89f 043c 974e d13b ff86 c3bc
000000d0: f30e ab3d c973 22ba 19e3 a5bc eccf f53c
000000e0: 9dbd bb3c d754 e43c 274d 3b3d 3b13 94bd
000000f0: 41d0 bdbc d5e0 963d 792f ca3b acfb 5abd
00000100: 4d94 64bd 1c04 903c 136a e33a 8e59 3a3c
00000110: fef6 50bd e95b 04bd f25a 0e3d 023a a2bd
00000120: 2daf a2bd 1a0f 27bc 2ea7 18bd 8746 a8bc
00000130: c472 c83d 9b21 6e3d 38fa 53bc 3056 123d
00000140: 6434 fbbb e9e6 903d 9652 193d 5fff e0bc
00000150: eb58 bb3d 8e22 b93c 99a4 d4bd 466f 11bc
00000160: f408 31bd 45b3 d8bc 714a a53d a144 e3bc
00000170: 81fe 8dbc c3ef 363d 01dd 643c 9c17 47bd
00000180: c099 213d 3d9c 4b3c a5df 23bc 94b7 cc3c
00000190: 04f6 3f3d 2210 c0bb 742a ba3d 6a24 bc3c
000001a0: 2da5 2abd f63e b43c 3521 b4bd cfba 98bd
000001b0: fddb cc3d 6f80 883b 28a6 18bd 2e65 92bb
000001c0: 1dd9 08bc ab3c 343c a8f6 44bd d692 abbd
000001d0: 80bf a339 38ae 74bd 33f4 893d 78c2 ddbc
000001e0: 0d9b e4bc 6dfb a3bd 8f99 1b3a baaf 73bd
000001f0: dd94 cebd 0ab9 44bd 8b24 c3bb f34a 8cbb
00000200: 4e89 7fbd 2970 873d fa93 183c 42fb 833b
00000210: d86f 833d 1f24 3b3d e63c 2cbd 20b3 1ebc
00000220: f79f 5b3c efd2 683c 4477 09bd 5f3b 07bb
00000230: 7ae9 0a3d 7b8f 5bbd 17fa 943d dd81 4d3d
00000240: ca2c 513d f4de b7bc dfc5 f2bc 7607 b4bc
00000250: 46a1 90bd 65ee a8bd 5d9e 0abc f601 b1bb
00000260: 365c 723d 37f1 b6bc b9b5 70bc 0925 023c
00000270: cde2 36bd 52f6 a0bc 404f 28bc 1001 86bc
00000280: 9c11 c0bc 4e5d 12bd 2866 fd3b 15a9 8e3d
00000290: b924 743d d86f 4bbd 664d c0bc b6b4 4cbd
000002a0: 1385 8b3d 1cd9 15bd 8241 383d d5e7 123b
000002b0: fba2 80bd 8333 23bd dda1 9e3d a624 703d
000002c0: 682e 153d ec52 afbc f1f2 76bd 1739 1ebd
000002d0: ca7d 523d 7c85 a33c 6212 aa3d ee80 a3bd
000002e0: 5154 99bb 6880 043c 10ea dabc 3200 733d
000002f0: ed10 853d 2a47 863d edf8 023c 854a a6bc
00000300: 9035 113d 742c 00bd 7940 02bd 6174 ccbb
00000310: 0eac 53bd 00d4 37bd 1332 bc3a 9a3d 103d
00000320: 1f03 973d eada 1d3d c8ea 54bd e641 d63c
00000330: fbde 103d bbe7 833d 177e ee3c c872 b2bb
00000340: fa05 6d3d cdbf a63c 89cc 8abc 957b 0abd
00000350: 640c 22bc e116 953b 4c61 433d c306 6b3c
00000360: 23f6 453d d5c1 313c e3c8 6dbd c986 4d3d
00000370: 6053 213c c317 d73b e2c5 863c 57f7 ccbd
00000380: 54c7 4abd 73e8 5d3d 8f30 9a3c 7490 22bd
00000390: 49e0 9fbc ceae 3fbd 9279 003d e7d2 00bc
000003a0: 5842 383c d47b 833d 578c 233d 41a5 0fbd
000003b0: 7b18 a4bd c34a 83bd 93ea d4bd 456e 32bc
000003c0: 40dc 043d 9fd3 d53c d064 483c 7ebb 543d
000003d0: 2200 013d 0cf3 3b3d 500e c0bd 95e3 cdbc
000003e0: 8718 743c 273b cabd f143 4b3d d14c b43d
000003f0: d253 a13b e75a 77bb 6f59 58bc bdaa 953c
0.11677982 -0.05085442 0.0010327662 0.017392302 0.034337223 0.05100763 0.11640353 -0.088214725
-0.08170796 0.043986693 0.0662301 0.0077931816 -0.07173427 -0.012581965 -0.08944055 -0.03506043
-0.04749454 0.056750454 0.005164622 0.03354459 -0.068535276 0.028379451 -0.068480544 0.03627472
-0.015843596 0.064041235 -0.032436546 0.058448873 0.07216952 0.0068199025 -0.027381612 0.012582179
-0.017340632 -0.07028922 -0.040494524 0.023507146 -0.057020854 -0.007158116 -0.08490509 -0.005380495
-0.02436255 0.0010619356 -0.035068516 0.05531347 -0.038819466 -0.004266218 0.06932486 -0.040273696
0.06680928 0.00809478 0.0063875425 -0.023868082 0.08352461 -0.0006197063 -0.02024989 0.030006371
0.022917563 0.027872486 0.045727875 -0.072302304 -0.023170592 0.07367102 0.00617021 -0.05346267
-0.055805493 0.017580085 0.0017350338 0.011373891 -0.0510168 -0.032314215 0.0347547 -0.0792122
-0.079435684 -0.010196472 -0.03726881 -0.020541443 0.09787515 0.058137517 -0.012938075 0.035726726
-0.0076661576 0.070752926 0.037432276 -0.02746552 0.09147819 0.022599485 -0.10382957 -0.008876627
-0.04322143 -0.02645267 0.08070839 -0.027742686 -0.017333271 0.04466225 0.013968707 -0.0486065
0.039453268 0.012427387 -0.0100020515 0.02498988 0.04686548 -0.005861298 0.090901285 0.022966582
-0.04166143 0.022002678 -0.08795396 -0.07457506 0.10002897 0.004165701 -0.037267834 -0.004467628
-0.008352545 0.0110007925 -0.048086792 -0.08377616 0.0003123246 -0.05973646 0.067360304 -0.027070269
-0.027905965 -0.0800694 0.0005935663 -0.059493758 -0.10086987 -0.04802803 -0.005955284 -0.0042813956
-0.062386803 0.0661319 0.009312624 0.004027755 0.06417817 0.045688745 -0.042050265 -0.009686261
0.013404838 0.014210447 -0.033561006 -0.0020634753 0.033914067 -0.05360363 0.07274263 0.050172675
0.051068105 -0.02244518 -0.029635368 -0.021976214 -0.070620105 -0.08248595 -0.008460608 -0.005401845
0.05916997 -0.022331817 -0.014691764 0.0079434 -0.044649888 -0.019648705 -0.010272801 -0.016357929
-0.023445897 -0.035733514 0.0077331252 0.069658436 0.059605334 -0.04966721 -0.023474406 -0.049977027
0.06812491 -0.036584005 0.044984348 0.0022416015 -0.06281086 -0.039844047 0.07745717 0.0586287
0.03642121 -0.021401845 -0.06029028 -0.038628664 0.051389493 0.019961111 0.083042875 -0.07983576
-0.0046792408 0.008087255 -0.026722938 0.05932636 0.06497369 0.06556542 0.007993919 -0.020299206
0.03545147 -0.031292394 -0.031799767 -0.0062394594 -0.051677756 -0.044879913 0.0014358185 0.035214998
0.07373642 0.03853885 -0.051981717 0.02615447 0.0353689 0.064406835 0.029112859 -0.005445812
0.057867028 0.02035513 -0.016943233 -0.033809263 -0.0098906495 0.0045498465 0.04770021 0.014344874
0.048330437 0.010849436 -0.05805291 0.05017737 0.009846538 0.006564112 0.01645178 -0.10008114
-0.0495065 0.05417676 0.018821983 -0.039688542 -0.019516127 -0.046797566 0.03136594 -0.007862783
0.011246286 0.06420103 0.03992876 -0.035069708 -0.08012482 -0.06410744 -0.10396304 -0.010890548
0.03243661 0.026101885 0.012231067 0.05193662 0.031494267 0.045886084 -0.0937773 -0.025132934
0.014898426 -0.09874564 0.04962534 0.08803714 0.0049233222 -0.003774339 -0.013204916 0.01826989

conv3.bias f4 [32]
00000000: 40fd 1bbc 214d 9a3d 4777 87bd 014c a33d
00000010: e2dc 413d d014 d7bc dc93 c23c 4e02 44bd
00000020: d2cb 94bd b48f c33c c379 9bbd f091 74bd
00000030: 0b82 8fbd 7824 603c a9ca 813d 32d7 783d
00000040: d97c 8c3d e0fe f6bc 8e6e 67bd 142e c23c
00000050: f85a 91bd 26b6 9abd 2017 cabc 9ed7 503d
00000060: 6b57 a0bd ec52 aebc 803c 333b ae74 353d
00000070: 406f dc3a e0bd 5dbc a83e 7e3c 4604 e1bc
-0.009520829 0.075342424 -0.06614547 0.07973481 0.04732979 -0.026255041 0.023752145 -0.04785376
-0.07265438 0.023872234 -0.075915836 -0.05970949 -0.070072256 0.01368057 0.063374825 0.0607521
0.0685975 -0.03015083 -0.056501918 0.023703612 -0.07097429 -0.07554273 -0.02466923 0.05098688
-0.07829174 -0.021279775 0.0027349293 0.044300728 0.0016817823 -0.013534039 0.015517868 -0.027467858

bn_3.weight f4 [32]
00000000: 9eed af3f 77cf b03f bcf8 c13f 68e4 983f
00000010: 9486 2e3e b9e7 963e 5144 8c3f f5ef f23d
00000020: 3e01 b93f ffd3 bd3f a862 b33f c1c7 bb3e
00000030: dcd7 653f 327d a43f cafe a03e b0b0 a33a
00000040: 5082 8f3e 69e8 463f 434c dd3d edaa 0c3d
00000050: 5aed 663f 928a fe3e 0aba 973f 4b5c aa3f
00000060: 3946 3c3e e413 493f 7806 4f3f 3089 3f3f
00000070: 1252 813f eeda 013f c752 c63f 9475 113f
1.374439 1.3813313 1.5154033 1.1944704 0.17043525 0.29473665 1.0958349 0.118621744
1.4453504 1.4830321 1.4014482 0.36675838 0.897825 1.2850707 0.3144439 0.001248857
0.28029108 0.7769838 0.108055614 0.034342695 0.9020592 0.49715096 1.185365 1.3309416
0.18386163 0.78545976 0.80869246 0.74818707 1.0103171 0.50724685 1.5494012 0.56820035

bn_3.bias f4 [32]
00000000: e9aa 893e efee 933e ae87 8d3e e877 4c3e
00000010: 345f 433d 770d 9e3d 1654 103e d5ee 0a3d
00000020: b6f4 313e 67c1 813e 223a 623e be3c 843d
00000030: c56c 2b3e 3ad8 413e d73e 543d 7520 96bb
00000040: a46c 4e3d f9aa 0e3e 09b9 133d b15c 93ba
00000050: 6390 183e 6083 883d 5a14 313e b061 3c3e
00000060: 31c8 a23c bc34 de3d e299 103e 13f3 f33d
00000070: 5330 223e 019e f13d c518 963e 0817 b33d
0.26888207 0.2889323 0.27642578 0.19967616 0.047698215 0.07717412 0.14094576 0.033919174
0.17378506 0.25342867 0.22092488 0.06456898 0.16740711 0.1893014 0.05181774 -0.004581506
0.050396577 0.13932408 0.036065135 -0.0011242834 0.14898829 0.06665683 0.1729292 0.1839664
0.01987085 0.10849902 0.14121202 0.11911597 0.15838747 0.11797715 0.29315773 0.08744627

bn_3.running_mean f4 [32]
00000000: ad5d f43c 0a95 923e edf7 62bd 809c d6be
00000010: 2ecd 973e aeb1 9f3e 57c9 debb 506f 983e
00000020: 5e2a f0bc 116d 953d adb7 843e 1822 14bf
00000030: e90b 593d 8cf9 9bbd 664f 00bf 2954 4cbe
00000040: df74 acbd 6cac 03be 0785 3abe 7d06 5fbe
00000050: c831 a6bc a38f 28bd 2a66 43bf b07d f9bd
00000060: afaa 85be fc81 b6bd 28fb 1bbf 82a0 a0be
00000070: 34c3 4abe 3617 723d c8ac a1be 8bc6 163f
0.029829824 0.28629333 -0.05541222 -0.41916275 0.29648727 0.31190246 -0.006798904 0.29772425
-0.029317077 0.072961934 0.25921384 -0.5786452 0.052989874 -0.07615957 -0.5012115 -0.1995398
-0.08420729 -0.12858742 -0.18214808 -0.21779819 -0.02028741 -0.041152608 -0.76327765 -0.12182176
-0.26106784 -0.08911511 -0.6093011 -0.31372458 -0.19801027 0.059104167 -0.31577134 0.588967

bn_3.running_var f4 [32]
00000000: 59ea 0a3e 66f4 aa3d e79d 9b3d a4b7 cd3d
00000010: b2e6 033e 78a5 b53d faf2 b33d 4ecc cb3d
00000020: 8878 853d 1cf0 623d 7cd2 903d d6dd ca3d
00000030: ce19 a53d e223 af3d 74e2 ea3d 734e 923d
00000040: d07a 993d cd8d bc3d f652 9e3d af5c 8d3d
00000050: 31ec 7c3d 90ac 8d3d 2550 aa3d edbf c63d
00000060: b9fd ae3d 97c5 d33d fb71 f13d e4cf 773d
00000070: 80c0 8e3d 20c2 b83d 22a9 6c3d b63d c33d
0.13565959 0.083473966 0.07598477 0.10044792 0.12880972 0.08869451 0.087865785 0.099510774
0.0651713 0.055404767 0.07071397 0.09905593 0.080615625 0.08551766 0.11468974 0.07143869
0.07494128 0.09206734 0.07730667 0.069024436 0.061748687 0.06917679 0.083160676 0.09704576
0.085444875 0.10340422 0.11789318 0.060500994 0.0697031 0.090214014 0.057778485 0.09533255

fc1.weight f4 [10, 288]
00000000: f833 d53d 6d48 52bd 280b 85bd cd2c 153d
00000010: 6df5 2ebd 4312 c5bd c93c 2fbc e054 4cbe
00000020: 0da5 11be 954b 30bd 2da6 17bd 6e6e 023e
00000030: 7288 f7bd 1cae d3bd 3955 d0bd 5c62 4d3e
00000040: 9ad2 103c f391 65bd 5386 babd 6706 72bd
00000050: 14d1 30be ebb3 d6bd 862c 3f3e bb96 ccbc
00000060: 5921 843d a71f 863e 7399 983c 297f 1fbd
00000070: 2d83 6ebd 6a73 b8bd f633 933d 6510 913d
00000080: adfd b0bd 5c08 cd3d 4db8 fd3d 6119 90bd
00000090: 0c34 d13c 310d e83c b7df cd3a 56f3 e63c
000000a0: c85a 733d ca71 713b e61d 7a3d 43d0 c23d
000000b0: 4945 253c 33dc 30bd 2ec5 50bd 8590 6f3d
000000c0: 0c7b 083d cfd5 c03c 6d69 cbbc 2b63 73bc
000000d0: e591 1ebd 8d83 97bd 63e2 aabc 9b06 d8bd
000000e0: 2bd0 99bd 0738 36bc 060c 483b 6a7c 123c
000000f0: 1d0a df3c a171 9d3e f132 483e a0ff 4eb9
00000100: 7ca2 a73c ce68 473d 8568 48bd 8587 103c
00000110: 8ca8 3d3d 23df 9f3b 1dd9 29bd bbb4 16bc
00000120: 9bce 81bd 4e01 07bd 1750 adbd 764f 5dbd
00000130: bffb bebd 9541 cf3d 2492 27be 55f5 2bbe
00000140: 3c63 ea3e dabc b7bc 7f82 16bd 47c7 beba
00000150: 223a 22bd 5ea6 eabd 15b8 6ebd 9f56 ea3d
00000160: d120 ebbc 897d 15be b43e 8b3d 0351 95bb
00000170: d3f5 0abe 9869 473e 0151 c8bb 8880 c1bd
00000180: 8014 963d 7139 c4bc ad8c a73e f631 323d
00000190: 81d1 e5bc 2232 70bd 32fe 6fbd 18b2 223d
000001a0: 8d6d 3f3c 770e 86bd 23ea bc3d 5be4 303c
000001b0: 68a1 0fbd 400b ee3c 65cd a13c b827 a5bc
000001c0: 3c31 a93b 1e12 1dbe 283e 6e3b f604 84bd
000001d0: 549c 58bd 27e3 4fbc ac6a 463e a956 d23d
000001e0: 4b74 8bbd 3a06 a43b b6d9 b4bd 7d4f 5fbd
000001f0: b5dc 77bd 8b20 4bbd 9b4f dbbc 720a aebc
00000200: fcba 31bd 6d03 1dbd 164f 593d a615 5fbc
00000210: 3564 4bbd 2507 d03d 77b2 e13b 8871 1fbd
00000220: 642d f2bc 8aa0 353d 94c5 57bd e938 103d
00000230: ff11 46bd abd3 643d 8fb5 043c 4c41 17bd
00000240: 3a73 a3bb 026c 6f3b 7004 89bc 8a6b 0f3c
00000250: 3102 893c 8f7c 313c 5c4a 96bc 986f d1bb
00000260: 1ac9 eb3c 088c 663d a767 2bbd 1a63 19bd
00000270: e684 a43c 4238 babd 64f5 a43c 31ce cc3c
00000280: 8b7f c13d d560 7a3c a7d6 0abc 3fe5 2dbc
00000290: 0b8d 61bc 9c7b a3bc a32b 2abd 39b1 7b3c
000002a0: d60e 083d da69 7fbd 3855 08bd f819 11bc
000002b0: 2fbf 75b6 0432 76bd e8e4 06bd 0a25 d63c
000002c0: 8ce7 263d 375a 50bd b82b 50bd 931c 9c3c
000002d0: 51a7 443c fcaa b33c c361 5f3c 0305 2abd
000002e0: 670c a53d 7ac5 0e3c 2434 d0bc 6cb9 d9bc
000002f0: 70b3 c83d 9108 f6bc 36a7 97bd 8e7b 18bd
00000300: 3a54 02bc 2ae9 fcbc a10a 2a3d f1de 16bd
00000310: 4ba3 b93c a314 953d 9bc9 1f3d a6f5 aebc
00000320: 874f 5e3d c319 d4bd 6a82 d7bc b8f3 063c
00000330: b32e 21be 687b bc3b c538 cabd 6b63 98bd
00000340: 6d9e 7ebd 6d34 88bd 2b9d d9bd 4f23 4f3e
00000350: b733 d83d c537 173d c8eb 9e3e 9099 783d
00000360: b8c5 203d 54bb 963c 1d74 1e3d d26b 273d
00000370: c36d 65bd 3edf b6bc 6db3 9d3c 1fb2 ed3b
00000380: a026 3ebd e72e 8c3d 84a1 463d 1894 8cbb
00000390: 71ff a0bd e31b 81bd 608a 54bd 8369 04be
000003a0: aa7b c83c 9c7c 583d 02df b73d 2ec8 103c
000003b0: ea48 f6bd 7de3 f83c 6d78 233d e0dd 133d
000003c0: b22f 333d cd93 f13c a2c7 71bc 9dae 4fbd
000003d0: ffaf 183d f48a 063e 4ab7 99bd f38d ab3d
000003e0: f7f4 813d c8f2 e1bb 34e3 723d 0fea bd3d
000003f0: 9630 643d 1d36 e43a ae6d 7fbd 6bc6 6d3d
0.10410303 -0.0513386 -0.064962685 0.03641968 -0.042714525 -0.09622624 -0.010695645 -0.19954252
-0.14223118 -0.04304083 -0.037023712 0.12737438 -0.12086572 -0.10335943 -0.10172505 0.20057052
0.008839274 -0.05604739 -0.091076516 -0.059088137 -0.17267257 -0.104835354 0.18669328 -0.024974218
0.06451673 0.26196024 0.018627858 -0.03893963 -0.058230568 -0.090063885 0.07187645 0.07083205
-0.08642135 0.1001136 0.12388668 -0.07036091 0.025537513 0.028326603 0.0015706931 0.028192203
0.059412748 0.0036841505 0.06106367 0.09512379 0.01008732 -0.04317875 -0.050969295 0.058487434
0.03332047 0.023539452 -0.024830544 -0.014855186 -0.038713355 -0.07398138 -0.020859903 -0.10548135
-0.07510408 -0.011121756 0.0030524745 0.008940795 0.027226502 0.30750754 0.19550683 -0.00019740919
0.02046322 0.048683934 -0.048927803 0.008821373 0.046303317 0.004878895 -0.04146682 -0.009198363
-0.06338235 -0.03296023 -0.084625416 -0.054030858 -0.093253605 0.10119931 -0.16364342 -0.16792805
0.45778835 -0.022428919 -0.036745545 -0.0014555239 -0.03960622 -0.11457513 -0.058281023 0.11442303
-0.028702172 -0.14598669 0.06799069 -0.0045567765 -0.13570337 0.19473875 -0.006113172 -0.094483435
0.07328129 -0.023953171 0.32724515 0.043504678 -0.028054 -0.05864156 -0.05859203 0.039720625
0.011683834 -0.06545728 0.092243455 0.010796632 -0.03506604 0.029058099 0.01975126 -0.020160541
0.00516334 -0.15338942 0.0036352966 -0.06446259 -0.05288346 -0.012688435 0.1937663 0.10270435
-0.068092905 0.005005625 -0.088305876 -0.054519165 -0.060513217 -0.049591582 -0.026771357 -0.021245215
-0.043391213 -0.038333345 0.053053938 -0.013616001 -0.04965611 0.10157613 0.0068877297 -0.03892663
-0.02956266 0.044342555 -0.05267866 0.035210524 -0.048357006 0.055865925 0.008099928 -0.036927506
-0.0049881013 0.0036532884 -0.016725749 0.008753667 0.016724678 0.01083292 -0.018346004 -0.006391477
0.028782416 0.056285888 -0.041846897 -0.037448026 0.020082902 -0.090927616 0.020136543 0.025000663
0.09448155 0.015281876 -0.008474029 -0.010613739 -0.013766537 -0.019956402 -0.04154552 0.015362077
0.033217274 -0.062356807 -0.033284396 -0.008856289 -3.6619128e-06 -0.060106292 -0.032933146 0.026140708
0.040748164 -0.050867286 -0.050822943 0.019056594 0.012002782 0.021932118 0.013634148 -0.041508686
0.08059006 0.008714074 -0.025415488 -0.026577674 0.0979985 -0.030033382 -0.0740494 -0.037227206
-0.0079546515 -0.0308729 0.041514043 -0.036833707 0.022660872 0.07279327 0.039010625 -0.021357369
0.054275062 -0.10356476 -0.026307303 0.008236818 -0.1574047 0.005752016 -0.09874109 -0.074408375
-0.062162805 -0.066506244 -0.106256805 0.20228313 0.10556739 0.03691842 0.31039262 0.060693324
0.03925106 0.018399872 0.038684953 0.04087431 -0.05601288 -0.022323247 0.019250596 0.0072538997
-0.046423554 0.068448834 0.048493877 -0.004290115 -0.078612216 -0.06304147 -0.051889777 -0.12930875
0.02447303 0.05285321 0.08978082 0.008836789 -0.12025626 0.030381912 0.03990977 0.03610027
0.043746658 0.029489422 -0.014757069 -0.050703634 0.037277218 0.13138944 -0.07505663 0.08376684
0.063455515 -0.006895397 0.05929871 0.09273159 0.055710398 0.0017411147 -0.062360458 0.058050554

fc1.bias f4 [10]
00000000: ddb1 1cbd 5906 223c 5fa5 373d 9518 8c3d
00000010: acc5 1bbc 278a 483d b72f 7dbd 2638 84bc
00000020: 8744 263d 4cbc 893d
-0.03825556 0.009889209 0.044835445 0.06840626 -0.009507578 0.048959877 -0.061813083 -0.016140055
0.040592697 0.06725368
