HW2/hw_alex/hw2_py/results/_13_23_18/lr_0_1_net_1_CE_/model.pth (torch_old, 39192 bytes, 20 tensors)

conv1.weight f4 [8, 1, 3, 3]
00000000: 7d72 a93d c118 083c 9f29 47be c85a 233e
00000010: bb2e b23c 9962 b2be 63a4 b1be b87f b4be
00000020: aae3 ab3e 53d6 64be ac43 a6be af1f 82be
00000030: d44b b5bd cfa9 063e 2acb 8c3e b0a6 7ebd
00000040: 118b 71be 6bab afbd 0e60 b03e 9732 80be
00000050: 13b1 9b3e 48f8 a53e bcfd cd3d f073 893e
00000060: 6f74 e73d 9167 243e 0787 013d 0062 debd
00000070: 77a1 9c3e 59d7 b13e 711b 433d 8b94 7fbe
00000080: c9ed 61be 7261 bfbe bc84 dabd 23db 8dbe
00000090: e940 0bbe a751 9abd 6b16 853e d8e4 0dbe
000000a0: 38eb b43e a20c 6dbd 1bbe 143e 45b1 2b3e
000000b0: 22f6 77be 7a6f 9b3e 1621 0e3e 9615 bebd
000000c0: f5e9 2ebd b539 5e3e 2f67 0e3c a14f 78be
000000d0: 6010 5fbd 0bcb 803e f842 0a3d a5c6 43be
000000e0: 9fa9 54be 0d74 053e 7922 b03d 1377 41be
000000f0: df39 a83d e0ab 893d 5cb2 bd3e 58db 3dbe
00000100: 8de7 343e dbfc 633e 26fe 76be b1f8 d7bd
00000110: 5da4 283e d48a 8bbe bd89 0f3d 67cd 87bd
0.0827379 0.008306683 -0.19449471 0.15952599 0.021750798 -0.3484085 -0.3469573 -0.35253692
0.3357213 -0.22347383 -0.32473505 -0.25414798 -0.08852354 0.13150714 0.27498752 -0.062170684
-0.23588206 -0.08577617 0.34448284 -0.25038597 0.30408534 0.32415986 0.100581616 0.26846266
0.11301505 0.16055132 0.031622913 -0.10858536 0.30591938 0.3473461 0.047633592 -0.24959008
-0.22063364 -0.37379032 -0.10669848 -0.2770625 -0.1359898 -0.07535105 0.25993666 -0.13856828
0.35335708 -0.057873376 0.14525644 0.16766842 -0.24214986 0.30358487 0.13879809 -0.09281461
-0.042703588 0.21701701 0.008691593 -0.24249126 -0.054458976 0.2515491 0.033755273 -0.19118746
-0.2076783 0.13032551 0.08600325 -0.1889308 0.08214163 0.06722236 0.3705014 -0.18540704
0.17666455 0.22264425 -0.24120387 -0.10545481 0.1646895 -0.27254355 0.035043467 -0.06630974

conv1.bias f4 [8]
00000000: 294a 99be ec21 593e bd04 99be 38fa 55bd
00000010: f3ee a1be 959a 303e c87f 80be 9bd4 9dbd
-0.29939392 0.21204346 -0.29886428 -0.05224058 -0.31627616 0.17246468 -0.2509749 -0.07706567

bn_1.weight f4 [8]
00000000: c42c ef3e 166e cf3e 921f cf3e 28df 4d3f
00000010: 744c dd3e c119 0b3f 7beb be3e d907 2d3f
0.4671384 0.40513676 0.40453774 0.80418634 0.43222392 0.5433617 0.37289032 0.675901

bn_1.bias f4 [8]
00000000: 394f 54bd e382 cdbd b396 303e 67a6 7ebd
00000010: 1346 94b9 5d6f 75bc 948f 81bc 9f1a ebbb
-0.051833365 -0.1003473 0.17244987 -0.062170412 -0.0002828097 -0.014980164 -0.015815534 -0.0071748043

bn_1.running_mean f4 [8]
00000000: da76 183e 8044 523f 5fc4 a2bf d3b2 bd3e
00000010: e682 00bf a4af 1ebe 31ff afbe 13c2 d43d
0.14889088 0.8213577 -1.2716178 0.37050495 -0.50199735 -0.15496689 -0.34374383 0.10388579

bn_1.running_var f4 [8]
00000000: 7c4f 3d3e 6607 703e cca8 0b3f e7cc 703e
00000010: 4d1e 8e3d 9051 bd3d 0cba 8b3d c1c5 de3d
0.18487352 0.23440322 0.5455444 0.23515664 0.06939373 0.092440724 0.06822595 0.10877562

conv2.weight f4 [16, 8, 3, 3]
00000000: 6e28 28bd 912d 90bd d00d 09bd 05f8 58bd
00000010: a683 43bd 412f a53d 748a 273d 429d 7e3d
00000020: 6470 d9bc ebdd 0cbd 936d 3d3d f249 cf3d
00000030: e6e3 5ebd 1a97 8dbd c1a2 15bc 7c52 be3d
00000040: bbe5 ebbc 036a d0bc 70b5 f5bd 1343 97bc
00000050: 5368 9c3d 42dc 0fbe ca75 c7bd a3f5 1dbe
00000060: 47d1 7cbd 0b9c 0e3e 4a6d 343d fed4 4f3c
00000070: 4015 edbb 6aac 8aba da9d 28bd fb65 973d
00000080: 5d08 88bc f34f a1bc 8c86 163d 55a7 07be
00000090: 4a8c 3d3c 24e3 b0bc 82b4 22bd 9cc6 46bb
000000a0: e779 a73d cf57 24bd c254 cb3d a801 d33d
000000b0: 1c4d afbb 6c17 8a3d 4e33 3e3e 3042 67bc
000000c0: 4c67 a5bd e898 d9ba 869f dfbc bfef c73c
000000d0: 273f 89bd 383f b7bd 4647 21be 3c69 35bc
000000e0: 2eb5 c9bd ffb3 6cbd c349 08bd e449 2a3d
000000f0: 7bb0 733d d48f 203d 9de2 8bbd 2f7a 893d
00000100: 94c0 d13d c8fd 91bc c05a 50bc 42e4 c63d
00000110: 79bb 18bc 187c 08be 78e9 21be 5cab 03be
00000120: 2309 03bc 8585 bebc 8c4f 323c de76 cfbd
00000130: 96df a7bc aeb2 1cbd 23f8 dcbd b5cd 22bd
00000140: 59c9 dd3d 55fa c3bd 1c07 3abd 11e2 ed3d
00000150: 1384 eb3c edbc 7b3d 196a 1dbd 6142 cb3d
00000160: 7ab2 073d 66fc 07bd f79c 413c d953 bfbc
00000170: 96cb 42bd 0d95 82bc e15d acbd 81f8 7ebd
00000180: 48dc cebd 7bd4 ac3d 1973 b0bb db96 4a3d
00000190: 3f24 c6bd 86a2 083c d004 bc3c e455 f1bc
000001a0: 66c7 de3d fade 013e 21a7 5c3d ade3 353c
000001b0: f305 62bd 85cf 5c3d d077 a1bd b70d 9abd
000001c0: f868 4ebd ee39 eebb dbdd 173e 60e2 9a3d
000001d0: ce1b fd3d 825e b7bc eede 123e 0c30 e7bd
000001e0: 41b2 e63d 139e 5d3d 717a 6c3d 9e89 d73d
000001f0: 302a d4bc a81b 6abd e694 9f3d 9cb1 96bd
00000200: 0b15 2e3d 9d2f 043e d96f 0fbd 614e f43d
00000210: 9ab2 a2ba 59ae 9f3d 649b bfbd 9c6c e93c
00000220: a112 e43d 3b4f a0bb aac8 513d da8d d23c
00000230: 03b4 793d 3931 d9bd cb14 0bbb 8a27 2c3d
00000240: 5f9e 86bd d8bc c3bd da00 cabd 308a 013e
00000250: 9a91 a53d 496e 133d 393c b53c 0bf6 983d
00000260: 2800 c33c 6321 51bd f6f2 4d3d cbfe 6e3d
00000270: 3e35 9dba 6e7c 123d 4fa3 58bd d148 29bd
00000280: 30e4 70bd 58a4 783d 3016 75bc 380e bd3c
00000290: f1e2 cfbd d707 36bd 3199 813d 0cee 0a3e
000002a0: 9957 cbbd d936 9f3d a35a c33d 6914 9b3b
000002b0: 580d c63d d217 083d 1d7e 193d 5518 fe3b
000002c0: 1f3a 2cbd 47af 41bd 654d edbd f7c6 02be
000002d0: 640a 923d a8f7 80bd e2ca 26bd beca 5ebd
000002e0: cf0e bc3d d030 223e 5c2c bebd 6791 cc3d
000002f0: 3b66 433e 7d3d 793d 8e49 1b3e fc0e d23d
00000300: d6d6 6c3c fb18 143e 8e7e 503d f0cd 7ebd
00000310: d0a8 bf3c 3e40 d93d 74f9 6f3d 729b 55bd
00000320: 424d 8fbd fe5f 8abd 710b cdbd 0c19 dc3c
00000330: 6299 5fbd 330f 893d 6999 97bd 8187 f23c
00000340: 7c5d 5b3d 65fc 773d 6b3c 663d 3cf3 b73d
00000350: 021e 943d 2e3c 863c ccd3 7c3c 3b49 d93d
00000360: 9818 493d d28d 20bd bde1 9fbd b790 4fbd
00000370: 6f90 f73c 0650 1c3d 334e a4bc 16e1 a7bd
00000380: d3e5 06be 8654 353d f730 553b ebc9 323d
00000390: 0bf6 b8bb 3d64 173d ee36 333d bd92 15bd
000003a0: b54d e5bc b136 89bc fae5 353c d7aa 423d
000003b0: 7ef5 813d a927 d23d 0126 a1bc c029 49bd
000003c0: ff3d 883a 2f1e 0fbe f688 14bd 9c96 753c
000003d0: 3382 003e c01f 9e3d fc50 153d 7583 a33d
000003e0: 0e1b df3d 06b9 02be 8499 a13c a2ac 9f3c
000003f0: 51d7 48bd 51e9 063e 7f5a 653e 3c40 c3bc
-0.04105418 -0.07039941 -0.03346044 -0.052970905 -0.04773297 0.080656536 0.040903524 0.06216169
-0.02654285 -0.034391325 0.046247076 0.10121526 -0.05441656 -0.06913586 -0.009133042 0.092930764
-0.028796067 -0.025441175 -0.11997497 -0.0184646 0.07637086 -0.14048865 -0.09739263 -0.15425734
-0.06172302 0.13926713 0.04404954 0.012685059 -0.007235199 -0.0010579948 -0.041166164 0.07392498
-0.01660555 -0.019691443 0.036749408 -0.13247426 0.011569092 -0.021592684 -0.039722927 -0.0030330783
0.08177548 -0.040122803 0.09928276 0.1030305 -0.0053497683 0.067427486 0.18574259 -0.014114901
-0.08076343 -0.0016601356 -0.027297746 0.024406312 -0.067014985 -0.08947605 -0.15749845 -0.011072453
-0.098490104 -0.057788845 -0.03327347 0.041574374 0.059494477 0.039199665 -0.068303324 0.06712758
0.102418095 -0.017821208 -0.012716949 0.097115055 -0.009322041 -0.13328588 -0.15811718 -0.12858337
-0.007997784 -0.023257026 0.010883223 -0.10130094 -0.020492356 -0.03825634 -0.10789516 -0.03974696
0.1082942 -0.095692314 -0.045416936 0.11615384 0.028749501 0.06145947 -0.03843126 0.0992477
0.033129193 -0.03319969 0.0118172085 -0.023355411 -0.047557436 -0.015940214 -0.084163435 -0.06224871
-0.10100609 0.08438965 -0.0053848145 0.049460273 -0.09674882 0.00833953 0.022951514 -0.029459901
0.10877876 0.12682715 0.053870324 0.011101645 -0.055181455 0.053908844 -0.078841805 -0.07522147
-0.050393075 -0.0072700894 0.14830725 0.07562709 0.12358819 -0.022383932 0.14342853 -0.11288461
0.11264468 0.05410583 0.057733957 0.10524295 -0.025899023 -0.05715528 0.07792072 -0.07358095
0.042500537 0.12908788 -0.035018776 0.11929012 -0.0012412847 0.07796926 -0.0935581 0.028494172
0.11136366 -0.0048922575 0.05121676 0.025702406 0.06096269 -0.106050916 -0.002122211 0.042029895
-0.06573176 -0.095575035 -0.09863444 0.1265037 0.08084412 0.035993848 0.022123443 0.07468804
0.023803785 -0.05105723 0.050280534 0.05834846 -0.0011994017 0.035763197 -0.05289012 -0.04132921
-0.058811367 0.060703605 -0.014958903 0.02307807 -0.101507075 -0.04444107 0.06328047 0.1356737
-0.09928817 0.07774133 0.09538772 0.0047326577 0.09670514 0.03322584 0.037473787 0.0077543654
-0.042047616 -0.047286298 -0.115870275 -0.12771212 0.07130888 -0.06297237 -0.040720828 -0.05439257
0.09182512 0.15838933 -0.09285805 0.09988671 0.19081967 0.060849655 0.15164778 0.10256764
0.014455518 0.14462654 0.050901942 -0.062208116 0.023395926 0.10607956 0.058587506 -0.052150197
-0.06997158 -0.0675659 -0.10011948 0.026867412 -0.054589637 0.06692352 -0.074023075 0.029605629
0.05355595 0.060543437 0.056209963 0.0898194 0.07232286 0.016386118 0.015431356 0.10609671
0.04909572 -0.03919775 -0.07806728 -0.05067512 0.030220238 0.038162254 -0.02005682 -0.081972286
-0.13173608 0.04427006 0.0032530406 0.043649595 -0.005644565 0.03696083 0.043753557 -0.036516894
-0.027991155 -0.016749712 0.011102194 0.047526207 0.06345652 0.10261471 -0.019671442 -0.04911208
0.0010394453 -0.13976358 -0.03626343 0.014989521 0.12549667 0.077208996 0.036454186 0.07984058
0.10893832 -0.12765893 0.019726522 0.019491497 -0.049033467 0.1317494 0.22397803 -0.02383434

conv2.bias f4 [16]
00000000: 15bd af3d f1ed cb3d 19e4 2c3d bc1a aabd
00000010: 8627 d8bd cb9b c7bd 4efe 0c3c df1e 33bd
00000020: 2b7b d43d de53 ac3c f155 843d ddad 37bc
00000030: 47b2 b53d 7247 81bd 0595 7b3d 5b70 933c
0.085809864 0.09957493 0.04220972 -0.083058804 -0.105544135 -0.09746512 0.008605553 -0.043730613
0.10375055 0.021036085 0.064617045 -0.011210886 0.08871894 -0.06312455 0.061421413 0.017997911

bn_2.weight f4 [16]
00000000: 09ec 3f3f 0178 7a3e 55c4 553f 5f1b 523f
00000010: a50d 1f3e 2068 563e 029e 4f3f 9364 243f
00000020: 3682 f73e bde0 1c3f 1bfe 983e bc08 753e
00000030: aa19 083f 29ad 02ba af29 333f ec1f 463f
0.74969536 0.2445984 0.83502704 0.82073015 0.15532549 0.20938158 0.81100476 0.64215964
0.4834153 0.61280423 0.29881367 0.23929113 0.5316416 -0.00049849093 0.6998548 0.7739246

bn_2.bias f4 [16]
00000000: f9fa 21bd 54e8 9dbd 2377 95bd 68cb 3cbb
00000010: a14d 083c 39d7 31bc b24a 52bd dd7b 88bd
00000020: 0e5b 95bd 7936 9fbd c837 383c 8c60 11bd
00000030: 9d7b 4d3d bfa8 80bb af87 89bd 860f 7d3d
-0.039545987 -0.07710329 -0.07298114 -0.0028807763 0.008319289 -0.010854536 -0.051340766 -0.0666425
-0.07292758 -0.07774062 0.011243768 -0.035492465 0.050166715 -0.003926366 -0.06715333 0.061782382

bn_2.running_mean f4 [16]
00000000: 1936 3cbe 2675 b63e b8b2 003f 9c0f fa3d
00000010: bc4c 22be 40b1 8a3e f410 863d adf6 4bbc
00000020: 3d09 403e 8054 91be 1a38 25bc 72ae 14bd
00000030: 4236 143e 2d29 13be f3c5 113e cfb8 ee3e
-0.18380012 0.35636252 0.50272703 0.122100085 -0.15849584 0.27088356 0.06546202 -0.012448949
0.18753524 -0.2838478 -0.010084176 -0.036299177 0.14473823 -0.14371176 0.14235668 0.46625373

bn_2.running_var f4 [16]
00000000: aeb4 193e fc39 423d f194 943e d181 2d3e
00000010: e6fa 6e3d 140e c13d 1b80 103e 8e48 dc3d
00000020: 37cb cb3d 0c7d ce3d ea40 bf3d b989 093d
00000030: af67 823d 8163 8c3d 9aef cb3d 8ada 4b3e
0.1501033 0.04741858 0.29019883 0.16944052 0.058344744 0.09426513 0.14111368 0.10756026
0.099508695 0.100824445 0.09338553 0.03357861 0.06367432 0.06854916 0.0995781 0.19907585

conv3.weight f4 [32, 16, 3, 3]
00000000: 969e 89bc e225 75bd f467 08bd 678c 853c
00000010: 5bab 1cbc 5432 27bd 66cf 2cbb 7df0 883d
00000020: 4550 24bd 8d95 8bbd 2112 18bd 57bc 9bbd
00000030: 03a9 b0bd b425 43bd fa67 a2bb 4bc4 98bd
00000040: 34a6 fdbc 6a36 eabc e3c8 873d ca12 81bd
00000050: 76c0 9d3d 6e30 953b 62c3 aabd bac9 8a3d
00000060: 77d0 b13b 75ff a3bb acae 3cbd 2b6f 85bd
00000070: 2054 25bc c1b2 e8bc d21f 7f3c 4497 32bb
00000080: 18c6 80bd 7e45 773b 17f3 7a3c 74d2 233a
00000090: cf70 5ebd 0c90 9d3c 5dbe 5fbd 9487 d03c
000000a0: ba14 6ebd 799f 90bd 8402 773d 3990 6b3d
000000b0: ad42 bf3c 60da 553d 9b8b fd3c 96fc b33c
000000c0: 9d7c 08bd 5fe5 1dbc 9bec 103d c3e1 913d
000000d0: a846 7c3c 8cdf ddbc aaab babd d7c3 1cbb
000000e0: 28a2 353d 4d7f 56bd 94a5 723c 4fc1 adbd
000000f0: dc4d 99bc 935b 9b3d 0a70 88bd 432f 9abd
00000100: 0a96 043d 7150 523d 3b4a 043d 53e6 8dbd
00000110: 79b1 02bd 6837 103c 78dd a0bd 44f8 033d
00000120: bdde fe3b 660f a8bd 513a 083d 9e70 153d
00000130: fec6 1bbc a36e 993c be9e b3bd 3468 52bd
00000140: 5567 34bd 7fd8 91bd e60e e13b 8e17 af3c
00000150: 835e a83d 11f1 813d 6ca4 813d c576 32bd
00000160: ae2b 54bd 362f 513d e72d 583d 8b3d 33bd
00000170: 3ce8 9f3d ed11 8cbd a908 873d 2a51 393d
00000180: 833f 193d 4d63 873d 2f21 d73a 3688 193d
00000190: e8c3 55bb 5bd0 42bd 37c7 6abc 3397 833d
000001a0: 32ac 7a3c 8cf6 80bb f2be 0c3d 07d2 94bc
000001b0: 4b68 5f3d 25e7 3c3d 2c6d 0b3d db68 f9bc
000001c0: 3a74 4cbc b33b 953c d907 f8bc c0c4 57bd
000001d0: cb4e d83b e8d2 f5bc 7557 153d 41db 5d3d
000001e0: 75d5 193d 6711 be3c 7bf6 39bb 554b 62ba
000001f0: 9ca9 a33d 88a2 a83d b5aa ba3d 608d 903c
00000200: cc1e d9bc 7010 34bc 00aa 92bd 0073 5bbb
00000210: 94ce 9abd 85b0 98bd 3376 533d ec89 e0bc
00000220: 0fdc 4ebc b6f4 ad3c ceab 4fbd c97c dabc
00000230: 7192 edbd c250 883c cad2 05bd 0c3a b9bd
00000240: feeb 953d 07a8 82bb eb46 1cbd f982 cb3d
00000250: d59e c5bc 9788 843d 1f8f c53c 4f12 23bc
00000260: d09d 0a3d 8bf2 8a3c 46d6 80bd 545c 56bc
00000270: 2dc4 3fbd 30bb 72bd 5cdc b6bc e693 f6bd
00000280: 932d 72bd e9fa 083d e99e aebc aea3 c3bc
00000290: 26f2 54bd 296f c73b 39af 663d 3661 003e
000002a0: e915 3e3d 1e05 48bd 9d1d 3d3c 01e7 07bd
000002b0: b4cd b1bc a2ee 1d3d c0fc 09bd 7a9c ddbd
000002c0: 9309 4ebd 1c4d 4e3c a3c1 d9bc 396e 633c
000002d0: 906b f63a 23de 6c3d 011b 03bd 3b8b 163d
000002e0: 8761 f9bc f400 6b3d 781a abbd 770b 5a3d
000002f0: c694 643d 1fdf 9dba 9ff1 2bbb 03dd f63c
00000300: 8e4f a33d dd5f a3bc c07e 9e3c a1d9 5c3d
00000310: 50e0 0bbd 46e1 5ebd 74a4 df3d 4214 cb3d
00000320: f1ba 6e3c 89eb 4d3e b2d5 1d3e e72f 5dbd
00000330: fe6e 4e3d d0df 153d 678e aabc de4c b3bc
00000340: ebbb b33c 1590 f33b 1f07 a7bc 07b2 9ebd
00000350: dc32 2ebd f046 ac3d b9fc 983d 4ea1 29bd
00000360: 8a90 943d 8c73 823d 3c4f 913d 05c2 2a3d
00000370: bb63 893d f2bf a83c 9525 c53d 8c85 9b3d
00000380: ffe8 8d3c 1de4 d1bc a8f4 bebc a074 c43d
00000390: edbd afbd 1a9a 673c c986 30bd 646c 6c3d
000003a0: 32bd 143d 647a 85bd 7d8f 01bd 73db d03b
000003b0: f6ac 883c ff0f b53d 2368 b93c 12eb 1a3d
000003c0: 3b41 00bd 3d9c 0ebd 9518 95bc b7c0 2f3c
000003d0: 2000 ac3d d052 cc3b 2060 603c 9265 693d
000003e0: 9324 993b f058 95ba 665f b93b a46e 7cbd
000003f0: 9b5a 7e3d 516c 7abd 0c2c 38ba dfde 123d
-0.016799252 -0.05985058 -0.033302262 0.0163023 -0.009562339 -0.04081948 -0.0026368736 0.066864945
-0.040115613 -0.06815634 -0.037126664 -0.07604282 -0.086259864 -0.04764338 -0.0049562426 -0.07459315
-0.03096304 -0.0285904 0.06630113 -0.06302412 0.07702725 0.0045528924 -0.083380476 0.067767575
0.0054264623 -0.005004818 -0.046065018 -0.06515344 -0.010090858 -0.028405549 0.015571551 -0.0027250806
-0.062877834 0.003773063 0.015316746 0.00062493165 -0.0543068 0.019233726 -0.054624904 0.025455274
-0.058125235 -0.07061667 0.060305133 0.05751059 0.023347223 0.05221021 0.030950358 0.021971028
-0.033321965 -0.009637206 0.035381895 0.07123139 0.015397705 -0.027084135 -0.091147736 -0.002392044
0.044344097 -0.052367497 0.014809985 -0.08484136 -0.018713884 0.07585826 -0.06661995 -0.07528546
0.03236965 0.051346246 0.032297354 -0.069286965 -0.031907532 0.008802272 -0.07854742 0.032219186
0.0077780173 -0.08206062 0.03325874 0.036484353 -0.009507893 0.018729514 -0.08770512 -0.051368907
-0.044043858 -0.071213715 0.006868231 0.021373536 0.08221152 0.06344808 0.06330189 -0.0435703
-0.05179947 0.051070414 0.05277815 -0.043759864 0.07807967 -0.068393566 0.06593449 0.04524342
0.037414085 0.06610737 0.0016413088 0.037483416 -0.003261799 -0.047561985 -0.014329723 0.06425323
0.015299844 -0.0039356407 0.034361787 -0.018166555 0.05454282 0.046118874 0.03403966 -0.030445507
-0.012478882 0.018216943 -0.03027718 -0.05267787 0.0066011897 -0.030007794 0.03646036 0.054164175
0.037557084 0.023201657 -0.0028375674 -0.0008632441 0.07991335 0.082341254 0.09114591 0.017645538
-0.026503943 -0.010990247 -0.07161331 -0.0033485293 -0.07558933 -0.074555434 0.051626395 -0.027409516
-0.012625708 0.021234851 -0.050700955 -0.02667083 -0.11600197 0.01664007 -0.032671727 -0.09044275
0.073204026 -0.0039873156 -0.03815357 0.099370904 -0.024123589 0.06471365 0.024116097 -0.009953096
0.033841908 0.016961357 -0.062908694 -0.013083536 -0.046817947 -0.059260547 -0.022321872 -0.12039928
-0.059125494 0.03344241 -0.021316009 -0.02388176 -0.051988743 0.0060862494 0.05631945 0.12537083
0.046407614 -0.048833005 0.011542705 -0.033179287 -0.021704532 0.038557656 -0.033688307 -0.10820861
-0.0503021 0.0125916265 -0.026581591 0.01388126 0.0018800367 0.057829034 -0.032008175 0.036753874
-0.030442012 0.057373956 -0.08354658 0.05323359 0.055805944 -0.0012044645 -0.0026236547 0.030134683
0.07974158 -0.019943172 0.019347548 0.053918485 -0.034149468 -0.054414056 0.10920039 0.09915973
0.0145709375 0.20109381 0.1541355 -0.05400076 0.05039882 0.036590397 -0.020819856 -0.02188724
0.021940192 0.0074329474 -0.020389138 -0.077488 -0.042528972 0.08411968 0.07470078 -0.041413598
0.07254131 0.06369695 0.07095191 0.041688938 0.06708475 0.02059934 0.09626309 0.075938314
0.017323015 -0.025621468 -0.02331002 0.09592557 -0.08581147 0.014135862 -0.04309729 0.057720557
0.036313243 -0.06517485 -0.03163098 0.0063738166 0.016684037 0.08840942 0.022632664 0.037821837
-0.03131221 -0.03481697 -0.018200198 0.010727099 0.08398461 0.006235458 0.013694793 0.05698163
0.0046735494 -0.0011394303 0.0056571243 -0.061628953 0.062098127 -0.061138455 -0.00070256065 0.035857078

conv3.bias f4 [32]
00000000: 50fa 9a3c 7e11 5ebd 8815 b23a 7819 67bd
00000010: 410f 8f3d 91da a73d cad8 abbb 3173 813d
00000020: c069 4b3c 77b0 9c3d 9f0a a8bd 30f3 d1bc
00000030: 4798 4f3b 66dd 253d d72b 84bd 562c 5e3d
00000040: fc4c a6bd 6e0b 10bd 957e 9e3d 9b69 1dbd
00000050: 92a9 393d 5859 3fbd a4f4 da3c 70cf a5bd
00000060: b332 8abd c4c9 a3bd d7e5 90bd 918e ee3c
00000070: ac3a ccbc 4677 6cbd fe80 3bbd 61e8 963d
0.018918186 -0.0542159 0.0013586739 -0.056420773 0.06985331 0.08195985 -0.005244349 0.06320799
0.0124153495 0.076508455 -0.08205151 -0.025628656 0.0031676458 0.040494345 -0.06453674 0.0542415
-0.08120152 -0.03516715 0.07738987 -0.03843079 0.04532773 -0.046716064 0.026727982 -0.08096206
-0.06747951 -0.07997468 -0.070750885 0.029120715 -0.02493032 -0.057730936 -0.045777313 0.073685415

bn_3.weight f4 [32]
00000000: 3f7b 433f 930f b23f f102 b73f 2924 cf3e
00000010: b0e7 a13f c2a5 743f c72e a93f f141 173e
00000020: a6d0 893f 91a4 923d c56e e93b 5195 723f
00000030: 1295 b13f 4bb9 a73f aa6a 2d3e 7d4f 983f
00000040: 2a51 2b3f 7c53 a93f 14a8 6d3f 8df0 c33c
00000050: ad9b e13e 0378 9a3f 9cbf 883f 7ffa b83e
00000060: 5f19 323f ca7a 633f f18f 6e3f 00ff cf3f
00000070: 02af b23f c02d c83e 747a 883d 6d2e ae3f
0.76359934 1.3911003 1.4297773 0.40457276 1.264883 0.95565426 1.32174 0.14771248
1.07668 0.07160295 0.0071238005 0.9475909 1.3873618 1.3103422 0.1693522 1.1899258
0.6692072 1.3228602 0.9283459 0.023918414 0.44064084 1.2067875 1.0683475 0.36128613
0.69569963 0.88859236 0.9318839 1.6249695 1.3959658 0.39097404 0.06663981 1.3607918

bn_3.bias f4 [32]
00000000: 7015 3d3e 6556 aa3e 5dee c83e 01f5 0a3e
00000010: da20 9b3e 7808 823e c078 b93e f246 433c
00000020: 4f38 553e d046 333c 84e3 22bc cd61 9f3e
00000030: c56b 8f3e 5b98 a33e c6d1 a83d ea3b 5c3e
00000040: 1b24 2c3e 6f1f 7f3e 2169 3c3e c08f ae3b
00000050: 7863 053e 14d8 8f3e c7be 5c3e 1fd5 5d3d
00000060: 01fc 3e3e 4abf 3e3e 6d32 533e 782e ad3e
00000070: 668b 8a3e fb1b d23d 6718 603c be65 c73e
0.18465209 0.3326904 0.39244357 0.13570024 0.302985 0.25397086 0.36224937 0.01191877
0.20822261 0.010942176 -0.009941939 0.31129304 0.2801191 0.31952175 0.08243136 0.2150723
0.16810648 0.24914335 0.18399478 0.005327195 0.13026226 0.28094542 0.21557151 0.054158326
0.1865082 0.18627658 0.20624705 0.33824515 0.27059478 0.10259243 0.013677693 0.3894481

bn_3.running_mean f4 [32]
00000000: 1b5d 23bf 77f1 fc3e 60f7 a8be 4278 3abd
00000010: c14b 933e e572 543e 48d0 1f3e 71ea 8bbe
00000020: aea1 753e e827 adbd 83d7 dabe 5394 143e
00000030: 0e2d 88bd 099b 43bc 6099 a0be ed48 09be
00000040: 4cd4 be3d 4f00 e6be 505c 4cbe 7c56 f0be
00000050: e66e 013f a990 cbbe 5622 81be f114 aa3e
00000060: 5b73 c03d fdbd 6e3e 8f50 13bd 0b90 c33e
00000070: 41f1 04bf b763 d5bc 4ed5 1bbe 4d9e bf3d
-0.6381394 0.49402973 -0.33001232 -0.045524843 0.28768733 0.20746954 0.15606797 -0.27327302
0.23987457 -0.08454877 -0.42742547 0.14509706 -0.066492185 -0.011938819 -0.31367016 -0.13406725
0.09317836 -0.4492211 -0.1995709 -0.46940982 0.5055984 -0.39758804 -0.2522151 0.33219102
0.09397002 0.23314662 -0.0359655 0.38195834 -0.51930624 -0.026048524 -0.15218088 0.09356365

bn_3.running_var f4 [32]
00000000: a10b c43d bb1f 033e 4b62 df3d b75e 403d
00000010: 44f0 b53d 065f d03d da8d c83d 3a43 843d
00000020: 75b6 b63d 2d9f 4e3d 12c4 9a3d 575f c43d
00000030: e9d9 c93d 1b96 9d3d 37f5 ee3d adab ef3d
00000040: eaf1 f83d 1ec1 c73d be6c fa3d 604d 943d
00000050: cd7a 063e 7212 eb3d 4be1 d73d c64b a83d
00000060: 08d8 c73d 8454 d03d 384d 1a3e 5b0e fd3d
00000070: a10f e83d 4fb9 893d f11c 6e3d 7fd1 0c3e
0.095725305 0.12805073 0.1090742 0.046965327 0.08883718 0.10174374 0.09792681 0.06458135
0.0892152 0.05044477 0.07556929 0.09588497 0.09856016 0.07694646 0.11667865 0.117026664
0.121555164 0.09753631 0.12227772 0.072413206 0.13132782 0.114781275 0.10541018 0.08217578
0.097580016 0.1017237 0.15068519 0.12356254 0.11331106 0.06724798 0.05813307 0.13751791

fc1.weight f4 [10, 288]
00000000: da3c 0ebd 6b17 a33d e77f 533c 9803 d63b
00000010: e2ed 723e aa0f bb3d 0017 d8bd 1b28 983d
00000020: f5fb c4bc 7c39 e7bc 6a97 f0bd 0de3 fb3d
00000030: 812a 53be 102a a0bd 8edc 233e 1253 1cbd
00000040: f411 4dbe dcdc 8abd 6025 3c3d d3ab 943c
00000050: cfe6 d8bd 2e9a 223e 4f88 e2bd bfcc 4bbe
00000060: 9f73 fc3d 2d46 42bd 7f61 21be 424e 0d3d
00000070: 78a7 1e3d f8b6 12bd 7bbf 90bc f333 48bb
00000080: a890 53bd ec15 21bd bd05 1b3c a564 a9bc
00000090: a139 f73c 54b5 273d f2d6 9c3b 7372 cbbc
000000a0: c6aa dbbd 0861 9bbd 0717 ad3c 3d9b a93c
000000b0: 39ac 11bd 20bd 983d 0e15 7cbd 6cd4 d9bd
000000c0: 9aeb c53d b700 87bd fa8b abbd d5a9 dbbc
000000d0: 70fd 04be 27f2 a03d 28b3 a7bd 5529 50bd
000000e0: 32f3 3ebd 7c27 4d3e 34f1 f9ba 60e7 1fbd
000000f0: 6c0f a43e 9a1e b63d 964d dfbd 4390 273c
00000100: dc0a d7bc ad6e 003d b4f9 41ba c5dc fdbb
00000110: 0b52 493d 2fb5 e03c 2583 c43c 8065 d53b
00000120: dbc8 7f3c e5c3 42bd 7c4d a03d 09c5 453d
00000130: 31e2 03bd a122 e93d c8cb 8d3d 1abd bbbd
00000140: 7f42 a6bd fe84 273d 54ea 2d3d bf71 f5bc
00000150: 0ff1 653d 6b2e 1cbd 73d7 763c a8f7 31bd
00000160: ac5c 093d 910a 923c 8089 01bd 6ca5 0f3d
00000170: fcdd 323d 7481 7a3c b424 19bd 7fc4 2f3d
00000180: 37f7 f03c d4c4 46bb 2a53 ee3c 0752 b4bd
00000190: c09a bcbc 23c5 fc3c 7eaf 16be 4396 e5bc
000001a0: ea4b 27bd 45fc 34be 5bee 55bd 933c 143d
000001b0: a6fe 3bbc 41de 7ebd 7c6e c7bd 7cf4 08be
000001c0: 76ea 45ba 073a b13c 1011 1ebe 736f 313e
000001d0: 7dc9 fe3e d65b 04be faf2 223d a220 703e
000001e0: c85a 11be ddbc e03d 0fc0 e63d 18db 02be
000001f0: 49e8 d3bd bc17 9d3b 8d74 233c e94f 533d
00000200: 1f3f e3bc 6885 53bd fb69 553c 06a9 33bc
00000210: af84 8dbd 4fe3 133d 7e77 2f3d e5bd 463d
00000220: 429e 7abd 6711 9fbc 88c2 c3bd cae3 53bd
00000230: e47a 9a3c 3d6e 663d d237 7e3e 09c8 413e
00000240: f526 a0bd ea45 d93c 4ff7 103e 587c 36bc
00000250: bca7 85bd 634f 32bd 3bd4 94bc f85a f2bd
00000260: 38cf cabd 5391 cbbb 46fc d1ba 0ef6 0bbe
00000270: 1cf4 5ebd dc32 2e3e b14c 3cbd 1307 57bd
00000280: 4ce5 503e e7f0 183d f58b 1e3e 94c4 ab3c
00000290: 25b1 d13b 3b3c 9fbd 6d87 7d3d 4252 133e
000002a0: bf9e 3dbd aa5d 843e c34d 5b3e af61 ec3c
000002b0: 9b37 abbc 425b da3c 3945 293d 4956 fdbc
000002c0: a71b 1cbd a947 873c 515e 503d 3783 91bc
000002d0: 295c f83c 0dd8 4cbd b0ae 0f3a f5ed 4ebd
000002e0: df41 733c 5b6f c7bd 8c66 f3bc 1bb5 b0bc
000002f0: 78d7 29bd 6a6b 9a3d 9c18 89bd 9cac a3bd
00000300: ebe7 d5ba 2e1f 5ebd 380c 273e 1f3d f4bd
00000310: 15ab bebd 56ef 1f3e da61 26bd 3867 f8bd
00000320: 09dd b5bd 56b3 19bd 608c 0b3d dba4 09bd
00000330: a433 843d 55f9 8f3e f155 5e3c 428a 9fbc
00000340: 212d f4bc 5c70 dc3b 37ad 403d a543 3a3a
00000350: 0982 0c3d 4fbf 4bbd 7391 d13c c5d4 1dbd
00000360: 4365 8a3a a73d 62bd 11d7 d2bd 2db5 d53d
00000370: c1f2 5c3c 9c6f 3abd 2c60 0e39 69ca c0bd
00000380: a36c 273d dfe4 f0bc 4968 65bd 028e e1bc
00000390: 5ebc ce3d fa12 793d 4fd6 04bd 54fe b83d
000003a0: 4a5d 5a3e 5b63 6cbd aa23 bebd 9c39 08be
000003b0: 7e42 86bc 0909 b1bd 7c44 e7bd d0c5 7fbd
000003c0: 85f2 513e e65d 623e 0f6d b539 2321 d33b
000003d0: 13fb 0bbb 443b 1abc 4855 173d 05b5 8abd
000003e0: bf72 083e 8ba4 3bbd 495d cfbd cf34 893e
000003f0: 5a89 c7bc 7d09 ebbb 19ed aebd 7851 3e3e
-0.034726 0.07963451 0.012908912 0.00653119 0.23723558 0.09133847 -0.10551262 0.074295245
-0.024045924 -0.028225653 -0.1174763 0.12299166 -0.20621683 -0.07820523 0.16002104 -0.03816516
-0.2002638 -0.06780407 0.04593408 0.018148338 -0.10590898 0.15879127 -0.11061155 -0.19902323
0.123267405 -0.047430206 -0.15759848 0.03449846 0.03873393 -0.035819024 -0.01766943 -0.0030548542
-0.051651627 -0.039327547 0.009461817 -0.020677874 0.030178847 0.040944412 0.0047863657 -0.024834847
-0.10725932 -0.075868666 0.021129144 0.020703906 -0.035564635 0.07457948 -0.061543517 -0.106362194
0.09664078 -0.06591933 -0.08376308 -0.02681438 -0.12987304 0.07858687 -0.08188468 -0.050820667
-0.046618648 0.20034593 -0.0019069077 -0.039039016 0.32043016 0.088925555 -0.1090347 0.010227266
-0.026250295 0.03135555 -0.00073995744 -0.007747265 0.049150508 0.027430145 0.023988316 0.006512344
0.0156118525 -0.0475501 0.07827279 0.04828361 -0.032198135 0.11383558 0.06923634 -0.09166928
-0.08118152 0.040898316 0.0424598 -0.029961465 0.056138095 -0.038130205 0.0150660155 -0.043449074
0.033535644 0.017827304 -0.03162527 0.035069868 0.043668732 0.015289653 -0.03738852 0.042912003
0.029414756 -0.003032972 0.02909239 -0.08804708 -0.02302301 0.03085572 -0.14715382 -0.028025752
-0.04084388 -0.17674358 -0.052229267 0.03619058 -0.011474287 -0.062223677 -0.0973787 -0.13374513
-0.0007549891 0.021634115 -0.15436196 0.17327671 0.49763098 -0.12925658 0.0397825 0.23449948
-0.14194787 0.10973523 0.11267101 -0.1277889 -0.10347039 0.004794089 0.009976518 0.05158988
-0.02774006 -0.051640898 0.013025756 -0.010965591 -0.06910073 0.03610545 0.042838566 0.04852094
-0.061186083 -0.019417478 -0.09558588 -0.05173091 0.018857427 0.056257475 0.24825981 0.18923964
-0.078199305 0.026522595 0.1415684 -0.011138044 -0.065261334 -0.04353274 -0.018167606 -0.11833757
-0.09902805 -0.0062123924 -0.0016020618 -0.13668081 -0.05443202 0.17011589 -0.045971576 -0.05249698
0.2039997 0.037339117 0.15483077 0.02096776 0.006399291 -0.0777516 0.06189673 0.14386848
-0.04629397 0.2585271 0.21416382 0.028855173 -0.020900538 0.026654843 0.04132578 -0.030924933
-0.03811231 0.016513662 0.050871197 -0.017762763 0.030317383 -0.05001073 0.00054810476 -0.050519902
0.014847248 -0.09738036 -0.029711984 -0.021570733 -0.041465253 0.07540019 -0.06694147 -0.07991907
-0.0016319727 -0.054228954 0.16313255 -0.119257204 -0.09309975 0.15618643 -0.040620662 -0.121290624
-0.0888005 -0.037524544 0.03406942 -0.033604484 0.06455162 0.28119913 0.013570295 -0.019475106
-0.029806675 0.0067272615 0.04704019 0.0007105417 0.0343037 -0.049742993 0.02558205 -0.03853299
0.0010558743 -0.055234578 -0.10294927 0.10434947 0.013485611 -0.045516595 0.00013578002 -0.09413607
0.04087509 -0.02940601 -0.056007657 -0.027533535 0.10094522 0.060809113 -0.032430943 0.09032884
0.2132465 -0.05771194 -0.09284146 -0.13303226 -0.016389128 -0.086443014 -0.11292359 -0.062444508
0.2050267 0.22106132 0.00034604265 0.006443159 -0.0021359369 -0.009413544 0.036946565 -0.06772808
0.13325022 -0.045811217 -0.101252146 0.26798102 -0.024357487 -0.007172762 -0.085413165 0.18585765

fc1.bias f4 [10]
00000000: b20d 2dbd a8bf 75bd 8807 3b3d 8637 2bbd
00000010: bef2 5cbc 28cc 2b3d 622f 9cbc 5f88 3ebd
00000020: b8bb a5bc e1de 133d
-0.04224939 -0.05999723 0.04566148 -0.041801 -0.013485609 0.041942745 -0.019065563 -0.046516772
-0.020231113 0.036101226
