HW2/hw_alex/hw2_py/results/lr_0_01_net_1_CE_/model.pth (torch_old, 39192 bytes, 20 tensors)

conv1.weight f4 [8, 1, 3, 3]
00000000: be8b 673e 23f3 0cbe e43c b33d e329 fabc
00000010: a4fd 553e 8c29 2ebd de55 9a3e 797f ae3d
00000020: 1cce 08bc 767d 2f3e 37c4 43be 09b3 66be
00000030: f6fa 6dbe ee1f 62bd ee94 703e 5405 6e3e
00000040: 5ad2 123e 7150 35bd b12f 383e ca96 26be
00000050: 5247 babc fdc7 18be a538 e2bd 9d5d 93be
00000060: 964a 10be b22c 823e a139 23bd 1130 883e
00000070: 51e7 283e f347 043e b812 013e 0a9f 02bd
00000080: ba29 b23d 4ce6 803e 604a 113e 0bcf fd3d
00000090: 3bdc 8bbe a5c8 90bd c9e7 513e ccfe 0fbe
000000a0: 3c2d 17be 7c7b f63d 37de 543e 7f56 963e
000000b0: 5dff 9f3c 4a57 263e a319 933e 5d68 7f3e
000000c0: d5d7 21be 7fff 4cbe c307 083c 79ff 24bd
000000d0: 129f 333e 2c2b e83d ceb2 00be 2489 aabe
000000e0: 56d9 3dbe 7c40 c93b 0331 913e bfe5 6f3d
000000f0: e24b e93c 009c 73be a8fd 2d3e 8755 25be
00000100: e138 6d3e 5196 b73e f4bb 4d3e 6481 acbe
00000110: f5df e6bd a4cd 51be 886f 2e3e 2595 7dbe
0.22611901 -0.13764624 0.08751848 -0.030537551 0.20897537 -0.04252009 0.30143636 0.08520407
-0.008349922 0.17137703 -0.19117819 -0.22529234 -0.23240265 -0.05520623 0.23494312 0.2324422
0.14338055 -0.044266168 0.17986943 -0.16268459 -0.022739086 -0.1492004 -0.1104596 -0.2878236
-0.14090952 0.25424725 -0.03984988 0.26599172 0.1649449 0.12918071 0.12604797 -0.031889953
0.08699365 0.25175703 0.14188528 0.12393006 -0.2731646 -0.0706952 0.20498575 -0.14062041
-0.1476335 0.120352715 0.20787893 0.29362866 0.019530946 0.16244236 0.28730497 0.24942155
-0.1580499 -0.20019339 0.008302632 -0.0402827 0.1754115 0.113363594 -0.12568209 -0.33307755
-0.18539938 0.0061417203 0.28357705 0.058568712 0.028478567 -0.23789978 0.16991293 -0.16145907
0.23166229 0.3585687 0.2009123 -0.33692467 -0.11273185 -0.20488602 0.17034733 -0.24763925

conv1.bias f4 [8]
00000000: 46a3 5cbe f970 8abc 50da 24be 356b 963e
00000010: 49fc 953e e30e 37be 16d3 94be 77c3 d03d
-0.21546659 -0.016899573 -0.16098905 0.29378667 0.2929404 -0.17876773 -0.29067296 0.10193532

bn_1.weight f4 [8]
00000000: b4bc 5b3f 3a7b 583e e576 bb3e 5984 2b3f
00000010: f818 023f 06df 843e 6b9c 4b3f e4e6 563f
0.85834813 0.21140757 0.36614147 0.6699882 0.5081935 0.25951403 0.7953555 0.8394606

bn_1.bias f4 [8]
00000000: fe1d 023d fcfa 54bb 667e dd3b 37e4 7b3c
00000010: c58a 633c 5a97 c8bb 8d44 043c a941 e13a
0.031766884 -0.003249823 0.0067594526 0.015374235 0.013888066 -0.006121558 0.008072984 0.0017185706

bn_1.running_mean f4 [8]
00000000: 8612 33bf ece1 29bd b66f 323e 9c39 16bf
00000010: 60b0 143e 79ef 18bf 5313 69bd 6449 303e
-0.6995014 -0.04147522 0.17425427 -0.58681655 0.14520407 -0.59740406 -0.056903195 0.17215496

bn_1.running_var f4 [8]
00000000: 30a4 1a3e 79b5 153d 1a09 be3d 832b da3e
00000010: 7902 cc3d f16b f23d 12a7 8b3d 3e79 5b3d
0.15101695 0.03655002 0.0927908 0.42611322 0.09961409 0.118369944 0.068189755 0.053582422

conv2.weight f4 [16, 8, 3, 3]
00000000: 593e bf3c 8c71 08bd c853 86bd 3464 d0bd
00000010: d6f7 01bd 432d 90bd 0fd3 2e3e 7cf0 a33d
00000020: 2fc9 573d 5a7e d5ba d822 9d3c 5aa8 ff3c
00000030: 7b8c 3ebd 521d 82bd 0c6e 9ebd ebbe 1abd
00000040: 2456 333d f56b e03d 3446 493c b7eb 913d
00000050: d96a 993d 2c7d 5abc ad75 533d eea6 e5bb
00000060: 89be 743c 9600 c53c ee53 94bd 991d e7bd
00000070: 1186 9cbd 6cfd 9ebd dc3a 813c 791f a33d
00000080: c937 86bd d520 0c3d 06ec 6abc d5e4 af3d
00000090: 49bd 0c3e eece 1ebd 2d59 a8bd 5acd e33c
000000a0: 2731 213c b88f afbd 11a4 c73d a75b da3d
000000b0: 490f 863d 4441 debd 06e9 e9bd 05fd 893c
000000c0: 1147 cebd 970d b03d fbb2 b8bd d0ed f13c
000000d0: 6f56 26bd 42c8 893d 5844 b53c 31c2 013e
000000e0: 9140 80bd bcfc 003e 0f6f 683d b539 923d
000000f0: 0da1 c83c 234b 663d 0006 a03d 5cd9 a2bd
00000100: 4d9c 493d 9bcc 1abc dae8 083d c3fa 61bd
00000110: 6a35 9abc e222 6e3d cc16 403d 28a7 c8bc
00000120: 875b ab3c 8370 983d b7d3 493c 20b9 883d
00000130: b19d 2f3d 0100 41bc fa09 fe3d 0acd 063d
00000140: 0efd 28bd 1720 26bb 5563 b4bb 1167 11bd
00000150: 7875 803d a44b e13d e028 f03c d41d 893c
00000160: 8fda bdbc e86a 89bd 2bdc b6bd 887c d83d
00000170: ca51 ee3d 0736 aabd f171 db3d 12b5 e43c
00000180: 58c7 4ebd 5e12 2239 a251 bd3d 33b4 983d
00000190: baa1 32ba 5ef1 c4bd 536c 4ebc 78e4 603d
000001a0: 4d83 903c b51d 27bc 66aa a33d 6043 c4bd
000001b0: ac14 c13d 447d 8f3c bf60 0d3d 9cd9 a5bd
000001c0: 7656 863d ea76 aabd 81c4 083e a8df 9ebd
000001d0: 18b2 8dbd 6be1 f33c 6022 e2bd 01f1 ecbd
000001e0: be8e ca3d 070f 42bd 934f cabd cfd4 cd3b
000001f0: 5965 80bc 3004 b0bd 503e 89bd e79a ecbc
00000200: 5e0c c7bc a00d 5bbd 7535 aabd c6d0 4d3d
00000210: 3095 253d b41b 54bd 74b2 5bbd 5819 c2bc
00000220: 90e8 813b c35f 3bbd 3f35 c33d 3031 b7bd
00000230: b3eb a4bd 1e71 e6bc a961 8a3d f9a0 97bd
00000240: c3f4 933d 790e 78bc 95c8 193d 7582 a7bd
00000250: 18ac bb3d 3604 c23d ef25 cfbd 4c2e 4ebd
00000260: 2798 8cbd 9a2f 21bd d4bc f1bc b45b e23b
00000270: 56ec 163d 1587 cebd 1f05 b9bd 5365 bf3c
00000280: 8d3d 253d 0761 9e3d 58f4 80bc 3386 afbd
00000290: 45b0 b03d 9d5a 153d 54e5 603d e744 c7bd
000002a0: 42f2 c73d 6775 8d3d da07 473d 8447 afbd
000002b0: d51c 0bbd 32a5 86bd f1e9 f1bc e9f1 e5bd
000002c0: 9301 d23d 3529 e3bd ffa7 ad3d f77c 503d
000002d0: 4062 cfbd e159 4bbd 1bb8 8abd 39df a5bd
000002e0: 7199 cb3d 83e3 973d 8f4e f13c 107f eb3b
000002f0: e58f 14bc dab3 8e3d 4cee 8abd 2dd9 4d3d
00000300: f928 f5bd 7cf9 e13d a79f d13d 4c62 e5bd
00000310: 982f 8abd 7ecf 5b3d 67f6 f63b d946 2dbd
00000320: 1315 5a3d fe5f cdbd 537b 5c3b 0e3d 66bd
00000330: 7a2f b03d 5d9e 993d 7b03 0cbd 7f5c 183d
00000340: 1e8d efbd 8f0d dabd 4178 5bbd 07e8 87bd
00000350: ce65 fcbd 74ca 3e3d 16be 0fbe 6803 e1bd
00000360: 0b76 2b3e 5da1 5bbd 45b5 803d 35b5 e23d
00000370: 5a83 c1bd 6cbd 763c 6c53 4d3d 9811 cd3d
00000380: d372 c93d a4a5 c73d 3837 f6bc 797a f0bc
00000390: 3e0c 82bd 883f 24bd 9a1c 3d3d 4f3d 273d
000003a0: bd91 2a3d d0ec c33d 7e9d 84bd 71b2 0fbd
000003b0: a418 58bd f2b3 a0bc 3453 c23c b8ac 5d3d
000003c0: 45a7 9cbd 45d2 883d d07c b7bc 7b0e 663d
000003d0: 4302 4c3d 8624 debc fea7 363c 5930 e93c
000003e0: d087 2cbc cbe7 94bc 0e74 6fbc 0d39 9dbd
000003f0: 322c ae3d 0416 90bd 68dc 8a3d 926c b73d
0.02334516 -0.03331141 -0.06558949 -0.10175362 -0.031730495 -0.07039883 0.170727 0.08004853
0.052682098 -0.0016288266 0.019181654 0.031208206 -0.04652069 -0.06353249 -0.077358335 -0.03777973
0.043783322 0.10958091 0.012284804 0.07125037 0.07491083 -0.013335507 0.051625896 -0.007008425
0.014938005 0.024048131 -0.07242571 -0.11284942 -0.07642759 -0.0776318 0.015775137 0.07964987
-0.06553609 0.034211 -0.014338499 0.08588568 0.13744082 -0.038771562 -0.08220134 0.02780788
0.009838379 -0.08572334 0.0974809 0.106620125 0.06545884 -0.10852292 -0.11421399 0.016844282
-0.100721486 0.08596342 -0.09018513 0.029532343 -0.040609773 0.06727649 0.022127315 0.12671734
-0.06262315 0.1259641 0.05674654 0.07139913 0.024490857 0.056224 0.078136444 -0.07951614
0.049221326 -0.009448196 0.03342519 -0.055170786 -0.018824298 0.058138736 0.04689674 -0.024493769
0.020917667 0.07443335 0.012318543 0.06675935 0.042874996 -0.011779786 0.12404247 0.032910384
-0.041256957 -0.0025348717 -0.0055050054 -0.035498682 0.062724054 0.110007554 0.029316366 0.016737856
-0.023175506 -0.06709844 -0.089287125 0.105706275 0.11636694 -0.08311086 0.10715092 0.027918372
-0.050483078 0.00015456366 0.09244086 0.07456245 -0.000681426 -0.0961635 -0.012599069 0.054905385
0.017640734 -0.010199954 0.07991485 -0.09583163 0.09427771 0.017515786 0.034516092 -0.08098146
0.0655946 -0.08323462 0.1335621 -0.07757503 -0.06918734 0.029770574 -0.11041713 -0.11569405
0.09890507 -0.047377612 -0.09878459 0.0062814723 -0.015673326 -0.08594549 -0.06701338 -0.028882457
-0.02429789 -0.05347979 -0.08310977 0.05024793 0.04042548 -0.051784232 -0.053636983 -0.023693725
0.003964491 -0.045745622 0.0953164 -0.08944929 -0.080527686 -0.02813011 0.067569084 -0.0740375
0.07224419 -0.015140169 0.037544806 -0.081791796 0.09163684 0.094734594 -0.10114657 -0.05033712
-0.06864958 -0.039352037 -0.029508986 0.0069079045 0.03684648 -0.100843586 -0.0903418 0.023363745
0.040341903 0.0773335 -0.015741512 -0.08570518 0.08627371 0.03646337 0.054906204 -0.09729939
0.09763004 0.06907158 0.048591472 -0.085585624 -0.033963043 -0.06574477 -0.029530497 -0.11227781
0.102542065 -0.11091844 0.08479308 0.050900426 -0.101261616 -0.049646262 -0.067733966 -0.08099217
0.09941376 0.07416441 0.029456405 0.007186778 -0.00906751 0.06967898 -0.06783733 0.050255943
-0.119707055 0.110339135 0.102355294 -0.11200389 -0.06747359 0.053664677 0.0075366977 -0.042303894
0.053242754 -0.10028075 0.0033642843 -0.05621057 0.086028054 0.075009085 -0.034183007 0.037197586
-0.11696838 -0.10647117 -0.05358148 -0.066360526 -0.12324105 0.046579793 -0.14037356 -0.10986978
0.16744249 -0.053620685 0.062845744 0.11069719 -0.094488814 0.01505981 0.050128385 0.10013121
0.09836354 0.0974839 -0.030055627 -0.029355275 -0.06349991 -0.04009965 0.046169855 0.040829953
0.041642893 0.09566653 -0.06475352 -0.035082284 -0.052757874 -0.019617055 0.023721315 0.054119796
-0.07649092 0.06680731 -0.022398382 0.056166153 0.049806844 -0.027117025 0.011148451 0.028465437
-0.010530427 -0.018176934 -0.014615072 -0.07676897 0.08504523 -0.07035449 0.067803204 0.08956255

conv2.bias f4 [16]
00000000: d2d9 43bd 5005 d23b 2a9c 163d 47ed a3bd
00000010: 0e77 abbd 82b0 1e3d 8081 20bd cf22 813d
00000020: 88f9 76bc 634b b83d ec6e b43c 2cc8 863c
00000030: e0a0 b6bd 281f afbc ef17 073a 516b ef3d
-0.04781515 0.0064093247 0.036770023 -0.080042414 -0.08372317 0.03874255 -0.039186 0.06305467
-0.015074141 0.08998754 0.022025548 0.016452871 -0.08917403 -0.021377161 0.00051534077 0.11690391

bn_2.weight f4 [16]
00000000: 200a 7d3f d516 cd3e 20a3 093f 317f 4a3f
00000010: 7714 913e dcb0 433e f77e 7b3e 2847 653f
00000020: e0a7 fd3a e23e 563e 9767 5a3e f1a2 2e3f
00000030: 81e6 ed3d da18 0e3f c8f4 023e 854b e23e
0.98843575 0.40056482 0.53764534 0.7910033 0.28335926 0.19110435 0.24560152 0.895617
0.0019352399 0.20922425 0.21328579 0.6821738 0.11616231 0.5550667 0.12788689 0.44198242

bn_2.bias f4 [16]
00000000: 64a4 e6bb c7f9 153c 4a0f 6ebc ec17 97ba
00000010: 94f9 5e3b 2e05 c93b 5d77 7abc bfbf 053c
00000020: 0d88 83bb d45b bdbb 6c5f 96bc d471 643c
00000030: aa6a a43c cbc4 84bc 7e35 9d3b 9073 34bb
-0.00703864 0.00915379 -0.014530012 -0.0011527515 0.0034023272 0.0061346507 -0.0152872475 0.008163392
-0.0040140213 -0.005778769 -0.018356048 0.013943154 0.020070393 -0.01620712 0.0047976365 -0.00275347

bn_2.running_mean f4 [16]
00000000: f8fb 263e 96f6 053d 5bfe cabe ec81 263e
00000010: 7c8d 2cbd 3255 ac3d c930 bd3e f353 183f
00000020: 329c a5be 8824 703e d146 483e 6486 233d
00000030: dcfd ae3d c2c5 583d ea54 8abe f56f 1cbe
0.16307056 0.032705866 -0.39647183 0.16260499 -0.042127118 0.08414687 0.36951283 0.59503096
-0.3234573 0.23451436 0.19558264 0.039923087 0.085445136 0.05292297 -0.2701791 -0.15277083

bn_2.running_var f4 [16]
00000000: ce01 473e 2e79 8d3e 9873 7b3e eafd 083e
00000010: f567 aa3d c72b 6b3d 0b41 fd3d 74c3 443e
00000020: 3c4d 803e 85bf e83d 7d41 a13d 7e4c 893e
00000030: d0e3 0f3e abda 1b3e 1281 d53d d5d1 6b3e
0.19434282 0.27631515 0.24555814 0.1337811 0.083206095 0.057414796 0.123659216 0.19215184
0.25058925 0.113646545 0.07873819 0.2681617 0.14051747 0.15220134 0.10425009 0.23029263

conv3.weight f4 [32, 16, 3, 3]
00000000: a693 75bc a7d4 08bd 1027 3ebd cedc 783b
00000010: 7bc7 043a 096a c2b9 8dd5 ccbc 57ec fcbc
00000020: 36f4 9d3c 71b7 f33c 8bdf 29bc c2af 03bb
00000030: f3d5 253d 9e15 48bd c254 3c3c c0ff c1bc
00000040: a83b 883d 1a20 07bd 3caa 003a b6a7 863d
00000050: 2f26 013d e3a9 3d3d 87bd 463b 1123 9abc
00000060: bbf5 ab3c 1c19 833d d8d6 c0bb 8f43 a6bc
00000070: 8288 dd3c 46a1 8bbc 01ca ce3c 0063 bfbd
00000080: 62b5 d63c bf6e b13c 7c58 de3c 0477 873d
00000090: c269 323c f5d0 3abd 3a12 6fbb f164 893d
000000a0: 1d87 7c3d 603b 563d 096f 4fbc ea63 8d3c
000000b0: c550 80bd 9737 0e3d 9384 413d d0f0 6a3d
000000c0: 1d77 753d 06e2 443d ccbd 0fbd 1423 e93b
000000d0: 848c 8bbc a2ae 4a3c bba4 b1bd ae33 5bbd
000000e0: cb6f 503c 92ce 89bd 8385 c6bc 0aaf 5ebd
000000f0: 659e 89bc eba7 21bd 0a9d 0e3d 4bf9 423d
00000100: 0f65 3bbd 6e74 153d d425 d0bc 4c57 b13c
00000110: cbb2 543d af99 55bd a737 5b3d 6020 d9bd
00000120: aa3f 953c 573c 7d3c 6436 1d3d 8f8f c23a
00000130: c509 21bd 3bd4 9ebd 860e febc 0cd5 673c
00000140: 4f35 433d 1004 813d 8773 0e3d 279b 8abd
00000150: 191f 8d3c 74a7 9fbd af89 7bbc f9d0 31bd
00000160: 0bf8 87bd 7700 523d 7f6b 9b3d b0d7 003d
00000170: 00e5 3d3d e743 74bd 1697 fd3c 37a5 d7bc
00000180: 574e 7abd 3d88 d13c a08c b1bc facd 263d
00000190: 78c5 63bb 35c8 d3bc c565 7a3d defd e8bc
000001a0: f005 aa3c e370 2e3d 4d0f 04bd a3e5 c4bc
000001b0: f475 a8bb c9b4 29bd 4473 8dbd 7d68 30bd
000001c0: 44cc 7d3d e6b2 a3bd f522 4dbd 6988 733d
000001d0: 5f61 3a3c e9ee 63bd b9ce 923d f839 4ebd
000001e0: 4ce2 85bd 375e b9bc 7c09 e4bb 97aa 743d
000001f0: 1ea6 ab3c 7471 86bd 75ac 623d 28e7 b7ba
00000200: a5d9 723d 37dc 3dbd b3dc c1bc 8283 ae3c
00000210: 1889 2bbd 010c 873d 5963 9ebd ef8f 8c3d
00000220: 42ba 5b3d 8d0d 803d ce72 40bd 533d 84bd
00000230: bbfa b53d ec0b 593d c14d 12bd 6fd4 a03c
00000240: 801c 753d 98ea a13d f525 8fbd 61b1 bfbc
00000250: e0f3 8fbd c356 523c 9ffc 0bbd 9d8d 1f3d
00000260: 9488 3c3c cc18 3cbd ac4b 0f3c c058 34bc
00000270: 366e e6bc 68db 6b3c e84b 933d 92e1 573d
00000280: b6ab 89bd 82b1 9d3d 1fb3 213c dd73 163a
00000290: 8db2 cebc b8bc 393d eb43 43bb 3255 d5bb
000002a0: f7d5 b13d ed6c 01bd 91dc 9a3d d614 4ebd
000002b0: ba70 8a3d fcec 7b3d e53e 02bd 53cc 3ebc
000002c0: da80 b83c 7720 893c 07b6 543c b65f 56bd
000002d0: 957d 443b d6b9 d03c 3ae9 5cbd 47e4 3f3d
000002e0: e0ff 8c3c b588 1fbc bf22 0e3d ff23 d9bb
000002f0: ba15 cbbc ab2f e63c bbbf 8b3c 066f 4fbd
00000300: ce7c a63c f2b9 fabc 150a 72bd b92c a2bd
00000310: 1525 0f3d 3ca4 403d 775a 7bbd 90b4 923d
00000320: 3da9 adbd b8d6 263d 1657 103d 24c3 f23c
00000330: 6403 73bd 0aaf b0bc a723 b2bc 061c 583c
00000340: 9be5 833c 7823 0f3d 61a6 903d 5765 52bd
00000350: 1b35 ff3c 8a9e bdbd b0fe 68bd 6d4a 3cbd
00000360: 9fa2 3ebd 4158 7fbd 1287 87bd c15a 293c
00000370: 4083 a53d 46d1 323d 6853 51bd 4bde a0bc
00000380: 8ed6 5abd 1966 043d 8555 043d a58c a83d
00000390: 517a 84bd c266 7fbd 0246 d93c b8d1 88bd
000003a0: d942 eebc da85 4cbd 2aad a7bc b04a 953d
000003b0: 264a 6abd c957 23bd 7f2c 7bbc 69fa 0ebc
000003c0: c26d 3d3d 336d 53bd 1162 a03d 16be 9e3c
000003d0: d54b 38bd 93cb ec3c 6130 8d3d cfca a33d
000003e0: 5031 543d ec1f 073d fba8 2dbd 08e7 b93c
000003f0: 2ab7 fcbc feca c0bc 4690 a1bd c73a 32bc
-0.014988815 -0.033405926 -0.04642397 0.0037973407 0.00050651253 -0.00037081566 -0.025004173 -0.030874414
0.019281488 0.029750558 -0.010368238 -0.0020093773 0.04048724 -0.04884874 0.011494817 -0.023681521
0.066520035 -0.0329896 0.00049081794 0.06574957 0.031530555 0.046304595 0.003032537 -0.01881555
0.020991197 0.064012736 -0.0058849864 -0.020295886 0.027042631 -0.017044675 0.025242807 -0.093450546
0.026209537 0.021659253 0.027141802 0.06614497 0.010889472 -0.045609433 -0.003647937 0.06708706
0.06165229 0.05230272 -0.01266075 0.017259557 -0.062654056 0.034720983 0.047245573 0.057358563
0.05992805 0.048067115 -0.035093114 0.0071147773 -0.017034777 0.012370737 -0.08673998 -0.053516082
0.012721966 -0.06728853 -0.024233585 -0.05436615 -0.016799161 -0.03946678 0.034817733 0.047601026
-0.045750674 0.03648799 -0.025408663 0.021648072 0.051928323 -0.052148517 0.05351987 -0.10601878
0.018218834 0.015456281 0.03838195 0.0014843809 -0.039315958 -0.077553235 -0.031012785 0.014149915
0.04765826 0.06299603 0.034778144 -0.06767874 0.017226743 -0.07795611 -0.015352651 -0.043412182
-0.06639107 0.051269975 0.07588863 0.031455696 0.04636097 -0.05963507 0.030955832 -0.026323898
-0.061109867 0.025577659 -0.0216735 0.04072378 -0.0034755152 -0.025852302 0.06113221 -0.028441366
0.020754784 0.042588126 -0.032241154 -0.02403528 -0.0051410142 -0.041432176 -0.06906751 -0.043068398
0.06196238 -0.079931065 -0.050082166 0.059456263 0.011375754 -0.055647764 0.071683355 -0.050348252
-0.06537303 -0.022627933 -0.0069591384 0.059733 0.020953234 -0.06564608 0.05534025 -0.0014030682
0.059289593 -0.04635259 -0.023664808 0.021302942 -0.04187879 0.065940864 -0.07733793 0.06863391
0.053644426 0.062525846 -0.046984486 -0.06457009 0.08885714 0.052989885 -0.035718683 0.019632546
0.059841633 0.07906073 -0.069896616 -0.02340001 -0.07028937 0.012838068 -0.034176465 0.038953412
0.011507172 -0.045922086 0.008746069 -0.011007488 -0.028128725 0.014395572 0.07192212 0.052705355
-0.067222044 0.076998726 0.009869366 0.0005739311 -0.025231624 0.04534599 -0.002979512 -0.0065104
0.08683389 -0.03159802 0.07561601 -0.05031284 0.06759782 0.061505303 -0.031798262 -0.011645394
0.022522379 0.016739113 0.012982852 -0.05233737 0.002998208 0.025479238 -0.05393336 0.04684856
0.017211854 -0.009737183 0.034701105 -0.0066266055 -0.024790633 0.028098902 0.017059198 -0.05064299
0.020323183 -0.030606244 -0.059091646 -0.079186864 0.034947474 0.047031626 -0.06136557 0.07163346
-0.08479545 0.040732116 0.0352393 0.029634066 -0.059329405 -0.02156784 -0.021745516 0.013190275
0.016100695 0.034945935 0.07062984 -0.051366176 0.031153252 -0.092587546 -0.056883514 -0.045969415
-0.046541806 -0.062340025 -0.066175595 0.010336579 0.080816746 0.04365661 -0.051104933 -0.019637248
-0.05342727 0.03232393 0.03230812 0.08229951 -0.064686425 -0.062353857 0.02652264 -0.06680626
-0.02908461 -0.04993234 -0.020468313 0.07289636 -0.05719962 -0.03987864 -0.015330433 -0.008726695
0.04624725 -0.051617812 0.07831205 0.01937775 -0.044994194 0.028905666 0.06893993 0.07997667
0.05180484 0.032989427 -0.04239748 0.022693172 -0.030849058 -0.023534294 -0.07888846 -0.010878271

conv3.bias f4 [32]
00000000: 38a3 15bd 0b1a 73bd dede 223d e0b0 093b
00000010: a0a0 243c a0ee 5ebc 4941 a93d 00b5 b73c
00000020: 00a2 f93b d01c 243d bb2f 933d 0b13 8b3d
00000030: ac3a a53c b2e4 7a3d a071 bebc 0e18 383d
00000040: 36f5 7ebd 22bb 2e3d c0cc adba 9c96 b4bc
00000050: c6c7 15bd 76e5 073d 3998 843d b159 9e3d
00000060: 1bac 43bd e85c 7d3c 32b8 4b3d 1047 f33b
00000070: 7c85 873c 108a c0bb b415 8cbc fb40 a8bd
-0.03653261 -0.05935101 0.039763324 0.0021009967 0.010048062 -0.013606697 0.08264405 0.022425175
0.007618189 0.04006654 0.07186838 0.067907415 0.020169578 0.061253257 -0.02324754 0.044944815
-0.06224557 0.042658933 -0.0013259873 -0.022044472 -0.036567472 0.033177815 0.06474347 0.07731951
-0.047771554 0.015464045 0.04973621 0.007424243 0.016543142 -0.0058758333 -0.017100193 -0.08215519

bn_3.weight f4 [32]
00000000: 2180 353f 4d68 9a3e 933b 883f 6faa b63e
00000010: 128d 963f cf9f 993e 3f06 703f 7a5f c73d
00000020: a6d5 193d db9a 423f 8afd a23e 4e3d 993f
00000030: d579 263f 062c 203f fd89 183f cdbd ba3e
00000040: 71a1 703e 43e0 573f 4220 093f c834 013f
00000050: ded1 9b3d 9c25 3a3f e393 f23e 3f75 963f
00000060: a7c0 753f 9ac4 fd3e 441d 003d 23d1 503f
00000070: f986 c53e 792b 863f 8053 983f 3c43 d53e
0.70898634 0.301577 1.0643181 0.35676906 1.1761801 0.30004737 0.9375953 0.097350076
0.037557267 0.7601754 0.3183406 1.1971834 0.6502965 0.62567174 0.59585553 0.36472932
0.23499085 0.8432657 0.53564847 0.5047116 0.07608388 0.7271364 0.47378454 1.1754531
0.9599709 0.49564058 0.03127791 0.8156912 0.38579538 1.0482017 1.1900482 0.41652858

bn_3.bias f4 [32]
00000000: df23 ab3d 9117 2a3d 0e8c c03d bb00 633d
00000010: a4c9 fd3d 0dea 143d 11dd ef3d 26ac 9d3c
00000020: 25b7 fb3b 598f 9d3d f7bb 7d3c 3685 da3d
00000030: 9d1e 483d 801e 793d 36df 783d 882c b33c
00000040: 637b 8b3c ab3f 243d 38f2 443d 0061 ac3d
00000050: dc15 9b3c b078 763d 400e ed3c b7e5 143e
00000060: f6e8 bc3d 351e 843d ab6c 3d3c 8ab1 923d
00000070: e6d5 5b3d c6ff 833d 9494 ea3d 3481 1b3d
0.08356451 0.04152638 0.09401713 0.05542062 0.123919755 0.03635602 0.11712087 0.019247126
0.0076817446 0.07693357 0.015486709 0.10669939 0.04885732 0.060820103 0.060759746 0.02187182
0.017026609 0.04009978 0.04808256 0.08416939 0.018931322 0.06017369 0.028937459 0.14540754
0.09224121 0.06451074 0.011561553 0.07162769 0.053670786 0.06445269 0.1145412 0.037965015

bn_3.running_mean f4 [32]
00000000: f3de 00bd 32bc 4f3c b42a 5f3d c846 61bf
00000010: 2250 14bc 3202 7dbd d8b3 a7be c08c ab3e
00000020: 1c00 bcbd aac9 883e f190 7fbe 6725 183d
00000030: d664 1dbe 4189 653e 0c7c bb3e a6a1 22bd
00000040: bbc5 d9be 9391 9bbe a217 b93d 14e2 833e
00000050: 1704 3fbd 56b2 54be 42b2 243e ae9c 913e
00000060: 5d7d 0cbe 1e5e ad3c 6e3f e13d 805e 883d
00000070: d2a5 24bf 4ac2 8cbd fa2d 35bd b4c7 8bbe
-0.03146262 0.012679147 0.054484084 -0.8799863 -0.009052308 -0.06176967 -0.32754397 0.3350582
-0.09179708 0.26716357 -0.24957635 0.037145045 -0.15370497 0.2241564 0.36618078 -0.03970494
-0.4253367 -0.30384502 0.09037711 0.2575842 -0.04663476 -0.20771155 0.16083625 0.2843985
-0.13719697 0.021163043 0.109984264 0.066586494 -0.6431552 -0.06872995 -0.0442333 -0.273008

bn_3.running_var f4 [32]
00000000: cb28 423d b61a f93d aad6 d03d 9fa8 883d
00000010: 1f81 aa3d e738 013d 6867 903d 0837 0d3d
00000020: 98bd 423d a52f 9c3d 43a0 863d 3da1 c73d
00000030: 70fd 513d a53f 2c3d 9cb2 723d 4823 883d
00000040: d9ad 6e3d afb1 7c3d e7aa 3e3d cfe7 823d
00000050: 3728 893d 59d3 9e3d 8e2c e73c b9a4 bd3d
00000060: e471 5f3d 8c42 673d 5645 f73d cde5 a63d
00000070: 0c35 163e 8f08 a73d 377c 283d ac85 483d
0.047402184 0.12163298 0.10197194 0.06672787 0.08325409 0.031548407 0.07050973 0.03447631
0.047544092 0.07626275 0.06573536 0.09747551 0.051267087 0.042052884 0.059252366 0.06647354
0.058271263 0.06169289 0.046549704 0.0639187 0.066971235 0.07755155 0.028219488 0.09259934
0.054551974 0.05645995 0.12073772 0.081493 0.14668673 0.08155929 0.041134086 0.048955604

fc1.weight f4 [10, 288]
00000000: 9198 be3b 95ba 9fbc a871 49bd 9800 503d
00000010: dfe8 02bd f810 97bd 1e98 9cbc abaa f4bc
00000020: 061a fa3d 57b6 123d 103d 4bbc 6754 a83d
00000030: fcf1 b03c 606a 65bc 3af3 343d fcc6 47bb
00000040: b045 ce3c 4a44 b43c ead1 5f3b afb5 43bd
00000050: ec6b 083d 38ef 86bd bcb5 04bc 1207 fdbd
00000060: 39d6 8ebc b90c 5a3d faef a9bd 8afb ce3c
00000070: 61e3 43bd fd37 c4bc e473 f5bc 97e2 213d
00000080: 93d2 1d3d d8e5 3abd f376 0dbc b5b1 403d
00000090: 2457 91bb c573 63bd 3eb1 abbc d642 5d3b
000000a0: 72e3 ca3c 539b bbbd 69c8 b0bc 3872 a23e
000000b0: d350 0e3e 025c 293d e349 25bc 70e6 af3c
000000c0: 26a5 a5bc 2344 923c 0e42 bf3c bea6 21bb
000000d0: e135 84bd 50e5 1a3d 6f34 253d 1871 12bd
000000e0: 7269 84bd bae7 cf3c fde7 04bc 98c4 16bd
000000f0: 3823 a3bd 8955 47bc b1f0 e83d 942a 5cbd
00000100: 73c3 493d 263b a3bb c0a6 003d f0ba eabb
00000110: ed73 0b3d 4e5f bbbc 07fa 7b3b b4c2 5f3c
00000120: 6c3a adbc 5aed 1d3d 7f14 e13c 118f 4c3d
00000130: 8c5c 153c 49e6 44bd fb45 16bd 7383 c2bc
00000140: 773d 683d 50a4 08bd b07a 4dbc 5a31 1fbd
00000150: d100 353c 9ae8 573e 19a3 813d 5bde 9d3c
00000160: 0c1a 9d3d e0ec 133d 83fa 1fbd 408e 623c
00000170: ba85 9cbc 2301 02bd 5173 653d b3cf 04bd
00000180: c358 06bd 06fb 923d 28e5 0fbd dd28 44bd
00000190: defd 52bc 2f80 47bd 9534 f8bd e9b9 65bd
000001a0: 2a3d b03d 4086 a4bd 7896 b33d 2fd8 283e
000001b0: 665b b9bb bb37 943d 862f 1abd e006 4b3d
000001c0: ea1c 753d e563 653c 7a38 29bc 8e69 9b3c
000001d0: 734d 1abd 53bf 5ebd 395e 733d c027 113d
000001e0: cd62 96bd 301e 7d3d 183b 0a3e abf3 59bd
000001f0: 4a25 9a3c 94a9 053e 9ed6 9abc ca79 a1ba
00000200: c654 c2ba 4279 60bd 55fc a1bd 9b00 2abb
00000210: e5f5 02bc 06e3 9ebd 2c90 ce3a 85b1 8bbd
00000220: 8f81 593d 2bcd 4f3d ee3b aebc 385e ac3d
00000230: f14b 903b fa0c 063c 5c4b 233d 1096 6bbd
00000240: 7451 673d 4dcc 7ebd 5f23 2cbd b320 60bd
00000250: 9fcb b138 5c8c 4ebd 51b5 00bb bf64 7c3d
00000260: ceeb 2abd e843 ad39 e687 b03d 7343 82bc
00000270: a691 4d3c c7b4 47bc 22a3 5e3b 8879 02bd
00000280: f8da bdbb 936d 2dbc a472 423d e84f 933b
00000290: 9739 f03c e659 acbd 71c2 af3a 3b84 c2bc
000002a0: edaa b7bc 7138 3dbd 851b 29bd 1740 6a3c
000002b0: 2a4c 6d3d eb7e 8e3d 1c71 49bc 4eba 42bd
000002c0: 4ca7 7bbd 124c 5b3d 85fc 3abd 8fa2 07bd
000002d0: 23c6 1e3d c1f4 4d3c 8a6c 16bd e8d6 863b
000002e0: 969e 2f3d d3a0 2abd 3bc8 dcbc 4ba0 513d
000002f0: 6768 f1bc 2a0c 34bd 5be7 113d a884 8cbd
00000300: 435c ad3d 6b5f 983b 21ae 5fbd 6135 c43d
00000310: 020e 313d e4c1 d8bc cc13 67bc 33c6 ab3c
00000320: 07d7 c0bc 4a5a e0bc 62e5 c5bc 4588 34bd
00000330: 8226 cfbc 2266 833c 53e1 173d 55f0 e73c
00000340: 88ca 7eba d682 77bc 8a55 4abd bac4 eb3d
00000350: 6cd6 ad3d ad08 07bd 2657 583e a8e8 5b3e
00000360: ac1f cfbc 5c94 813d 445b 81bd 9707 573d
00000370: 0180 483c 7f45 f3bb 8076 63bd f8ec c1bd
00000380: 81a2 a5bd 095a 003d 65a4 73bd 5e5a a4bc
00000390: d94b 0d3c 11ff 9c3d 9ee6 d5bc c352 40bc
000003a0: d605 ed3d 8a49 07bd f4ae c43c 10e8 0abd
000003b0: 58c2 673c 0b36 37bd 8a15 8c3c 38cd 41bb
000003c0: c113 013d 5505 1ebb 7ed1 eb3b 384a a13d
000003d0: fcbf c03c 3e34 223d d4c9 6b3c ea0c b13c
000003e0: 7c1e 04bd 38ea 59bc 73c3 793c 5b1f 2dbd
000003f0: 1a3d 00bc bc39 85bd f236 27bd 5fd2 63bc
0.005816527 -0.019498149 -0.049180657 0.050781816 -0.031960364 -0.073762834 -0.019115504 -0.029866537
0.12211995 0.035818424 -0.012404695 0.082192235 0.021599762 -0.014002413 0.04417727 -0.0030483594
0.025179714 0.022005219 0.0034152218 -0.04778069 0.033306047 -0.06588596 -0.0080999695 -0.12354864
-0.017436134 0.05323479 -0.08297725 0.025266428 -0.047824267 -0.023952479 -0.029962488 0.039522734
0.038530897 -0.045629352 -0.008634317 0.047044475 -0.004435437 -0.05553033 -0.02095854 0.003376176
0.024766658 -0.09160485 -0.021579938 0.31727767 0.1389802 0.04134751 -0.010088417 0.021472186
-0.02022035 0.017854756 0.023346927 -0.0024666036 -0.06455589 0.037816346 0.040333208 -0.035752386
-0.064654246 0.02537905 -0.008111951 -0.03680858 -0.07965702 -0.012166389 0.11374033 -0.053751543
0.04925866 -0.0049814163 0.031409025 -0.007163398 0.034046102 -0.022872593 0.0038448588 0.013657261
-0.021146022 0.038556434 0.027475594 0.049941126 0.009116303 -0.04807118 -0.036687832 -0.02374432
0.056699242 -0.033359826 -0.012541458 -0.038865425 0.011047558 0.21084824 0.063299365 0.019271066
0.07670984 0.036114573 -0.039057266 0.01382786 -0.019106735 -0.031739365 0.056018177 -0.03242464
-0.032799494 0.07176785 -0.03513065 -0.047890533 -0.0128779095 -0.04870623 -0.12119404 -0.0560855
0.08605416 -0.08033419 0.08768934 0.16488717 -0.0056566475 0.07237192 -0.037642978 0.049567103
0.059842028 0.0140008675 -0.0103284065 0.01897123 -0.037671518 -0.05438168 0.05941603 0.0354383
-0.073430635 0.061796367 0.13499105 -0.053210896 0.018816609 0.1305297 -0.018901166 -0.0012319621
-0.001482629 -0.05480314 -0.07909457 -0.0025940302 -0.007993196 -0.07758145 0.0015759519 -0.068209685
0.053102072 0.050732773 -0.021268811 0.08416408 0.004403584 0.008181805 0.03986679 -0.057516158
0.056474164 -0.062206555 -0.04202592 -0.054718684 8.477945e-05 -0.050426826 -0.0019639323 0.061619516
-0.041728787 0.00033047725 0.086196706 -0.015901303 0.012546932 -0.012189097 0.0033971746 -0.031854182
-0.0057939254 -0.010585207 0.04747261 0.0044956096 0.029324336 -0.08415584 0.0013409388 -0.023744693
-0.022420371 -0.046196405 -0.04128601 0.014297507 0.057933964 0.069578014 -0.012295034 -0.047540955
-0.061438844 0.053539343 -0.045650978 -0.033114012 0.038763177 0.012570561 -0.036724605 0.0041149743
0.04287585 -0.04165728 -0.026950946 0.051178258 -0.029468728 -0.043956913 0.03562103 -0.0686124
0.08464863 0.0046500466 -0.05460942 0.09580494 0.04322625 -0.026459642 -0.014103841 0.020968532
-0.023540033 -0.027386803 -0.02415723 -0.04407527 -0.025286917 0.016039912 0.03708012 0.028312841
-0.00097195106 -0.015106877 -0.049397983 0.11512132 0.08488163 -0.03296726 0.21126994 0.2147547
-0.025283657 0.063271254 -0.06316236 0.052497473 0.01223755 -0.007424056 -0.055532932 -0.09469026
-0.08087636 0.031335864 -0.05948295 -0.020062622 0.0086240405 0.076658376 -0.026110943 -0.011738482
0.11573379 -0.033029117 0.024009205 -0.03391272 0.014145456 -0.044729274 0.017100114 -0.0029571783
0.03151298 -0.0024112065 0.0071966043 0.07875484 0.023529045 0.039600603 0.014391381 0.021612603
-0.032255635 -0.013300471 0.015244353 -0.04226623 -0.007827068 -0.065051526 -0.040823884 -0.013905137

fc1.bias f4 [10]
00000000: 29c3 d3bb e582 923b cd6c e4bc d1f6 a8bc
00000010: 3454 49bc a6d0 7abc 5a28 99bb e724 ff3c
00000020: 40cd 883d 70a5 c03c
-0.006462474 0.0044711703 -0.027883912 -0.020625504 -0.012288142 -0.015308535 -0.0046739997 0.031145526
0.06679773 0.023516387
