HW2/hw_alex/hw2_py/results/_14_01_43/lr_0_01_net_1_CE_/model.pth (torch_old, 39192 bytes, 20 tensors)

conv1.weight f4 [8, 1, 3, 3]
000000 f1 7e 35 3f 47 2d 90 3e 11 5f 8d bf e7 96 85 3e
       0.7089682 0.28159544 -1.1044637 0.26091692
000010 2c 76 08 3e dc a4 49 bf 70 cd ba 3e 4e 3f 07 3f
       0.13326329 -0.7876718 0.3648486 0.5283097
000020 50 43 07 bf 17 80 b0 3d a6 82 73 bf 91 04 83 bf
       -0.52837086 0.08618181 -0.9512123 -1.0235769
000030 08 88 93 3d 47 de c9 be 7e a2 4a be 02 4f 3b 3f
       0.0720368 -0.39427397 -0.19788548 0.7316743
000040 54 29 9b 3f 7b 16 3c 3f de 2e 01 bf 7c 38 aa bc
       1.2121987 0.734718 -0.5046214 -0.020778887
000050 2b 3b 85 3e 35 5c 02 bf a8 03 10 3e 12 d1 1e 3f
       0.26021704 -0.50921947 0.14063895 0.62037766
000060 af 59 72 3d 57 6b 30 3f c9 fd 32 3f e1 f8 a2 3e
       0.05916756 0.6891379 0.69918495 0.31830505
000070 2e 6f 9d be c9 18 75 bf f5 dd 00 3f b5 95 a9 3f
       -0.30748886 -0.95740944 0.5033868 1.3248812
000080 9b 62 1c be 8b d6 49 bf e1 e8 ec 3e 16 4b ad 3e
       -0.1527199 -0.7884299 0.46271423 0.3384635
000090 88 c0 db bd 44 5c a0 bd e2 ac 2b 3e 3c 23 25 be
       -0.10730082 -0.07830098 0.16765168 -0.16126722
0000a0 d1 ec 1f 3f 0f 7c 71 be 81 d6 80 be 04 d8 eb 3e
       0.6247073 -0.23582481 -0.25163653 0.46063244
0000b0 7b b7 70 be 65 1e 01 3f a4 5e 06 3f 50 04 08 bf
       -0.23507492 0.50437003 0.5248816 -0.5313158
0000c0 1e 4d 53 bf 4d 4d 9f bf da 4a fc be 32 e0 ef be
       -0.82539546 -1.2445465 -0.49275857 -0.46850735
0000d0 56 c3 88 3c e7 f3 28 3f dd de 87 be 05 31 7d bf
       0.016694706 0.65997165 -0.2653722 -0.9890292
0000e0 83 ce a9 3e 1e 8d 05 bf ab 31 b9 3e 6f 60 a6 3f
       0.33165368 -0.5216845 0.36170706 1.2998179
0000f0 cf 79 ee 3d 51 78 ed 3e d7 f7 4f bf 1e c3 1c 3f
       0.11644327 0.46380857 -0.8123755 0.61235225
000100 94 54 7c 3f 4b 12 9c 3e 1c 70 03 bf cf a7 78 3e
       0.98566556 0.30482706 -0.5134294 0.24282764
000110 0e 0d 39 3f 2f 2c 97 bf 67 59 5d bf cf 1f 96 be
       0.72285545 -1.1810359 -0.8646454 -0.29321143

conv1.bias f4 [8]
000000 90 ea fb bb ce 29 93 bd e6 c3 a4 be 40 08 a2 3e
       -0.007687874 -0.07185708 -0.3218071 0.3164692
000010 9d fe e0 bd 82 63 5e 3e e3 69 a4 be 8b ef c2 3c
       -0.10986064 0.21717647 -0.32112035 0.023795864

bn_1.weight f4 [8]
000000 14 70 73 3f 15 19 7c 3f ff 14 5f 3f 21 b9 65 3f
       0.9509289 0.9847577 0.8714141 0.8973561
000010 a5 1a d9 3e d8 80 e1 3f 90 d4 57 3f 05 6b 9b 3f
       0.4240314 1.7617445 0.8430872 1.2142035

bn_1.bias f4 [8]
000000 6e d6 ff bb c6 06 20 3e 79 9b f8 3d 51 7d 89 bf
       -0.0078075444 0.15627584 0.12139029 -1.0741369
000010 cd c3 b8 bc 55 b0 8a 3e 5e 02 d1 be 66 68 22 be
       -0.022554303 0.27087656 -0.4082212 -0.15860137

bn_1.running_mean f4 [8]
000000 f4 96 9a 3d 2d ae de be 91 9a a1 bf 80 40 4b be
       0.07548323 -0.4349226 -1.2625295 -0.19848824
000010 57 55 4d be 5a 38 c7 3f 79 a6 8a be 32 72 61 bd
       -0.20052086 1.5564072 -0.27080134 -0.055040546

bn_1.running_var f4 [8]
000000 e7 79 8f 3f 4a 91 d8 3f ae 85 b7 3f 22 a5 19 3f
       1.1209077 1.6919339 1.4337671 0.600176
000010 d6 81 a2 3d 87 64 e5 3f 8e 36 16 3f 4a e1 bb 3f
       0.079349205 1.7921304 0.58676994 1.4678128

conv2.weight f4 [16, 8, 3, 3]
000000 7b 8c 66 3d d9 4d d9 bd f2 91 b5 3d 35 74 ca 3d
       0.056286316 -0.106105514 0.088657275 0.09885446
000010 be bf 1a 3d ff e0 4a bd 09 60 92 3d 92 04 f0 3d
       0.037780516 -0.04953098 0.071472235 0.11719622
000020 d7 c4 c2 3c 13 31 55 3d ba 46 ed bc 2f 4d e1 3c
       0.023775501 0.052048754 -0.02896439 0.027502624
000030 9c 7c d4 bd 4e 4c 1b 3c 71 26 59 3d 90 90 aa bc
       -0.1037533 0.009478642 0.053015176 -0.020820886
000040 b6 57 e5 bd d0 50 77 3d 61 0d 48 bd d9 c4 73 3d
       -0.1119837 0.060379803 -0.048840884 0.0595139
000050 35 8c 42 bd 48 4a 44 3d 80 c4 2d bc e1 d4 c0 bd
       -0.047496993 0.047922403 -0.010605931 -0.094156034
000060 41 ae e7 3d e1 03 dd 3d 21 4e 8e bd 82 88 cc 3c
       0.11312533 0.107917555 -0.06948496 0.024967436
000070 3a bd e6 bd f4 9f df 3d 23 c9 23 3d 8c cc d9 bd
       -0.11266561 0.109191805 0.03998674 -0.10634717
000080 74 a6 ee bd 5b 58 d0 3d 35 13 d4 bd 1d 23 2d 3b
       -0.11652842 0.101731025 -0.10355226 0.0026418634
000090 e6 48 ca bd de e0 7e 3d 17 9a db 3d 8c ae a3 bd
       -0.098771855 0.06222617 0.1072275 -0.079922765
0000a0 f5 1e ae 3c 29 5a 6b 3a d5 01 91 3d 76 52 b2 bd
       0.021254996 0.00089779735 0.070804276 -0.087071344
0000b0 e0 96 da 3d 6d 19 9f 3d 92 59 b0 3d d6 ad 70 3d
       0.10673308 0.077685215 0.08610834 0.058759533
0000c0 8e fb be 3d 5e 52 be bc 18 7e eb bd 11 a8 86 3d
       0.09325324 -0.023232635 -0.1149866 0.06575025
0000d0 aa 5b 13 bd 80 95 eb 3c 23 a6 e6 bd d2 14 f3 bd
       -0.03597609 0.02875781 -0.11262157 -0.118692055
0000e0 28 87 97 bd 63 31 45 3d f0 2c d8 bc 42 6e e6 bb
       -0.07398826 0.048142802 -0.026388615 -0.0070321867
0000f0 39 c4 4e 3d be 57 ab 3c 3f 40 c9 3d 85 75 96 bd
       0.0504801 0.020915862 0.09826707 -0.07346634
000100 72 c4 aa bd 29 a0 c1 3c ed b4 cf 3d d6 66 e0 3d
       -0.0833825 0.02363594 0.10141931 0.109571144
000110 a5 8d ed 3a 50 6e 83 3d 52 31 3c 3c 19 5b e5 bd
       0.0018123878 0.06417525 0.011486368 -0.11199016
000120 78 b1 55 be 3d 42 2d 3e 5a a7 40 3d c6 c8 1e be
       -0.2086848 0.16919799 0.0470346 -0.15506276
000130 f4 fc 8f 3e 83 2f 75 3f 68 2b 7c 3e f3 00 25 3d
       0.28122675 0.9577562 0.24625933 0.04028411
000140 ad 77 be 3e 43 54 34 bf 3a fc d6 3d f2 b7 a6 bc
       0.3720068 -0.70441073 0.10497327 -0.020351384
000150 e8 5f 0f be 0f aa 7a be 7a 64 91 be f9 b2 fa bc
       -0.14001429 -0.24478935 -0.2839697 -0.030602919
000160 21 55 a7 bd 78 65 32 bd 99 4d f0 3d 7e 15 ba 3e
       -0.08170534 -0.0435538 0.117335506 0.36344522
000170 6b 18 8b be 19 0a e3 3e e1 fc a7 3e b0 9d a8 be
       -0.27167067 0.4434364 0.3281012 -0.32932806
000180 34 51 d9 3e 0c 7c 3b 3e ab e8 e5 be 2e 72 24 be
       0.42444766 0.18309039 -0.44904074 -0.16059181
000190 31 a0 1c bd d4 0d f4 bd 2c 1b 8e be f0 f6 80 bd
       -0.038238708 -0.119167 -0.27755105 -0.062970996
0001a0 a8 b4 07 3e bc 07 46 3e 8c 0c 82 be 22 34 62 bc
       0.13252509 0.19338888 -0.25400198 -0.013806375
0001b0 a8 ea 84 3d 3e 3d cb 3c 1c d2 32 3e 2e 93 1c 3d
       0.0649007 0.024809476 0.17462963 0.0382263
0001c0 ca 06 6f 3d 67 13 c0 3d c4 84 1f 3d 2a 5d 17 3e
       0.058356084 0.09378701 0.038944975 0.14781633
0001d0 b2 c3 2d be b7 a2 02 3e 36 0b 19 be 90 dd 09 bd
       -0.16969183 0.12757383 -0.14945683 -0.033658564
0001e0 0b 4e 0b 3e b9 bb ca be 4e 63 2a be d9 81 fc bd
       0.1360399 -0.39596346 -0.16639444 -0.12329454
0001f0 a4 33 9c bd 14 80 26 bd 42 97 ff 3d 4d ab b7 3b
       -0.07627037 -0.04064949 0.12480022 0.0056051374
000200 ac a3 21 be b4 bb 09 3f 9b 19 43 3e cc 75 0d be
       -0.15785092 0.5380204 0.19052736 -0.13814467
000210 2e 8b 63 3e d3 f5 e4 3e a2 c1 ce be d1 0c a9 3e
       0.22221062 0.447188 -0.40382105 0.3301759
000220 1f f1 a6 bd 92 76 df 3d 02 a8 21 be b3 42 60 be
       -0.08151459 0.10911287 -0.15786746 -0.21900444
000230 dd 56 c5 be 98 d3 83 bd 40 b3 9b 3d 75 e1 7a be
       -0.38542834 -0.06436843 0.076025486 -0.24500068
000240 21 0d ee bd c4 15 c9 bd 50 42 06 3e 1a f6 72 3e
       -0.11623598 -0.098186046 0.13111234 0.23726693
000250 8f 3c 9f 3e 71 bf 1b 3e 6c fb 82 3e 60 59 a5 3e
       0.3110089 0.15209748 0.25582445 0.3229475
000260 c7 42 0b 3e 19 fa c6 3e 3d 2c 74 bd 04 c8 8b be
       0.13599692 0.38862684 -0.0596125 -0.27301037
000270 8a cf 3a 3e 53 53 bf 3e 46 3c 80 3e de 96 6f be
       0.18243232 0.3736826 0.25045985 -0.23397395
000280 2e d5 12 3e 09 0d 8b be 5e e4 40 be 33 71 79 be
       0.14339134 -0.27158383 -0.18837115 -0.24359588
000290 6b d3 35 be 66 5e 15 be 27 71 bb bd 82 20 8f 3b
       -0.17756431 -0.14586791 -0.091524415 0.004367889
0002a0 2d a3 90 3e c1 7a af 3d d7 ed 0b bd 0a b7 27 3e
       0.28249493 0.08568335 -0.03416237 0.16378418
0002b0 af c1 59 3e 98 05 bc bd 2b 25 f1 3e d7 36 12 3f
       0.2126529 -0.091807544 0.4709867 0.5711493
0002c0 a0 7e ee 3d 80 81 f0 3e ff 1e 98 3d 29 ae fc bd
       0.116452456 0.469738 0.07427787 -0.12337906
0002d0 99 ad e0 3b 3f 27 93 3d 66 34 5c 3d 8c 21 37 3e
       0.006856632 0.0718522 0.05376091 0.17883891
0002e0 0f 4d cc bc 73 77 1a 3e 3e a0 eb 3d e8 6d a9 bc
       -0.024939088 0.15084629 0.11505173 -0.02068229
0002f0 bd cd 30 3d c5 8b 2c 3e 2b 30 54 3e fa 81 a9 3d
       0.043164957 0.16850193 0.207215 0.08276744
000300 13 05 cc be 92 c9 55 be f4 72 8c bd 02 81 08 bf
       -0.3984762 -0.20877674 -0.06857863 -0.5332185
000310 84 3f cf be 40 8f 68 be 86 47 6c 3d b5 57 94 bc
       -0.40478146 -0.22710896 0.057685398 -0.018108228
000320 46 7d f0 3d fa dc 55 be c0 8b 8f 3d 7e 1f 86 3d
       0.11742644 -0.20885077 0.07009077 0.065489754
000330 79 33 ba bd 5b 21 8f bd 66 b2 7f 3e ec f0 d9 be
       -0.09091849 -0.06988784 0.24970397 -0.4256662
000340 ae 6d 40 bd 20 b5 b8 bc 15 96 7b be 09 c0 da bd
       -0.0469796 -0.022547305 -0.2456897 -0.10681159
000350 5e c5 71 be 11 21 30 be f2 3e ed be 9b 79 cf be
       -0.23610446 -0.17200114 -0.46337086 -0.40522465
000360 2e fc ba 3e 16 c8 61 bd 98 26 6c 3e 0d d7 1b 3e
       0.36520523 -0.055122457 0.23061597 0.15218754
000370 6c b2 53 3d 04 21 1c 3d 42 69 b8 bd 1e 2b d5 bc
       0.05168383 0.038117424 -0.09004451 -0.026021536
000380 22 2a 4f be 19 d2 d6 bd 07 5d 5a be 83 99 8a 3d
       -0.20230916 -0.10489292 -0.2132455 0.06767561
000390 e6 30 5c be 95 67 d2 be b1 0c be bd 26 99 ca 3d
       -0.21503028 -0.41094652 -0.092797644 0.09892492
0003a0 cf 8f b2 3d a3 0e 38 3f 62 db 84 be a7 74 d5 3e
       0.087188356 0.71897334 -0.25948626 0.4169056
0003b0 54 0d 4e 3d 4f e3 9f bd ec 25 4d 3e 98 e3 65 be
       0.05030568 -0.078070275 0.20033997 -0.22450101
0003c0 9f bc ac 3d 4d 90 9a 3e ba 08 d6 bd 9a 26 1f 3e
       0.08434414 0.30188218 -0.10450883 0.15542069
0003d0 e2 22 4a be e9 96 20 bd 55 39 a5 bc 10 b1 16 3d
       -0.19739869 -0.03920642 -0.02016894 0.036789954
0003e0 d1 4e a1 bd 3a 09 85 bd 47 b2 d5 3b 6b aa 46 3e
       -0.07876361 -0.064959005 0.0065214965 0.19400947
0003f0 37 d6 9b bd 3d e6 4e 3e 43 f7 bb 3c f8 d1 94 bc
       -0.076092176 0.20205016 0.022945052 -0.018166527

conv2.bias f4 [16]
000000 a7 b2 b1 3d c1 9b a0 3d 1a ab b3 3d 7e ec cf bd
       0.08676653 0.07842208 0.087728694 -0.10152529
000010 93 78 0c 3c 51 77 6e bd 20 1c 6f bd 66 de 6b 3c
       0.008573669 -0.058219258 -0.05837643 0.014396286
000020 97 c9 27 3d 24 78 f6 bc af 0b e8 bd 66 2d dd bd
       0.040963735 -0.030086584 -0.113303535 -0.10799675
000030 43 a4 94 3d 05 53 4b bc f6 4f 85 3d cc 69 67 bd
       0.07257893 -0.01240993 0.06509392 -0.05649738

bn_2.weight f4 [16]
000000 a0 87 43 b9 29 8a 76 3f c8 e5 57 3f 1a 23 38 3f
       -0.00018647173 0.96304566 0.84334993 0.7192856
000010 d9 62 61 3f 7b e0 80 3f e7 1e 85 3f 90 9b 07 3f
       0.88041455 1.0068506 1.0400056 0.52971745
000020 8a 0f 84 3f d5 31 83 3f 4c 9c a7 3f f9 55 4c 3f
       1.0317242 1.0249583 1.3094573 0.79818684
000030 77 a4 51 3f 8d 00 4e 3f 42 20 64 3f ac c3 46 3f
       0.8189158 0.8046959 0.8911172 0.7764232

bn_2.bias f4 [16]
000000 fd fa 28 bc e2 99 b0 be c9 0b 41 be 65 2e e6 bc
       -0.0103137465 -0.34492403 -0.18852152 -0.028098295
000010 71 23 8c be 40 c1 5d be 90 62 88 be a9 c5 68 3d
       -0.2737079 -0.2165575 -0.26637697 0.05682913
000020 8f a6 a2 be 9d cb 94 be ad 79 23 bf 52 8c 59 be
       -0.317677 -0.29061595 -0.6385754 -0.21244934
000030 1e fd f1 bc 91 62 18 bf ed fd 21 3c fa 70 dd 3d
       -0.029539641 -0.595254 0.009887201 0.10812564

bn_2.running_mean f4 [16]
000000 da 4c ea 3e 6c a5 b6 be 52 e0 56 bf 7a 23 6d bf
       0.45761758 -0.35673082 -0.83936036 -0.9263226
000010 bc 40 7a 3f b7 c4 b1 bf ef d2 6e bf d1 6a 6f 3d
       0.97755027 -1.3888158 -0.9329061 0.058451477
000020 1a 13 97 bf df 78 b4 3f 20 49 75 bf 28 82 cb bd
       -1.1802704 1.4099387 -0.95814705 -0.09936935
000030 9a d3 01 bf d1 a1 ce 3f b4 a1 ac bf 9d 6d 84 bf
       -0.50713503 1.6143132 -1.3486848 -1.0345951

bn_2.running_var f4 [16]
000000 c7 65 22 3e 84 8d 39 41 6c 00 db 40 7b 22 5c 40
       0.15859137 11.59705 6.8438015 3.4396045
000010 8c 41 04 41 ae c5 9f 40 62 cb 8c 40 41 d2 2a 40
       8.266003 4.992881 4.399827 2.6690829
000020 53 8f 38 41 04 33 70 41 81 aa 59 41 00 67 18 41
       11.534991 15.012455 13.604127 9.5251465
000030 ac 2b 92 40 80 24 da 40 af 8e 18 41 34 f2 17 40
       4.567831 6.8169556 9.534835 2.374158

conv3.weight f4 [32, 16, 3, 3]
000000 15 74 a1 bd 19 06 3e 3d 4a ab 9a ba 0c c0 0e bd
       -0.07883469 0.046392534 -0.0011800316 -0.03485112
000010 3d 12 d2 3b 67 00 34 3d 0b 8a 16 bd fc 75 9d bc
       0.0064108656 0.043945696 -0.03675274 -0.019221298
000020 90 9d 82 bd 07 90 c6 bd 97 72 b8 bd da 20 b7 bc
       -0.06377709 -0.0969544 -0.09006231 -0.022354532
000030 32 8d 5c bc ed d7 b8 3d e4 2c 7d 3c 2b 93 ab 3e
       -0.013461398 0.090255596 0.015452597 0.33510718
000040 e8 84 93 3e 27 1a b7 3d 2b d0 2b 3e 8d 09 02 3e
       0.28812337 0.08940535 0.16778629 0.12698956
000050 5c 92 2b 3d 50 a4 e0 3d ab 21 dd bd 64 89 f7 be
       0.041887626 0.1096884 -0.10797437 -0.48347008
000060 99 ff bb bd b4 ae a8 be 66 2a f7 bd 18 11 78 3d
       -0.09179611 -0.32945788 -0.12068634 0.060563177
000070 7c 0e af 3e ab 47 9a 3d 96 ac 35 3e 7d 91 df bb
       0.34190738 0.07533201 0.17741618 -0.0068227635
000080 e5 88 1a be d6 b2 35 3e c8 c8 81 3d 68 a8 e2 3d
       -0.15091284 0.17744002 0.06337124 0.11067277
000090 ed eb 90 3e 23 43 ae 3e 70 a0 41 3e a0 9d 76 3e
       0.28304997 0.34035596 0.18908858 0.24083567
0000a0 b0 04 b5 3e 59 b2 cb be 9f be 41 be df 20 0b bd
       0.3535514 -0.39784506 -0.18920372 -0.033966895
0000b0 4d 43 1a be 69 ba 97 3c 35 1e 2c be 5b 0c 8d be
       -0.15064736 0.018521504 -0.16808398 -0.2754849
0000c0 18 d5 ac 3d 68 65 79 be 77 3f 50 3e 84 cf 30 be
       0.08439082 -0.2435509 0.2033671 -0.17266661
0000d0 49 08 82 3e 85 be cf 3e d4 d5 47 3d c2 67 23 be
       0.25396946 0.40575042 0.048787907 -0.15957549
0000e0 54 e9 db 3d c5 ea a9 3d 8e d3 12 3a 0b 17 21 3e
       0.10737863 0.08296732 0.0005600982 0.15731446
0000f0 f4 74 b0 bd 37 a1 39 3c 65 58 4c bd 83 fc ad bd
       -0.08616057 0.0113299405 -0.049888987 -0.084954284
000100 58 72 a1 3d 20 af 91 bd ee 95 db 3d a7 bd 34 bc
       0.078831375 -0.071134806 0.10721956 -0.011031545
000110 d8 22 ca bd 01 f4 6c bd 5d 58 e5 3d 4c ef 01 be
       -0.09869927 -0.057849888 0.111984946 -0.12688941
000120 ff 88 95 3d a1 14 75 bd 54 9d 43 3e 68 87 41 3e
       0.073015206 -0.059834126 0.19102985 0.1889931
000130 1d c0 33 be 64 b0 fc 3d 7f 01 2e 3d de 20 c1 3e
       -0.17553754 0.12338331 0.042481896 0.37720388
000140 48 ac 03 3f 31 90 df be 87 33 e4 be 62 e1 52 be
       0.51434755 -0.43664697 -0.44570562 -0.20593789
000150 5d 03 8c bd e0 c0 61 3d f9 9d 0a 3e 0a 44 6e 3e
       -0.06836579 0.05511558 0.13536824 0.23268142
000160 4b 21 13 3e 7b d2 9f be 84 9b d4 bd 33 e2 6d bd
       0.14368169 -0.3121527 -0.10381225 -0.05807705
000170 ea 04 61 bd c0 5d ac 3c 6e 0c 84 3e 64 f9 29 be
       -0.054936327 0.021040797 0.25790733 -0.16599041
000180 43 10 02 be ca af 4f 3e cc c0 f9 3d 23 a2 70 3d
       -0.12701516 0.20281902 0.12194976 0.058748376
000190 fe 85 1b bd a0 b1 98 3e ab c8 23 3d 51 bf 04 3f
       -0.03796958 0.29823017 0.039986294 0.51854426
0001a0 cf 05 f0 3e 8c f0 25 bd 06 4e 07 3e f7 d5 55 be
       0.46879432 -0.040512607 0.13213357 -0.20882402
0001b0 b3 a5 47 be 11 2e a4 3e 63 e7 fc 3d 4b 09 7f 3d
       -0.19496803 0.32066396 0.12348821 0.06226472
0001c0 f5 b4 54 3d 64 81 de 3c 11 c5 db bd fe ae c0 be
       0.051930387 0.027161308 -0.10730947 -0.37633508
0001d0 de 2e 9f be f2 43 f7 3d d1 ea b2 3d d2 fe dd 3d
       -0.31090444 0.120735064 0.08736194 0.10839619
0001e0 49 47 4b be 9c e8 ed 3d 22 be 46 bd d7 f8 5a be
       -0.19851412 0.11616632 -0.04852117 -0.21383987
0001f0 a0 35 11 be 5b 16 ae bd b9 ef df bd fe 8e 83 be
       -0.14180613 -0.08500358 -0.10934395 -0.25695032
000200 47 d8 52 be c7 26 e0 3c 6f 32 1f 3e 22 a0 8f 3e
       -0.20590316 0.02736224 0.15546583 0.2805186
000210 89 24 22 3e 26 f9 98 3d 7e 11 3b be 0e 2d 8d 3c
       0.1583425 0.07469396 -0.18268391 0.017233398
000220 72 c6 1a 3e 61 8c b6 bd a2 9c ee 3d c8 d9 69 be
       0.15114763 -0.08913494 0.11650969 -0.22836983
000230 15 57 8a 3c 60 85 17 be 50 e2 c3 3d c6 d1 28 bd
       0.016887227 -0.14796972 0.0956465 -0.04121568
000240 5a ab 29 bd d7 a8 4a 3d 32 39 9e 3d 13 01 9d bd
       -0.04142318 0.049477424 0.07725753 -0.076662205
000250 e9 c0 51 3d 56 bd a1 3d a0 a1 5b bc 9c 00 92 bc
       0.051209364 0.07897441 -0.013405234 -0.017822556
000260 68 26 09 bc 60 cd d1 bd cb e2 bd be 2d 26 af 3d
       -0.008370973 -0.1024425 -0.37087092 0.08552203
000270 57 e1 d4 bd 14 d5 14 be 6d 09 06 be ae de 71 3e
       -0.10394543 -0.14534408 -0.13089533 0.23620102
000280 b3 d4 a8 3e 6a 02 27 3d de 48 0a 3c 73 7c cd bd
       0.32974777 0.040773787 0.008440224 -0.100335024
000290 97 7f e3 bd 68 48 7d bd f1 e1 11 be 62 48 f9 3d
       -0.1110832 -0.06183663 -0.14246346 0.12172009
0002a0 dc 4a 4a 3e 39 70 eb 3c 75 f5 d5 3d 8a 1e 11 bc
       0.19755119 0.028740035 0.10447208 -0.008857379
0002b0 9d 6f f7 3d d4 e0 a9 3d e1 cc dc bc 55 b8 d0 3d
       0.120818354 0.08294836 -0.026953163 0.101914085
0002c0 17 84 04 be ba 94 69 3e ff 66 68 3d 6a 94 c0 be
       -0.12941013 0.22810641 0.05673885 -0.3761323
0002d0 bd 20 46 3e 7a d5 3d 3e 8e d0 09 3f b9 e4 0f bd
       0.19348426 0.18538466 0.53833854 -0.035130236
0002e0 24 fa 92 3e d6 4b 94 3e 3e 3b 60 bc 6c 2a c7 3e
       0.28706467 0.28964108 -0.013685999 0.38899553
0002f0 d4 f0 87 bd 76 b4 19 bd 44 6b 69 bd 49 b4 84 be
       -0.06637731 -0.037525617 -0.056987062 -0.25918797
000300 b6 7a 11 bc 00 c4 4c be 66 cb 33 3e 9b da 23 3e
       -0.008879354 -0.19996643 0.17558059 0.1600136
000310 4f 5a 8b bc ea 60 12 bd 7e bb a1 bd 0a 97 06 be
       -0.017010836 -0.035736956 -0.078970894 -0.13143554
000320 b6 99 03 3e b5 0d 3b be d2 fb 3a be 5e de ef bd
       0.12851605 -0.18266948 -0.18260124 -0.11712335
000330 21 84 29 be d9 6f 32 bd c4 36 71 bd 03 4d d0 bd
       -0.1655431 -0.043563697 -0.05889012 -0.10170939
000340 ac 8b 47 3e 89 9e 16 3e 1e ae 3c bd da 4f 4d 3e
       0.19486874 0.14708914 -0.04606449 0.20049992
000350 c9 5d 6c 3e de da 8c bd 34 89 73 3d 88 86 d6 bd
       0.23082651 -0.06877683 0.05945702 -0.104748785
000360 c6 fd 0e 3e cc 1b 43 3d 39 4c f1 3c 83 f3 51 3e
       0.13963994 0.04763393 0.029455291 0.20503049
000370 8e 65 8f be d2 e8 7b bd c0 85 97 3e 9b 02 03 3e
       -0.28007168 -0.06150133 0.2959423 0.12793963
000380 0c 50 85 be 75 35 0a be a2 99 9f 3d 59 53 c2 3e
       -0.26037633 -0.13496955 0.07792975 0.37954214
000390 dc 32 3d be 13 9d f3 bd 1b 1a cb be da de 95 be
       -0.18476433 -0.11895194 -0.39668354 -0.29271585
0003a0 a2 59 cd be 37 df 45 be 83 e0 ea bd aa eb d7 bc
       -0.40107447 -0.19323431 -0.114686035 -0.02635749
0003b0 95 ca 81 3e 13 73 48 be 6a 23 5f 3d 89 7f ac bd
       0.2534987 -0.19575147 0.054477133 -0.08422763
0003c0 29 5c 56 be e5 31 c9 bd 09 e5 4b be 29 7c 02 be
       -0.20933594 -0.0982397 -0.19911589 -0.12742676
0003d0 62 1a e4 bc da 12 6a 3e 55 a1 41 be e9 6a 36 be
       -0.027844612 0.22858754 -0.189092 -0.1781422
0003e0 43 35 50 3e ca 2d 44 be 56 d1 1d bd 7e c4 6e 3e
       0.20332818 -0.19158092 -0.038529716 0.23317143
0003f0 dd 35 71 bb 05 f5 3d 3e c1 1d cd bd 02 44 c1 bc
       -0.0036805787 0.18550499 -0.10015441 -0.023591999

conv3.bias f4 [32]
000000 58 ea 21 bd 5d 5c 42 bb 3a a8 20 3d 98 20 02 bd
       -0.03953013 -0.0029657104 0.039222933 -0.031769365
000010 be 8d d1 3c d3 4b 82 bd 14 bb 3e bc fc 98 fa 3c
       0.025580283 -0.063621186 -0.011641283 0.030590527
000020 52 e7 04 bc 1d bc b3 3c 4b 54 f1 ba 58 70 78 bd
       -0.008111792 0.021940285 -0.0018411962 -0.060654014
000030 ca 8e a4 b9 da 47 4a bd ee 40 37 3d 73 48 aa 3d
       -0.00031386904 -0.04938493 0.044739656 0.083146
000040 86 0e 98 bd 63 b9 04 3d 92 ac 7e bd ec e7 a5 bd
       -0.07424645 0.03240336 -0.062176295 -0.08100876
000050 63 24 96 3d ef 7d 9b 3d 95 7b b1 3c 50 08 9e bd
       0.07331159 0.07592379 0.021665374 -0.07716429
000060 28 35 3b 3d 6b ef 87 3d af 98 7a 3d 94 d0 24 bd
       0.04570499 0.06637462 0.061180767 -0.040237978
000070 f3 bf 84 3d a2 49 46 3b 29 3c a6 bb 08 d2 49 bc
       0.06481924 0.003025629 -0.0050730896 -0.012318142

bn_3.weight f4 [32]
000000 b2 81 06 40 d6 25 ef 3f 0f 6a 13 40 06 46 72 3f
       2.101666 1.8683422 2.3033483 0.946381
000010 68 27 d6 3f 29 34 2f 3f d0 48 a9 3f e7 f9 fc 3f
       1.6730776 0.68438965 1.3225346 1.9763764
000020 cf 8f 51 3f 14 fa aa 3f 5f cd fe 3f 0e 3b ef 3f
       0.8186006 1.3357568 1.9906424 1.8689897
000030 80 cb f4 3f af 6f 23 40 c2 a9 92 3e 65 5c d2 3f
       1.9124603 2.5536916 0.2864514 1.6434447
000040 a3 87 db 3f 08 60 db 3f af 58 01 40 5a 58 91 3f
       1.7150768 1.7138681 2.0210378 1.1355088
000050 21 45 1b 3f 48 1f e7 3e 7e b7 f6 3f 25 74 88 3f
       0.6065236 0.45141053 1.9274747 1.0660444
000060 1d 8b 05 40 e6 9d 04 40 2f 7e 0a 40 78 f6 0a 40
       2.0866158 2.0721374 2.1639516 2.1712933
000070 39 22 0f 40 42 92 f5 3f a8 55 a2 3f 50 fb 0d 40
       2.2364638 1.9185259 1.268239 2.218464

bn_3.bias f4 [32]
000000 3e 1e 9b 3d dc 88 af bd 9e 1e 21 3e 88 7a 44 3d
       0.075741276 -0.08571026 0.15734336 0.047968417
000010 39 c0 6a 3e 74 62 be 3d d2 97 24 3e b3 50 99 bd
       0.2292489 0.09296122 0.1607354 -0.07486095
000020 19 41 49 bb a2 11 29 3e 9e a2 59 3e 70 52 f8 bd
       -0.0030708967 0.16510633 0.2125344 -0.12125099
000030 53 80 51 3e ef fe a5 3e 34 18 7a 3d a6 88 9b 3d
       0.20459108 0.3242106 0.06105824 0.07594423
000040 7a eb f9 3d fd 36 a6 3e a6 cb a9 bc b5 f3 1e 3e
       0.12203117 0.32463828 -0.02072699 0.15522654
000050 5d 61 01 3e 13 b4 1c bc 41 19 99 3d 4e 00 88 3d
       0.12634797 -0.009564417 0.0747552 0.06640683
000060 a1 8b f0 3d cc e7 d0 3d 48 ee 10 3e 71 c9 07 bd
       0.11745382 0.10200462 0.14153397 -0.033151094
000070 cf e0 b5 bd d3 dd bf 3d 2b 61 b6 3d c3 88 eb bc
       -0.088807695 0.093684815 0.08905252 -0.028751737

bn_3.running_mean f4 [32]
000000 84 60 9e 3f 05 34 bd 3f 40 4c 47 3f 30 f7 8b bf
       1.2373204 1.47815 0.77850723 -1.0934811
000010 fc 49 11 3c ab bb 74 3e 74 96 d9 3d 8a cb 88 bf
       0.008867737 0.23899715 0.106244 -1.0687115
000020 06 c7 a1 bd 65 fe 04 bf d1 d6 e2 3f 8d 5b d8 bf
       -0.07899289 -0.51950675 1.7721807 -1.6902939
000030 14 be b3 3f c9 1f ad bf 9d 2f 04 bd 14 ee ee bf
       1.4042382 -1.3525325 -0.03227197 -1.8666406
000040 60 9c 7c 3f 80 ba b3 3f 46 9f 34 c0 9a 2d 0a 3e
       0.9867611 1.404129 -2.8222213 0.13493958
000050 2a 6d ef 3e 00 39 cd bd 84 ae 41 bf 25 09 c0 3f
       0.46762973 -0.100206375 -0.75656915 1.5002791
000060 a2 f1 b0 3e a7 5e 3e 3f e8 30 08 40 d9 f6 e1 be
       0.3455935 0.7436318 2.127985 -0.44133642
000070 2b 44 40 be ac 77 84 c0 46 e2 92 bd 4a 92 d6 bf
       -0.18776004 -4.1396084 -0.071720645 -1.6763394

bn_3.running_var f4 [32]
000000 6e a9 90 40 dc 99 86 40 d1 8a a0 40 7a f7 2e 3f
       4.5206823 4.2062817 5.0169454 0.6834637
000010 f2 b2 72 40 c8 a1 ee 3e 36 86 dc 3f 68 04 61 40
       3.792172 0.46607804 1.7228458 3.515894
000020 8a 99 0e 3f ef fa ce 3f 76 96 b3 40 86 0c 83 40
       0.5570303 1.6170329 5.612117 4.0952787
000030 dd e9 b9 40 57 a7 f6 40 e8 76 34 3e 8b 40 7a 40
       5.809798 7.707927 0.17623484 3.9101894
000040 b6 18 74 40 60 3a a7 40 a5 c7 d2 40 b4 8f bf 3f
       3.8140082 5.225876 6.5868707 1.496573
000050 ee 3b cb 3e 4e ee 49 3e 0b 56 89 40 c2 31 ad 3f
       0.3969416 0.19719812 4.2917533 1.353081
000060 96 7e b5 40 14 23 a5 40 cb b1 f3 40 9e 43 c2 40
       5.6717024 5.160532 7.6154532 6.070754
000070 07 bc f3 40 75 89 bb 40 dd 8e 1f 40 8a 4c a7 40
       7.6167026 5.8605294 2.4930947 5.228093

fc1.weight f4 [10, 288]
000000 28 fe b8 bc 84 51 b4 bc f6 08 e9 bd 3c 37 f6 be
       -0.022582129 -0.022011526 -0.11378662 -0.48089015
000010 e3 f8 9c be 13 00 7e bd 21 65 87 be 6f 71 1c bf
       -0.30658635 -0.06201179 -0.26444343 -0.61110586
000020 ef d3 8c 3c 26 37 20 3e a6 c0 cb 3d eb 47 7f 3e
       0.017190902 0.15646037 0.09948854 0.24929778
000030 cd 11 a5 3d 12 47 85 3d 39 e0 58 bd 23 58 b6 bd
       0.08060036 0.06507696 -0.05294821 -0.089035295
000040 06 5d 30 bd 96 04 01 bc ae d1 76 3d 77 dc b6 3c
       -0.043057464 -0.0078746285 0.06025856 0.022321923
000050 4a 7c 4d 3e 16 5f 3a be de 81 5e be ed 29 81 3e
       0.20066944 -0.18200335 -0.21729228 0.252273
000060 bc ab 8c be 18 a7 96 be ed 7d 83 be 2f 7e 70 3c
       -0.27474773 -0.29424357 -0.2568201 0.014678522
000070 0d 08 8d 3d f8 32 0a 3d 72 36 9a 3d f3 47 5c bd
       0.06886301 0.033740014 0.07529916 -0.053779554
000080 35 3f 85 bd 61 a7 8d bb c4 4b e2 bd c8 d8 9d bd
       -0.065061964 -0.0043229316 -0.110496074 -0.07707363
000090 ad 46 b5 be 4f a2 82 be e9 da 8a be 82 c9 40 be
       -0.35405484 -0.25514457 -0.2712014 -0.18826869
0000a0 3d f1 fb 3d fd dc 80 3e d5 d1 8f bd 4e 19 e3 3d
       0.12301872 0.251686 -0.07022444 0.11088811
0000b0 76 f4 1c 3f 39 49 a0 bc 2f 4b b2 bd dd 52 f0 bd
       0.6131052 -0.019566165 -0.087057464 -0.11734555
0000c0 bc af 09 3c 06 89 94 bd 49 4b a5 3d 7e 72 53 3d
       0.008403715 -0.07252698 0.08071 0.05162286
0000d0 ba d8 c6 bd cb 35 0c 3e 91 b2 84 bd 94 11 6d be
       -0.09709306 0.13692395 -0.06479371 -0.23151237
0000e0 59 1b 12 be 6c a5 0d bd 25 f8 67 3d d8 4b aa 3a
       -0.14268245 -0.034581587 0.056633133 0.0012992574
0000f0 9c 9a 2d be 5a a5 45 3e e3 1a d5 3d 37 03 5a bd
       -0.1695351 0.19301358 0.10405519 -0.053225722
000100 a4 3f 16 3f 84 36 20 3f 66 4c 60 3e 50 c6 7c 3e
       0.5869086 0.62583184 0.21904144 0.24685025
000110 a8 46 e3 3c ed 8e 9d 3e ea 0c 99 be 67 7c c9 be
       0.027743652 0.30773106 -0.29892665 -0.39352724
000120 32 64 16 bc 80 a4 71 3c a8 8c 14 be c5 bd 75 bd
       -0.009179162 0.0147486925 -0.14506781 -0.05999543
000130 e1 9a 9d 3c 69 78 bb 3d 90 bf 1c be 37 d1 db bc
       0.019238891 0.09153826 -0.1530745 -0.02683316
000140 e3 66 89 3e 96 8b c2 3c c9 76 65 3d b5 e4 0d be
       0.2683631 0.0237482 0.056021485 -0.13856776
000150 e5 c9 04 be 54 26 d1 bd 19 e9 13 3e 86 b5 50 be
       -0.12967642 -0.10212389 0.14444388 -0.20381746
000160 ac d4 1f 3d 4d 90 dc 3e 9a da 82 be 6a 85 c4 be
       0.03902118 0.43078843 -0.25557405 -0.38383037
000170 fd bb 03 bf 15 f3 a9 3d eb 2b 13 3e 44 6d 82 bc
       -0.5145872 0.08298317 0.14372222 -0.015921243
000180 5e 89 32 3e ae 84 2a be 87 71 7f be d5 80 74 be
       0.17435214 -0.16652176 -0.24945651 -0.2387727
000190 b6 9e 9d 3e 79 11 83 be 01 d3 60 bd a0 f6 cb 3e
       0.3078515 -0.25599268 -0.05488873 0.39836597
0001a0 80 26 06 bf 8c f2 fb bb 3c c2 fc 3b 30 a4 23 be
       -0.52402496 -0.007688826 0.007713584 -0.15980601
0001b0 14 59 14 3e b6 6b 5d 3e bb c4 92 be 3c 52 ba 3c
       0.14487106 0.2162312 -0.28665718 0.02274429
0001c0 73 ca 1d 3c 44 eb 98 be 46 b3 11 be fb df 2a 3d
       0.009630787 -0.29866993 -0.14228544 0.04171751
0001d0 1b 97 86 be 14 c7 4c be 23 3d 23 3e 60 69 59 3e
       -0.2628716 -0.19997817 0.1594129 0.21231604
0001e0 01 69 de 3e 09 19 c6 3e 5a e6 4e be f1 8c 36 3f
       0.43439487 0.38690975 -0.2020506 0.7130881
0001f0 cf fe 28 3f 9e 20 00 bd 85 6d b8 bd 40 23 60 bd
       0.6601381 -0.031281106 -0.09005264 -0.054721117
000200 84 15 40 3d 85 e7 c6 bd a3 08 52 bc 38 42 99 3c
       0.04689552 -0.097121276 -0.012819442 0.018708333
000210 ae 25 90 bd 98 86 b2 3d 53 74 13 3e 9e 63 ee bd
       -0.07038437 0.08717078 0.14399843 -0.11640094
000220 95 57 b5 3d f9 41 29 bc 73 b0 aa bd 15 90 85 3d
       0.088545956 -0.0103306705 -0.08334436 0.06521622
000230 61 b9 0c 3e 3b c2 a2 be d3 db 0f bc 4b 94 b9 3d
       0.13742591 -0.3178881 -0.0087804375 0.09061488
000240 87 2b e4 bd 1c b4 85 be a6 09 8d 3e a3 b1 80 bd
       -0.11141115 -0.26113975 0.27546424 -0.062838815
000250 73 89 2b be af 42 b1 3d 28 7e 27 be b1 85 89 be
       -0.16751651 0.08655297 -0.16356719 -0.2685981
000260 3c 4e 38 3b d0 cc 98 be ca 61 79 bd f1 02 70 3e
       0.0028122803 -0.2984376 -0.060884275 0.23438622
000270 8c d2 8a 3d ef 83 8a be 97 d9 0f be c7 2d 09 bd
       0.0677844 -0.27053782 -0.14047848 -0.033490922
000280 1d 50 3f 3e b3 36 43 be 13 f9 7b bd 61 23 ee 3a
       0.18682905 -0.19063835 -0.061516833 0.0018168503
000290 24 a1 64 3e 12 b0 86 3e 50 f5 ba 3e 4b bb 1b 3f
       0.22327095 0.26306206 0.36515284 0.6083266
0002a0 45 93 f8 bd 88 58 5d bd a9 5d c4 bd 21 76 a3 bd
       -0.121374644 -0.054039508 -0.09588177 -0.07981516
0002b0 fe e9 c1 bd 95 49 73 be 33 27 0c bd 6e b6 96 bd
       -0.094684586 -0.23758538 -0.03421707 -0.073590145
0002c0 f5 f4 fd bd 28 9e 4d 3e 11 48 df 3d ad 83 55 bd
       -0.124002375 0.20079863 0.109024175 -0.05212753
0002d0 f0 7a 07 bd 80 d8 32 3d 90 e0 a8 3d d0 81 a6 bc
       -0.033076227 0.0436635 0.08245957 -0.020325571
0002e0 49 a9 88 3d 0e 1b f8 bc c5 95 b3 bd ab cd 86 bd
       0.066729136 -0.030286338 -0.08768801 -0.06582197
0002f0 49 97 25 bd 78 6b e8 3c 3b 82 af bc 9a 5d d4 bd
       -0.04042748 0.028371558 -0.021424403 -0.103694156
000300 d1 41 d6 bd 05 b3 cb 3c e3 c8 1d be 53 3d fa bc
       -0.10461772 0.024865637 -0.15408663 -0.03054682
000310 f9 b8 bc bd 6b 0a c7 3b c8 9c 13 bd 80 d4 de bd
       -0.09214968 0.00607424 -0.03603819 -0.10880375
000320 e6 de 59 be 19 24 38 3d fb 45 4f be 7e 26 17 be
       -0.21276435 0.0449563 -0.20241539 -0.14760777
000330 71 84 bd 3e 83 8a 04 3e 2e 5b 6a 3d 82 c5 eb 3d
       0.37015107 0.12943463 0.057215862 0.11512281
000340 88 cb 75 3d 29 2f cf 3d cb 44 04 be 9f 9b 3a be
       0.060008556 0.10116417 -0.12916867 -0.18223427
000350 6e 65 8f bd f3 79 16 be ea 8a 28 bc 0d 97 0c 3d
       -0.07001768 -0.14694957 -0.010287026 0.03432374
000360 c9 30 a0 bd b4 8f 07 be 75 96 1a bd 4f d3 14 be
       -0.07821805 -0.13238412 -0.037741143 -0.14533733
000370 4c 60 f3 3c 62 6f ae 3e 47 8c 03 bf f3 66 28 3e
       0.029709004 0.34069353 -0.5138592 0.16445522
000380 31 6a 92 3e 76 37 de 3d 4f 69 5e bc f1 24 d1 3d
       0.28596643 0.10850422 -0.013574912 0.10212124
000390 d7 98 b5 bc 4e da 49 3e 17 b4 16 3d 48 c4 37 bc
       -0.022167606 0.19712183 0.03679284 -0.011216231
0003a0 aa 10 48 be e0 6c dc be b9 87 38 be f2 e9 97 bd
       -0.19537607 -0.43051815 -0.18020524 -0.074176684
0003b0 c0 00 97 3e 8a dc ee bd d1 8d fb 3d 03 b5 59 3e
       0.2949276 -0.11663158 0.12282909 0.21260457
0003c0 0b fc c5 3c bf 39 07 3d 27 ec 44 3d 14 f1 f7 3e
       0.024168035 0.033014055 0.048076775 0.48426116
0003d0 f9 ea f1 3d 1e c4 54 be 04 1c ce 3d 0c 78 96 bc
       0.118123956 -0.20777938 0.10063937 -0.01836779
0003e0 98 8b 65 3e b7 df 25 be a9 ba 90 be fc 0b 0d 3f
       0.22416532 -0.16198622 -0.2826741 0.5509641
0003f0 9e 95 11 be f8 a3 46 3e f3 c9 8e 3e f6 43 0f bf
       -0.1421723 0.19398487 0.2788845 -0.55963075

fc1.bias f4 [10]
000000 50 eb 9b bd c6 be 61 bd 87 95 7c bd 5c fc 4d 3d
       -0.07613242 -0.055113576 -0.061666038 0.050289497
000010 60 52 a9 3c c5 50 2b bc 91 05 3d bd 6c 71 f6 ba
       0.020669162 -0.010456269 -0.046147887 -0.0018802113
000020 35 90 37 3e 60 97 04 be
       0.17926104 -0.1294837
