HW2/hw_alex/hw2_py/results/_13_23_18/lr_0_01_net_1_CE_/model.pth (torch_old, 39192 bytes, 20 tensors)

conv1.weight f4 [8, 1, 3, 3]
0	0x3d30019a	0.042970277
1	0xbe9edb27	-0.31026575
2	0xbcb418d8	-0.021984503
3	0x3e8b3bdb	0.27194104
4	0x3d87c9d1	0.0663029
5	0x3e75d389	0.24006476
6	0xbdf1ac77	-0.11800473
7	0x3d0a12b5	0.033709247
8	0x3ea3f39f	0.32021806
9	0xbdfa4cad	-0.12221656
10	0x3e084800	0.13308716
11	0x3e0253b9	0.1272725
12	0xbdc1a952	-0.094561234
13	0xbc98d8c8	-0.018658057
14	0x3e9ca292	0.3059278
15	0xbd2f25fd	-0.042760838
16	0xbe94b6f2	-0.29045826
17	0xbe9f58ef	-0.31122538
18	0xbc2eca6c	-0.010668378
19	0x3cf7e83a	0.030262101
20	0x3e1abda8	0.1511141
21	0x3da80cad	0.08205543
22	0x3e9a9c87	0.30197546
23	0xbb9755db	-0.004618389
24	0x3d874b87	0.066062026
25	0xbb924f8e	-0.00446505
26	0x3e49cff3	0.19708233
27	0x3e2934bd	0.16524024
28	0x3e51b2c2	0.20478347
29	0x3e800f89	0.25011852
30	0xbd067983	-0.032830726
31	0x3e4fc71e	0.20290801
32	0x3e34b4b2	0.17647055
33	0x3e5ed85e	0.21762225
34	0xbd2c92c2	-0.042132147
35	0xbea54616	-0.32280034
36	0xbb5de79d	-0.0033859976
37	0x3d0a3543	0.0337422
38	0xbe942cad	-0.28940335
39	0xbe755ebd	-0.23961921
40	0x3e957b5e	0.29195684
41	0x3e653456	0.22383246
42	0xbe15e83a	-0.14639369
43	0x3e2c0aeb	0.1680104
44	0xbe390b1b	-0.18070643
45	0xbdb9da9e	-0.09074901
46	0x3e0cb870	0.13742232
47	0xbd8ba88e	-0.06819259
48	0x3da7d5d2	0.0819508
49	0x3ea96295	0.33083025
50	0xbe1a6cdf	-0.15080594
51	0xbe88a494	-0.26688063
52	0xbdb11a35	-0.08647577
53	0x3d138e6e	0.036024503
54	0xbd583e08	-0.052793533
55	0xbeaf9cc3	-0.34299287
56	0xbe048d5b	-0.12944548
57	0xbe4fe386	-0.20301637
58	0x3c56df9a	0.013114834
59	0xbde17515	-0.1100866
60	0x3ea893e2	0.32925326
61	0xbdd53852	-0.10411133
62	0x3e1f90b6	0.15582547
63	0xbde3c929	-0.11122353
64	0x3d97e79a	0.07417221
65	0xbe93b60d	-0.2884983
66	0x3e96a812	0.29425102
67	0xbddacabe	-0.10683201
68	0xbe1d6a1b	-0.15372507
69	0x3e8ccb6a	0.27498943
70	0x3c826f0d	0.015922094
71	0x3ea32052	0.31860596

conv1.bias f4 [8]
0	0x3e0f0a3a	0.13968745
1	0x3e29f10c	0.16595858
2	0xbe9cb7aa	-0.30608875
3	0x3e2b1bc6	0.16709813
4	0xbdafdec6	-0.085874125
5	0xbc147c20	-0.009062797
6	0x3e87902d	0.26477185
7	0x3e6382ae	0.22217819

bn_1.weight f4 [8]
0	0x3e178cbf	0.14799784
1	0x3f3d20c4	0.7387812
2	0x3f726f5a	0.9470116
3	0x3f2c3505	0.672684
4	0x3d6ea52f	0.058263
5	0x3a02ff48	0.00049971463
6	0x3f71dad5	0.94474536
7	0x3e7fa7b7	0.24966322

bn_1.bias f4 [8]
0	0x3c5412b3	0.012943911
1	0xbc4cd028	-0.0125008
2	0x3d034afc	0.032053933
3	0x3d2045be	0.03912901
4	0xbc4dc43b	-0.012558992
5	0xbb55eae8	-0.0032641236
6	0xbb162f32	-0.0022916314
7	0x3b8422dc	0.004032476

bn_1.running_mean f4 [8]
0	0xbe65cd69	-0.22441639
1	0x3ec5cf9d	0.3863496
2	0xbf5dc19a	-0.8662354
3	0xbece97e0	-0.40350246
4	0x3c4a5d40	0.012351334
5	0x3d35c33d	0.044375647
6	0x3f139e43	0.57663363
7	0x3ae996c9	0.0017821427

bn_1.running_var f4 [8]
0	0x3e027609	0.1274034
1	0x3db0d3d9	0.08634157
2	0x3e5007e9	0.20315517
3	0x3e90b0d5	0.28259912
4	0x3cce41f2	0.02517793
5	0x3ca7a14b	0.020462653
6	0x3e0744fa	0.13209906
7	0x3dd7f087	0.10543924

conv2.weight f4 [16, 8, 3, 3]
0	0x3dc2913d	0.09500358
1	0xbdc893da	-0.097938254
2	0x3d2ee16d	0.04269545
3	0x3dc4bd6a	0.0960644
4	0x3db112b5	0.08646146
5	0xbdcc9fd5	-0.09991423
6	0xbd30dbc5	-0.04317834
7	0x3ddb7984	0.10716537
8	0xbd69412e	-0.056946926
9	0xbd3de357	-0.046359386
10	0x3d4671fe	0.048448555
11	0x3cc45007	0.023963941
12	0xbb57f62a	-0.0032953122
13	0x3cdebe6f	0.027190415
14	0x3e0237e1	0.12716629
15	0xbb19b77a	-0.0023455308
16	0x3da148f7	0.07875245
17	0xbd3528d2	-0.044228382
18	0x3d816d78	0.06319708
19	0xbd64dc1b	-0.05587397
20	0xbd905ad1	-0.07048572
21	0x3d9f64ae	0.07782875
22	0xbdd76e5a	-0.10519095
23	0x3c07d34a	0.008290121
24	0x3d1d842b	0.038456123
25	0x3db3c23c	0.08777282
26	0xbd0c56ec	-0.034262583
27	0x3d8040e5	0.06262378
28	0x3ca82659	0.020526098
29	0x3d83fc43	0.064445995
30	0x3d3ac4ef	0.045597967
31	0xbd04fbce	-0.032466702
32	0x3d2e295d	0.042519916
33	0xbd3f7561	-0.0467428
34	0x3c61204c	0.01374061
35	0x3db78d8e	0.08962546
36	0x3d71e15b	0.059052806
37	0xbd20ebdb	-0.03928743
38	0x3db6b59a	0.089213565
39	0x390d48e2	0.00013473959
40	0xbdd5cfd3	-0.1044003
41	0x3de5af43	0.11215069
42	0xbd435616	-0.04768952
43	0x3d921b98	0.07134169
44	0x383ed26f	4.549551e-05
45	0xbdd1baac	-0.10240683
46	0x3da785d0	0.081798196
47	0xbddb3810	-0.107040524
48	0xbd948b52	-0.07253136
49	0xbcf02229	-0.029313164
50	0xbc1568f4	-0.009119261
51	0x3ded5570	0.115885615
52	0x3d60b2aa	0.054857887
53	0x3da7068e	0.08155547
54	0x3d772885	0.060341377
55	0xbdc19f3b	-0.09454199
56	0xbc1a2bc0	-0.009409845
57	0x3d8a4f0b	0.067533575
58	0x3da0e526	0.078562066
59	0x3d3e8f58	0.046523422
60	0xbdfe0726	-0.12403707
61	0xbcd8ed49	-0.026480334
62	0x3df56059	0.119812675
63	0x3d88fa17	0.06688326
64	0x3d882317	0.06647318
65	0xbcba1834	-0.02271662
66	0x3d4af062	0.049545653
67	0xbd063aa1	-0.032770757
68	0xbdea1d6b	-0.11431392
69	0x3dfd8bdf	0.12380194
70	0xbdb172fa	-0.08664508
71	0x3db6d35d	0.08927033
72	0x3dbc76b4	0.09202328
73	0x3b2ab318	0.002604669
74	0xbd5e62af	-0.05429333
75	0x3ddd62ee	0.10809885
76	0xbd320b55	-0.04346784
77	0x3deae6c4	0.11469796
78	0xbdd3d401	-0.10343171
79	0x3cf3982d	0.029735649
80	0xbde94215	-0.11389557
81	0x3d663312	0.05620105
82	0x3dcdd182	0.10049726
83	0xbd5d1a7b	-0.053980332
84	0x3b94431b	0.004524601
85	0xbda67479	-0.08127684
86	0xbd0d9a0a	-0.03457073
87	0xbd331227	-0.043718483
88	0x3d641fcc	0.055694386
89	0x3df41e3c	0.11919829
90	0xbb918c7d	-0.0044417963
91	0xbdbbe430	-0.09174383
92	0x3c3686e9	0.0111405635
93	0xbc9283d4	-0.017885126
94	0xbd8fb930	-0.070177436
95	0x3d65c0ae	0.056091957
96	0x3da6d35a	0.08145781
97	0x3d0d7756	0.034537636
98	0x3b8bdb23	0.0042680665
99	0xbd303e5a	-0.043028213
100	0xbaad2350	-0.0013209376
101	0xbc910fd6	-0.017707746
102	0xbd3de6ca	-0.046362676
103	0x3dcead98	0.10091704
104	0xbda79c17	-0.08184069
105	0xbd83ca05	-0.064350165
106	0x3c87dcdc	0.016584806
107	0x3de46e0e	0.11153804
108	0x3ca3c629	0.019991951
109	0xbd3bfa13	-0.045892786
110	0xbd8797e9	-0.066207714
111	0xbd62235d	-0.055209506
112	0x3d5bc506	0.053654693
113	0xbc1734e8	-0.009228922
114	0x3da6d74c	0.08146533
115	0x3d7f1821	0.06227887
116	0x3d1f9a6c	0.038965628
117	0x3c2c84b9	0.01052969
118	0x3c7f0d9f	0.015567212
119	0x3dd1287e	0.102128014
120	0xbc785740	-0.015157521
121	0x3dab302a	0.08358796
122	0xbdd07888	-0.101792395
123	0xbded9b90	-0.11601937
124	0xbdd2ef72	-0.10299577
125	0x3d9b4aeb	0.07582649
126	0x3e03bc71	0.12864853
127	0xbca78e51	-0.020453604
128	0x3d60c6ef	0.054877218
129	0xbd16b54a	-0.036793984
130	0xbd10702e	-0.035263233
131	0x3dd5586b	0.10417255
132	0xbd7fddfc	-0.06246756
133	0x3d82c7bf	0.06385755
134	0x3cb53c9f	0.022123633
135	0xbcb528f7	-0.02211426
136	0xbbab4c83	-0.0052276268
137	0xbda6bf41	-0.081419475
138	0x3d1335ad	0.03593986
139	0x3d97d7bc	0.07414195
140	0x3dcc7778	0.09983724
141	0x3d5f472b	0.05451123
142	0xbdd30ead	-0.103055336
143	0x3dee9dc1	0.11651183
144	0x3c631d87	0.01386202
145	0x3d98004b	0.07421931
146	0xbd57c368	-0.05267659
147	0x3db8b48f	0.09018814
148	0x3d05715c	0.03257881
149	0x3ccd3a33	0.025052166
150	0x3dca9b63	0.09892919
151	0xbd2a4363	-0.04156817
152	0x3d8e9eeb	0.06963905
153	0xbda04b48	-0.07826859
154	0x3d271c6a	0.040798582
155	0xbdb846fd	-0.08997915
156	0xbcc3ef8e	-0.02391794
157	0x3d90efb3	0.07076969
158	0xbd6b6aa8	-0.057474762
159	0x3ce2e951	0.027699145
160	0xbd3d78d2	-0.0462578
161	0xbc24c060	-0.010055631
162	0x3db90984	0.09035018
163	0xbdb0136c	-0.085974544
164	0x3c47cf0c	0.01219536
165	0xbca4c507	-0.020113481
166	0x3de354ea	0.111001804
167	0xbcdfecc5	-0.02733458
168	0x3def1017	0.11672991
169	0x3d906d4c	0.07052097
170	0x3db6b7da	0.08921786
171	0x3cd29e6d	0.025710309
172	0x3d36085e	0.044441573
173	0xbddf8e75	-0.109158434
174	0x3c4e8042	0.012603821
175	0x3d914726	0.070936486
176	0x3d3b08b1	0.045662586
177	0x3dcf1bf6	0.10112755
178	0xbbba7cf4	-0.005691165
179	0x3d4de2d6	0.050265156
180	0x3b4c94d4	0.0031216638
181	0x3da851ec	0.0821875
182	0xbdb451f3	-0.08804693
183	0xbdae5af5	-0.085134424
184	0x3dd9b2fe	0.10629843
185	0xbd2eeb2f	-0.042704757
186	0xbd4b60bf	-0.04965281
187	0x3d625a8a	0.055262126
188	0x3cb0898d	0.021549964
189	0xbd2cf9d6	-0.04223045
190	0x3d6f1c26	0.058376454
191	0x3dead463	0.11466291
192	0xbc6bac64	-0.014384363
193	0xbcd85171	-0.026406022
194	0xbd525900	-0.05135441
195	0xbaa50c99	-0.0012592255
196	0xbd070f9f	-0.03297388
197	0xbcc93326	-0.024560522
198	0x3dd1b60e	0.10239802
199	0xbbf9dc9c	-0.0076251756
200	0x3de505f5	0.11182777
201	0xbd18f7c5	-0.037345666
202	0x3d92094b	0.07130679
203	0x3da32d78	0.07967657
204	0x3d93d86a	0.07219012
205	0xbd5ee837	-0.054420676
206	0x3c8bd1da	0.017067838
207	0xbc7d0532	-0.015443133
208	0x3c124eaa	0.008929888
209	0x3d971aff	0.07378196
210	0x3bcac50f	0.006188042
211	0x3dbffb19	0.09374065
212	0x3dc197d7	0.09452789
213	0x3d65b34a	0.056079186
214	0xbdab5115	-0.083650745
215	0x3d076d03	0.033062946
216	0x3d306324	0.043063298
217	0x3adebcf3	0.0016993567
218	0x3db11a49	0.086475916
219	0x3d214f2a	0.039382137
220	0xbdb7bf7b	-0.08972069
221	0x3d4c81a3	0.04992832
222	0xbdcf3805	-0.10118107
223	0x3ce7f1be	0.028313514
224	0x3d146b3b	0.036235075
225	0x3d79fb5f	0.06103074
226	0xbd17dd24	-0.03707613
227	0xbd9d80f9	-0.07690615
228	0x3ce4e0ba	0.02793919
229	0xbbf77414	-0.0075516794
230	0x3d718e05	0.05897333
231	0xbdcc3542	-0.099710956
232	0xbc1d457e	-0.009599088
233	0x3d8e7333	0.06955566
234	0x3dd3c8c5	0.10341028
235	0xbdb51b97	-0.08843153
236	0x3de26fb2	0.110564604
237	0xbdbbd37b	-0.09171196
238	0xbd6e51f4	-0.058183625
239	0xbd17e379	-0.03708217
240	0x3dbc4ab5	0.09193937
241	0x3c73fb1d	0.014891413
242	0xbdc3d340	-0.09561777
243	0x3d8fd234	0.07022515
244	0x3d8541ff	0.065067284
245	0xbbc272f6	-0.0059341146
246	0x3dd24419	0.10266895
247	0xbc58de30	-0.013236567
248	0x3cd40e53	0.025885737
249	0x3cd255ad	0.025675619
250	0x3c6f438c	0.014603507
251	0x3d9b4df5	0.075832285
252	0xbc616ff1	-0.013759599
253	0xbc6b07f3	-0.014345157
254	0x3d6aa995	0.057290632
255	0x3da3e4cd	0.08002625

conv2.bias f4 [16]
0	0xbda532e1	-0.08066345
1	0x3d31db6a	0.04342214
2	0xbd38f806	-0.04515841
3	0xbd326200	-0.04355049
4	0x3b782314	0.0037862705
5	0x3deb960b	0.11503228
6	0x3d55388e	0.052055888
7	0x3deb0b49	0.11476762
8	0x3d03c98a	0.032174625
9	0xbd9f0090	-0.07763779
10	0x3dd4e83b	0.10395857
11	0x3af7cf1e	0.001890633
12	0x3c9da0bc	0.019241683
13	0xbc1de830	-0.009637877
14	0xbdc2b3d7	-0.09506958
15	0x3deb2311	0.11481298

bn_2.weight f4 [16]
0	0x3eba2276	0.36354417
1	0x3f709cee	0.93989456
2	0x3e036e72	0.128351
3	0x3e455dc7	0.19274054
4	0x3f3f3c05	0.7470096
5	0x3f7728c2	0.96546566
6	0x3f028d40	0.5099678
7	0x3f612fa6	0.8796333
8	0x3eec8b70	0.46200132
9	0x3eab7bc4	0.33492863
10	0x3e839ff7	0.2570798
11	0x3f770fdc	0.96508574
12	0x3eb444a3	0.35208616
13	0x3f766b1b	0.9625718
14	0x3f45f47f	0.77326196
15	0x3efd51cd	0.49476472

bn_2.bias f4 [16]
0	0x3b9ceb5d	0.0047887997
1	0x3aac79a2	0.0013158808
2	0xbb44ca3d	-0.003002777
3	0xbc54efd7	-0.012996635
4	0xbb8d5009	-0.0043125194
5	0x3baebcf4	0.0053325836
6	0x3b60e563	0.0034316413
7	0xbc16e79f	-0.009210496
8	0xb995fe5d	-0.0002860901
9	0x3a8277d2	0.0009953922
10	0x3ba087cc	0.0048990007
11	0x3c515e3e	0.012778817
12	0x3a72427a	0.0009241473
13	0x3b93c72d	0.0045098276
14	0x3c586280	0.013207078
15	0x3c3c6ddb	0.011500801

bn_2.running_mean f4 [16]
0	0x3e73d301	0.2381096
1	0x3e5d56fa	0.2161521
2	0x3f0d7d7e	0.5526961
3	0x3df73397	0.12070387
4	0x3ee122fd	0.43972006
5	0xbcfc077f	-0.030765293
6	0x3e5a4966	0.21317062
7	0xbdf9bde2	-0.121944204
8	0xbef352f8	-0.47524238
9	0x3e612d22	0.21989873
10	0x3d8a60ae	0.067567214
11	0x3e3947f9	0.18093862
12	0x3e498f2d	0.19683523
13	0xbd835f8d	-0.06414709
14	0xbdca13cc	-0.09867057
15	0x3edd2b3b	0.43197045

bn_2.running_var f4 [16]
0	0x3d8de416	0.069282696
1	0x3d8ac643	0.06776097
2	0x3ea75c88	0.32687783
3	0x3d94065d	0.07227776
4	0x3d96e713	0.07368293
5	0x3df06c8f	0.11739456
6	0x3dce9e33	0.10088768
7	0x3e19b0d1	0.15008856
8	0x3e62d7d2	0.22152641
9	0x3d9d7f55	0.07690302
10	0x3d239d7a	0.039945103
11	0x3e122450	0.14271665
12	0x3db6f9c5	0.089343585
13	0x3deffcbb	0.117181264
14	0x3dcbb0ae	0.09945808
15	0x3e1222a3	0.14271025

conv3.weight f4 [32, 16, 3, 3]
0	0xbcaa2a56	-0.02077214
1	0xbbbd102c	-0.00576975
2	0x3d3aa736	0.04556962
3	0x3d4c933d	0.049945105
4	0xbd2e1e80	-0.042509556
5	0xbd184310	-0.03717333
6	0xbb6a7c08	-0.0035779495
7	0xbceb305a	-0.02870958
8	0xbdb7ea30	-0.089802146
9	0xbc1ce983	-0.009577158
10	0x3cff2a63	0.031148141
11	0x3dbb5034	0.09146157
12	0x3d05176c	0.03249304
13	0xbd7985ec	-0.060918733
14	0xbd03455c	-0.032048568
15	0xbd8f4d93	-0.06997218
16	0x3c6f63a2	0.014611157
17	0xbbb8fcb1	-0.0056453575
18	0xbc48339a	-0.012219334
19	0x3cb6346f	0.0222418
20	0xbc0a4cd1	-0.008441166
21	0x3d90fe7f	0.07079791
22	0x3d9e704d	0.077362634
23	0x3d56b69b	0.05242024
24	0xbd1cf86e	-0.03832286
25	0x3d98e8f1	0.07466305
26	0xbd1c475b	-0.038153987
27	0xbd84ffb0	-0.06494081
28	0xbd5fd864	-0.054649726
29	0xbd92a523	-0.071604036
30	0xbbf5e4c6	-0.0075040786
31	0x3d5fe2a4	0.0546595
32	0x3ccb94b1	0.024851175
33	0x3d5420dc	0.05178915
34	0x3c3aee24	0.011409316
35	0x3cad4005	0.021148691
36	0xbc6aa407	-0.014321334
37	0x3d9280db	0.071534835
38	0x3d6ad813	0.05733497
39	0xbd1e567e	-0.038656704
40	0x3d0ae8da	0.03391347
41	0x3d2999d4	0.041406468
42	0x3cf90692	0.03039864
43	0x3c01a023	0.007911715
44	0xbd8b10a9	-0.06790287
45	0x3ccbc806	0.024875652
46	0x3cafb7d6	0.021449964
47	0x3ca8f9e8	0.020626977
48	0x3b306d65	0.0026920673
49	0x3d011b6b	0.03152029
50	0xbd605b56	-0.054774605
51	0xbc01a085	-0.007911806
52	0x3c1cecd9	0.009577953
53	0xbd1cda17	-0.038293924
54	0x3cb5ecc2	0.022207621
55	0x3c7f47bd	0.015581069
56	0x3c92667b	0.017871132
57	0x3d901885	0.07035927
58	0xbdc7c238	-0.09753841
59	0x3c0f7074	0.008754838
60	0xbd177629	-0.03697792
61	0xbc6452cb	-0.013935755
62	0xbd60b2d2	-0.054858036
63	0x3d37a61a	0.04483614
64	0x3d89ff5c	0.06738159
65	0xbd06ae1e	-0.032880895
66	0xbd066e6d	-0.032820154
67	0x3db448fd	0.08802984
68	0x3d2cc342	0.0421784
69	0xbd0c05bb	-0.034185153
70	0xbc1fec61	-0.009760947
71	0xbc71d35f	-0.014759867
72	0x3c946373	0.018113827
73	0xbd4cbdb3	-0.0499856
74	0xbb03cd62	-0.0020111431
75	0xb8e23cad	-0.000107878215
76	0xbccd4a87	-0.025059951
77	0x3d9bf852	0.07615723
78	0x3d1520ca	0.036408223
79	0x3a1960a2	0.0005850886
80	0xbcd2fa62	-0.025754157
81	0x3d1ca54e	0.038243584
82	0x3d84b6c0	0.06480169
83	0x3d5bb7f0	0.053642213
84	0xbc5e84f3	-0.013581502
85	0x3d67b7bc	0.056571707
86	0xbbbd422c	-0.0057757106
87	0x3cd44aad	0.025914514
88	0x3ca0d18a	0.019631166
89	0xbdaed080	-0.08535862
90	0xbcd1d066	-0.025612067
91	0xbd76e40f	-0.060276087
92	0x3d764104	0.060120597
93	0x3ce9674e	0.028491642
94	0xbd54179f	-0.05178034
95	0xbc2f2959	-0.01069101
96	0xbd88149a	-0.066445544
97	0x3da6f6cd	0.08152542
98	0xbb3f31ef	-0.002917405
99	0xbdb57d2e	-0.08861767
100	0x3c850042	0.016235474
101	0x39d1aef5	0.0003999394
102	0xbc30f239	-0.010799938
103	0xbd10d448	-0.035358697
104	0x3d601ba7	0.05471387
105	0xbcd5e6aa	-0.026110966
106	0xbd657518	-0.056019872
107	0xbcf09d13	-0.029371774
108	0xbd1a3f69	-0.03765813
109	0x3cd17589	0.02556874
110	0x3d94275f	0.07234072
111	0xbd4e4205	-0.05035593
112	0xbc976666	-0.018481445
113	0x3b849c5a	0.004046959
114	0x3cd1546c	0.02555295
115	0xbd4b9223	-0.049699914
116	0x3c6e7c8d	0.014556062
117	0xbc7b88a5	-0.015352403
118	0x3d3accd6	0.045605503
119	0x3d9a4ce4	0.07534197
120	0x3d2f2051	0.04275543
121	0x3d13048d	0.03589301
122	0xbd97540b	-0.07389077
123	0x3cdbc667	0.026828004
124	0x3c09071d	0.008363512
125	0xbce34e50	-0.027747303
126	0x3d53c3fb	0.051700573
127	0x3cb2c608	0.021822944
128	0x3d718c6b	0.058971804
129	0xbced13e8	-0.028940156
130	0xbda0f51a	-0.078592494
131	0x3c950935	0.018192867
132	0xbdc98408	-0.09839636
133	0x3ce9cb7a	0.028539408
134	0x3d0e3579	0.034718964
135	0x3c7b9c80	0.015357137
136	0x3ca720d1	0.02040139
137	0x3b0e977b	0.002175777
138	0x3d37a237	0.044832435
139	0x3d3ccf91	0.04609639
140	0x3d85a5fe	0.06525801
141	0xbd626182	-0.055268772
142	0xbd8e74a4	-0.06955841
143	0xbbebbf09	-0.007194404
144	0x3c983b0c	0.018582843
145	0xbcf08116	-0.029358428
146	0x382bc17a	4.0949766e-05
147	0x3c926775	0.017871598
148	0xbd32b82e	-0.04363268
149	0xbda39dd5	-0.079890884
150	0xbd8aba31	-0.067737944
151	0x3d916005	0.070983924
152	0xbd956a07	-0.07295614
153	0x3cff73f8	0.031183228
154	0x3d9f0b81	0.07765866
155	0x3c263c11	0.010146157
156	0xbd22ae5b	-0.03971706
157	0xbd62dd0c	-0.055386588
158	0xbd8b3c93	-0.06798663
159	0xbb05a2f4	-0.0020391317
160	0x3da51790	0.08061135
161	0xbd6def5c	-0.0580896
162	0x3d24e720	0.04025948
163	0xbced4ee6	-0.028968286
164	0x3d7072c1	0.058703188
165	0x3d38d379	0.04512355
166	0x3d9505e7	0.072765164
167	0x3d0e4c0a	0.034740485
168	0xbd896bfd	-0.0671005
169	0x3bb9a5c6	0.0056655137
170	0x3c883abb	0.016629567
171	0xbd9fe964	-0.078081876
172	0x3d7d34ce	0.061817937
173	0x3c9d9afe	0.019238945
174	0xbd4b21de	-0.049592845
175	0xbd7a7377	-0.061145272
176	0xbd8933cb	-0.06699332
177	0xbca5e2c8	-0.02024974
178	0xbd2c3350	-0.042041123
179	0x3d9c04ca	0.07618101
180	0x3ca3568d	0.019938732
181	0x3d19adea	0.037519373
182	0x3d8e9da8	0.06963664
183	0xbd3b8ed3	-0.045790505
184	0x3d8d3d65	0.06896476
185	0x3c85827f	0.016297577
186	0x3da9e67b	0.08295914
187	0x3d8498fc	0.06474492
188	0x3cc45f16	0.023971122
189	0x3d40e8db	0.04709707
190	0x3d6c48e8	0.057686716
191	0x3d811848	0.063034594
192	0xb923e196	-0.00015628929
193	0xbcc474c2	-0.023981456
194	0x3a3bfa09	0.0007170742
195	0x3c6ce3e2	0.014458628
196	0x3db3b527	0.087747864
197	0xbcfdea0b	-0.03099539
198	0xbc201ddd	-0.009772745
199	0x3cd856a6	0.026408505
200	0xbd5a21d2	-0.05325491
201	0x3cf6d78e	0.030132081
202	0xbcbb986e	-0.022899833
203	0x3d89a79c	0.06721422
204	0x3d9393b6	0.07205908
205	0x3d85f090	0.06540024
206	0x3d591e7e	0.053007595
207	0x3d3e4725	0.046454567
208	0x3cc8262d	0.024432266
209	0xbd8eadb6	-0.069667265
210	0x3d9ad02b	0.07559236
211	0x3d1fcf12	0.039015837
212	0x3db518d6	0.08842628
213	0x3d162a88	0.036661655
214	0x3d8663ef	0.065620296
215	0x3c85307a	0.016258467
216	0xbd0b0167	-0.033936884
217	0x3d12a32e	0.03580015
218	0xbbe2557a	-0.0069071623
219	0xbb4651c4	-0.0030261138
220	0x3d0c3dbd	0.034238566
221	0x3cd19350	0.02558294
222	0xbcbe1b97	-0.023206515
223	0xbd68d91d	-0.05684768
224	0xbc4aa1ff	-0.012367724
225	0x3d72bf47	0.059264448
226	0xbd82c36a	-0.063849285
227	0xbcf08834	-0.029361822
228	0xbd33c1ca	-0.043885984
229	0xbd8aadff	-0.06771468
230	0x3cd97dcb	0.02654924
231	0x3c8e9b96	0.017408174
232	0x3d0b26dc	0.033972606
233	0x3d0b1057	0.03395113
234	0xbcdc1f8c	-0.026870511
235	0x3caab98e	0.020840432
236	0xbcb9ee79	-0.02269672
237	0x3cca41d0	0.024689585
238	0x3c135044	0.008991305
239	0xbd9f87a1	-0.07789541
240	0x3d5a7bd7	0.05334076
241	0xbda205c1	-0.07911254
242	0xbd526e80	-0.051374912
243	0x3cac0b76	0.021001559
244	0x3d6f6bd4	0.058452442
245	0x3d1bf2d1	0.038073365
246	0xbd1cd1c0	-0.03828597
247	0x3c84b89e	0.016201314
248	0xbd325600	-0.043539047
249	0xbab0bd0a	-0.0013484072
250	0x3c39bc5e	0.011336414
251	0x3c05e428	0.0081720725
252	0xbbb25455	-0.005442182
253	0xbc57dc93	-0.013175148
254	0x3d5ee4ec	0.054417536
255	0xbc2aaafd	-0.010416743

conv3.bias f4 [32]
0	0x3d0e0fe8	0.034683138
1	0xbc1a9000	-0.009433746
2	0x3d47260e	0.048620276
3	0x3d83df63	0.06439092
4	0xbd701a60	-0.058618903
5	0x3d6cc7be	0.057807676
6	0x3c2920d8	0.010322772
7	0x3d76c0ea	0.06024257
8	0x3d431546	0.04762771
9	0x3c3ab948	0.011396714
10	0xbd169150	-0.036759675
11	0xbc243ab8	-0.010023765
12	0xbd113a38	-0.035455912
13	0x3ced946c	0.029001437
14	0xbcf8918c	-0.03034284
15	0xbcaa7cb4	-0.020811416
16	0xbda39c60	-0.079888105
17	0xba058380	-0.00050931424
18	0x3cfa5cb0	0.030561775
19	0x3c9cde34	0.019148923
20	0xbca14820	-0.019687712
21	0x3d65bc12	0.05608756
22	0x3d0da1d2	0.034578152
23	0x3d4010da	0.04689107
24	0x3ca439b4	0.020047046
25	0x3cf0807c	0.029358141
26	0xbcdc3580	-0.02688098
27	0xbcf4fb4c	-0.029904984
28	0x3d46f8f2	0.048577257
29	0xbd088e28	-0.033338696
30	0x3ca1ef0c	0.019767307
31	0x3d97fb5f	0.07420992

bn_3.weight f4 [32]
0	0x3f95ab72	1.1692946
1	0x3ec29213	0.3800207
2	0x3ec0657a	0.3757742
3	0x3f384a16	0.71988046
4	0x3f14fdb1	0.581996
5	0x3f4af31d	0.7927721
6	0x3f28c40e	0.65924156
7	0x3ece000d	0.40234414
8	0x3f97694f	1.1829013
9	0x3f0ed133	0.5578796
10	0x3b39f670	0.0028375648
11	0x3f1b04a8	0.6055398
12	0x3f5cbac5	0.8622249
13	0x3f0e0edd	0.5549143
14	0x3f9244b7	1.142722
15	0x3f55c691	0.83506113
16	0x3ebefd6f	0.3730273
17	0x3f11d480	0.56964874
18	0x3e0615a2	0.1309419
19	0x3f979b76	1.1844318
20	0x3e4a9e28	0.19786894
21	0x3deb428b	0.114873014
22	0x3e3c9125	0.18414743
23	0x3f522869	0.8209291
24	0x3c0c6d7e	0.008571027
25	0x3e0dc0e3	0.13843112
26	0x3f45fca0	0.773386
27	0x3f18a097	0.5962004
28	0x3f974036	1.1816471
29	0x3edc7b49	0.4306281
30	0x3f1d41ad	0.6142834
31	0x3eb22268	0.34791875

bn_3.bias f4 [32]
0	0x3de1243b	0.109932385
1	0x3d8d1f63	0.06890752
2	0x3cf739a4	0.030178852
3	0x3da8958c	0.08231649
4	0x3d3807b8	0.044929236
5	0x3d4a144c	0.049335763
6	0x3db778aa	0.08958562
7	0x3d830a2c	0.063984245
8	0x3e149976	0.14511666
9	0x3d2ed475	0.042683084
10	0xbbdf5a04	-0.0068161506
11	0x3d6ca37e	0.057773106
12	0x3dab2728	0.08357078
13	0x3d7bf25b	0.061510425
14	0x3e0f3bb8	0.13987625
15	0x3d88fccc	0.06688842
16	0x3d4a6d41	0.0494206
17	0x3d959f6d	0.07305799
18	0xbc760f4b	-0.015018295
19	0x3e35d712	0.17757824
20	0x3cda0711	0.026614698
21	0x3ca8320e	0.02053168
22	0x3d461d06	0.048367523
23	0x3dd27ec7	0.10278087
24	0xbc53cb2d	-0.012926859
25	0x3b108760	0.0022053346
26	0x3df04c86	0.11733346
27	0x3c9125bb	0.017718187
28	0x3da843a3	0.08216026
29	0x3cde3856	0.027126472
30	0x3d1dfe24	0.038572446
31	0x3d13e580	0.03610754

bn_3.running_mean f4 [32]
0	0x3dbc8732	0.09205474
1	0x3f0a6841	0.5406533
2	0xbf12e6f8	-0.5738368
3	0x3e820d7b	0.2540091
4	0xbf596720	-0.8492298
5	0xbec5c55f	-0.38627145
6	0x3ea87b04	0.32906353
7	0x3e9b6407	0.30349752
8	0x3e1db17b	0.15399735
9	0x3ec912b2	0.39272076
10	0xbd05d56b	-0.032674234
11	0xbefb09be	-0.4903087
12	0xbf25c364	-0.6475127
13	0x3e1f81f1	0.15576912
14	0x3e4811bc	0.19538015
15	0xbe71fb72	-0.23631075
16	0xbc64d7d5	-0.013967474
17	0x3e85efd4	0.26159537
18	0xbf2eb6e3	-0.68247813
19	0x3ea11e02	0.31468207
20	0xbde4054b	-0.11133822
21	0x3ecf83d2	0.40530258
22	0x3e076914	0.13223678
23	0x3e70c7fd	0.2351379
24	0x3f08a7b8	0.5338092
25	0xbee3ab12	-0.44466454
26	0x3e8242ce	0.25441593
27	0xbfa127fe	-1.259033
28	0xbf4da59a	-0.8033081
29	0x3e7817f9	0.24227895
30	0xbf80438f	-1.0020617
31	0x3e86a860	0.26300335

bn_3.running_var f4 [32]
0	0x3e47d26e	0.19513866
1	0x3df8b85e	0.1214454
2	0x3db51cf9	0.08843417
3	0x3dba35b4	0.09092274
4	0x3dcd3d57	0.10021465
5	0x3dec0f7b	0.1152639
6	0x3dbde003	0.092712425
7	0x3deca50d	0.115549184
8	0x3d95b838	0.073105276
9	0x3e18b29d	0.14911886
10	0x3dba6651	0.091015466
11	0x3e45415c	0.19263214
12	0x3e3738de	0.17892787
13	0x3df4ceea	0.11953528
14	0x3e073769	0.13204731
15	0x3e212190	0.1573546
16	0x3d8a8dd3	0.06765332
17	0x3e0eb049	0.13934435
18	0x3e5aa10b	0.21350496
19	0x3e68e3ba	0.22743121
20	0x3db60988	0.08888537
21	0x3deb2e49	0.114834376
22	0x3dbbe3e0	0.09174323
23	0x3df6aa6c	0.12044224
24	0x3e05691e	0.1302838
25	0x3db94f93	0.09048381
26	0x3dece5dc	0.1156728
27	0x3e52b8ab	0.20578258
28	0x3e35a35c	0.17738098
29	0x3dd8b5a1	0.10581518
30	0x3e41a8e3	0.18912081
31	0x3e1fddb0	0.15611911

fc1.weight f4 [10, 288]
0	0xbd1990b9	-0.037491534
1	0x3da158da	0.07878275
2	0xbca25278	-0.019814715
3	0xbd07f32e	-0.0331909
4	0x3e581f49	0.21105684
5	0x3c878845	0.01654447
6	0xbdc7a095	-0.097474255
7	0xbc29694e	-0.010340048
8	0xbc60b9dc	-0.013716187
9	0x38867c7b	6.412804e-05
10	0xbd22859d	-0.039678205
11	0xbcf42c1a	-0.029806186
12	0x3cec4e26	0.028845858
13	0x3c3ed88d	0.011648309
14	0x3d219102	0.03944493
15	0x3d19006a	0.03735391
16	0x3d87a5e9	0.06623442
17	0x3d9c3d07	0.076288275
18	0x3a451e58	0.0007519475
19	0x3cee064a	0.029055733
20	0xbb7161fa	-0.003683208
21	0x3d337921	0.04381669
22	0x3c50fb99	0.012755298
23	0x3d4890bf	0.048966166
24	0xbcacb654	-0.021083035
25	0x3d979aef	0.07402598
26	0x3c1f10fc	0.009708639
27	0xbd47ef03	-0.048811924
28	0xbd3868bc	-0.045021757
29	0x3da955fd	0.08268354
30	0xbcad0800	-0.021121979
31	0x3d0b13db	0.033954483
32	0x3d25dcb7	0.040493693
33	0x3d93c7a1	0.072158106
34	0xbd1d700f	-0.038436946
35	0x3c2a597a	0.010397309
36	0x3d01b22b	0.031664055
37	0xbd1807f0	-0.037116945
38	0xbd8f916a	-0.070101574
39	0x3d679629	0.05653969
40	0xbd8719b6	-0.06596701
41	0xbcf05fc6	-0.029342543
42	0xbd9dbdad	-0.077021934
43	0xbd86df70	-0.06585586
44	0xbd758d90	-0.059949458
45	0x3c9bd723	0.019023484
46	0xba91f9c3	-0.0011137057
47	0xbda8a0d7	-0.08233803
48	0x3d7b4454	0.06134446
49	0xbbdfe88f	-0.006833143
50	0x3bc5ad42	0.006032617
51	0x3cc35386	0.023843538
52	0x3dfa5062	0.12222363
53	0xbda4a26f	-0.08038794
54	0x3d46a0ea	0.048493303
55	0xbc65b77b	-0.014020796
56	0xbd6d2ccd	-0.057904053
57	0xbd8962c4	-0.06708291
58	0xbde18d28	-0.110132515
59	0x3b1aa614	0.0023597525
60	0xbd423f9a	-0.047423936
61	0xbd26fac7	-0.040766504
62	0xbd6f88be	-0.058480017
63	0x3ce4ec33	0.02794466
64	0xbd38e1b2	-0.045137115
65	0xbb6385a4	-0.0034717107
66	0x3c12636d	0.008934838
67	0x3ce08452	0.027406845
68	0x3da9ff0f	0.08300602
69	0xbd74498d	-0.059640456
70	0xbd2fdd71	-0.042935792
71	0xbc8819fe	-0.016613957
72	0xbdce568e	-0.10075103
73	0xbd8905b1	-0.06690539
74	0x3d959612	0.07304014
75	0xbce94a00	-0.028477669
76	0x3e296fce	0.16546556
77	0x3eb68c49	0.35653904
78	0xbe1369f3	-0.14395885
79	0x3d8b1134	0.067903906
80	0x3e4d03b0	0.20020938
81	0xbdaa91de	-0.08328603
82	0x3d02a68c	0.031897113
83	0x3dc2c026	0.09509306
84	0xbd3e7f01	-0.04650784
85	0xbd4e1c32	-0.050319858
86	0xbc2442ad	-0.010025662
87	0x3cd77a80	0.02630353
88	0xbbd87722	-0.0066059986
89	0x3d0f40f9	0.034974072
90	0x3cb9f305	0.022698889
91	0xbd6a9352	-0.0572694
92	0x3d5a6cb6	0.05332633
93	0x3c3ff0f6	0.011715164
94	0xbbaba2fb	-0.0052379346
95	0xbc8f461d	-0.017489487
96	0x3cddc060	0.02706927
97	0xbd30fce7	-0.043209936
98	0xbd0d882a	-0.034553684
99	0x3cd862a2	0.02641422
100	0x3d38c172	0.04510636
101	0xbd17a5bf	-0.037023302
102	0x3dff8321	0.12476183
103	0xbc43ed30	-0.011958405
104	0xbd1f12f7	-0.038836446
105	0xbc98ea05	-0.018666277
106	0x3bbc2303	0.0057414784
107	0x3d96ab56	0.073568985
108	0x3cb6d174	0.022316672
109	0xbd9a261c	-0.075268
110	0x3a7e528a	0.00097016303
111	0x3d16c6c4	0.03681065
112	0x3dfcd4ab	0.12345251
113	0xbd40b7b5	-0.047050197
114	0xbd834890	-0.064103246
115	0x3dee54bf	0.11637258
116	0xbcf8126b	-0.03028222
117	0xbd660c75	-0.056164224
118	0xbd4dfb47	-0.050288465
119	0xb8d240a0	-0.00010025618
120	0x3c7c03b1	0.0153817395
121	0xbdb57452	-0.08860077
122	0xbb950f16	-0.0045489175
123	0x3cd0b1f5	0.025475482
124	0xbdb76f73	-0.08956804
125	0x3c2bd665	0.010488127
126	0x3e11258c	0.14174479
127	0xbc807221	-0.01567942
128	0xbd0db518	-0.034596533
129	0x3dba12cd	0.09085617
130	0xbdad836d	-0.08472333
131	0x3d40e4c7	0.04709318
132	0xbd981ce5	-0.07427386
133	0xbddc5523	-0.10758426
134	0x3e2e4f35	0.17022403
135	0x3ba7ddaa	0.00512286
136	0x3e390092	0.18066624
137	0x3c92270e	0.017840888
138	0x3e3e5920	0.18588686
139	0x3df942bb	0.12170931
140	0xbdb65bab	-0.08904203
141	0xbd1e5199	-0.038652036
142	0xb9b57ce1	-0.00034616052
143	0xbcf27573	-0.02959702
144	0xbd76afa9	-0.060226116
145	0xbd53f6bf	-0.051748987
146	0xbd2d8b82	-0.042369373
147	0x3bb4da4f	0.0055191885
148	0x3c7f3181	0.0155757675
149	0xbd8f34e2	-0.069925085
150	0x3c270b75	0.010195603
151	0xbd04d8ad	-0.0324332
152	0x3d22d391	0.039752547
153	0xbd99f0e6	-0.07516651
154	0xbd155703	-0.036459934
155	0x3d21d6f8	0.03951165
156	0x3cf0ba09	0.029385583
157	0x3e040f39	0.12896432
158	0x3d88f9e5	0.066882886
159	0xbd312727	-0.04325023
160	0xbd4ec426	-0.05048003
161	0xbc940a84	-0.01807142
162	0xbc38387f	-0.0112439385
163	0xbcd8bad5	-0.026456276
164	0xbd587759	-0.052848194
165	0xbcc16043	-0.023605471
166	0xbc816f69	-0.015800195
167	0xbd07c094	-0.03314264
168	0xbc9efa44	-0.019406445
169	0xbcf65a8a	-0.03007247
170	0x3cf1a1bd	0.029496068
171	0xbc6878f6	-0.014188996
172	0xbd3c498a	-0.04596857
173	0x3ccf1ffa	0.025283802
174	0x3c93d066	0.018043708
175	0xbdc81ea6	-0.09771471
176	0xbca7e2c6	-0.020493876
177	0xbd3aed54	-0.04563649
178	0xbdcf0745	-0.101088084
179	0xbe129f96	-0.1431869
180	0x3cbbf5f4	0.022944428
181	0x3c200a2c	0.00976805
182	0xbc4029de	-0.011728732
183	0x3cccd8dd	0.025005752
184	0xbce9fdaf	-0.028563349
185	0xbd0af0f7	-0.03392121
186	0xbb92258e	-0.0044600433
187	0xbcf4091f	-0.029789506
188	0xbcb7ed29	-0.022451954
189	0xbbd866f2	-0.006604069
190	0x3d0e376b	0.03472082
191	0x3ccc96c7	0.02497424
192	0xbcb91241	-0.022591712
193	0xbcf37dfa	-0.029723156
194	0xbca3a0d0	-0.019974142
195	0x3d447254	0.047960594
196	0x39ac9854	0.0003291989
197	0xbd200445	-0.03906657
198	0xbd269bb5	-0.040675838
199	0x3af977fa	0.0019032948
200	0xbd0d9db3	-0.03457422
201	0x3bde7942	0.0067893574
202	0x3c6c656b	0.014428477
203	0x3c87e6c7	0.016589535
204	0xbd11627d	-0.035494316
205	0x3cbdceb9	0.023169862
206	0x3d5072b6	0.050890647
207	0xbd4e9817	-0.050438013
208	0xbd085446	-0.033283494
209	0x3cecb5d8	0.028895304
210	0xbdde2d91	-0.10848535
211	0xbd55ab4a	-0.052165307
212	0x3d806fc1	0.06271315
213	0xbcdc3f89	-0.026885765
214	0xbdb76297	-0.089543514
215	0xbd9dc292	-0.07703127
216	0xbd2419da	-0.040063716
217	0x3bda12bb	0.006655065
218	0x3ce2c4a8	0.027681664
219	0xbd47295f	-0.04862344
220	0x3d2eb200	0.042650223
221	0x387f4538	6.0861203e-05
222	0xbcee6d45	-0.029104838
223	0xbd4084dd	-0.04700171
224	0xbcc8ff6f	-0.024535863
225	0x3c7b8c61	0.015353293
226	0x3af97433	0.0019031822
227	0x3d25c1e8	0.040468127
228	0x3d1765d1	0.036962334
229	0x3cee290b	0.029072305
230	0x3bcd9ec3	0.0062750294
231	0xbcff7a60	-0.031186283
232	0x3d39dbdf	0.0453757
233	0xbd0ef4c0	-0.03490138
234	0x3cc128a9	0.023578959
235	0x3cb53f69	0.022124963
236	0x3d6e55bb	0.058187228
237	0xbd5318f2	-0.05153746
238	0xbd6402c4	-0.0556667
239	0x3c81cd85	0.01584507
240	0x3dddb3d0	0.10825312
241	0x3e411727	0.18856488
242	0xbb722f60	-0.0036954507
243	0x3bce6716	0.00629891
244	0x3c232358	0.009957157
245	0xbce1dc9e	-0.027571019
246	0xbbc9b631	-0.006155752
247	0x3d3ce5a8	0.046117455
248	0xba662fd8	-0.0008780933
249	0xbdb420b8	-0.08795303
250	0xbd4a6416	-0.049411856
251	0x3c6d114c	0.014469456
252	0xbcef3432	-0.029199693
253	0x3c91a1fd	0.017777437
254	0xbd21a94b	-0.03946809
255	0xbd4ea498	-0.050449938

fc1.bias f4 [10]
0	0xbb9a747f	-0.0047135944
1	0xbc11cfcd	-0.008899641
2	0x3d59a561	0.053136233
3	0x3adee5c4	0.0017005731
4	0x3d3b87e4	0.045783892
5	0xbc127521	-0.0089390585
6	0x3cf7b804	0.030239113
7	0xbd56e76d	-0.0524668
8	0xbbeadd75	-0.007167513
9	0x3d6a0ef5	0.05714317
